VRCP_Regression/data/adversary/policies/adversary_0_final.pth (torch, 422021 bytes, 20 tensors)

model.model.model.0.weight f4 [128, 12]
00000000: 5a2b 68be f9fd 1cbe 93d5 6cbe d2c1 453e
00000010: d526 6f3e f33e 433e a82e 873e d186 da3d
00000020: ee48 d93d c4c7 86be 8e73 6a3c 4cd3 69be
00000030: 3fa9 8d3e 2acd 61bd f4af cb3d d912 3e3c
00000040: 76eb 503d c88d d23c b49b 503b 0e78 0abe
00000050: 260f c4be 773e 1a3e a55f 04be 0da6 3e3e
00000060: 854c 83be b188 fd3d 7845 123d 0f6c 49bd
00000070: 43b0 f3bd d375 353d 0488 da3a 1436 a9bd
00000080: 5601 c33e 6f54 3c3e 106e f9bd 4be2 683d
00000090: 56b1 c9bd ab32 9f3e 5139 cebd 12db 123e
000000a0: cd0e 43be bd24 7b3e 18fe 09bc a7c0 683e
000000b0: e5db 95bd 2300 56be f0bb 5cbe 5a66 27bd
000000c0: 6bd3 403e 4c0a 21be dcba 85be eb4c 273e
000000d0: 8643 a13d 1bfa 443e b7c0 a8bd 513d 3d3d
000000e0: 8717 e9bd 4941 06be 0c46 a43e 3be9 743e
000000f0: 30f6 a43d f1fb b53d 90e2 03bd 48b0 00bd
00000100: 1a57 503e 5073 4b3e 4567 0d3e 9ef9 86be
00000110: c6a2 8ebe 608b 323e f797 04be 099b 533e
00000120: 4c51 72be 0c67 42be 501f bcbd 191b 54be
00000130: 0059 32be 7217 e1bd 2a08 063e aaae 03be
00000140: 1f81 3fbd 830b 963e ca75 643e bb7e f0bd
00000150: 2c61 0e3d 7112 563d 34b3 e43c d232 7c3b
00000160: d657 95bc 9f5b 7a3e a41f 5ebe 25f8 97be
00000170: b38d 173d 6ceb 55be 331a 2c3e 66d2 3c3e
00000180: 1749 833c bb8e fb3d 2798 113d 81f2 cc3d
00000190: f26e 74bd 4dfe 1f3e 3e14 38be ec32 8e3e
000001a0: ab3e 1a3e a448 2abe 4921 413e dad5 b5bd
000001b0: a5c4 123e 2218 3dbe 9e9c aebe ee63 fa3d
000001c0: 7d98 efbd a38b 40bd 2450 34be d1eb a4be
000001d0: 6e02 5abe 43e5 a0bd b318 1cbe 5b38 05be
000001e0: 31f8 06be 7c9d 77be 4142 9d3d e27b 703d
000001f0: eb2a 88be 3735 e1bd a4f4 87bc be4d 92bd
00000200: 8c6f a33e 569e 093e bd77 6b3d 5bab db3d
00000210: 45e7 09be 7cd9 513e 143d dabc 2c46 84bb
00000220: 2901 0b3e 151a a6be 24ad 39be 7163 43be
00000230: db78 35be 1a15 c0bb e4df 973d bbe7 94bd
00000240: 4c99 ec3d 9e9c 46bd eb6e 16be fbe8 39bb
00000250: 7818 fe3c c37b cabd 0650 3fbc 42f6 afbe
00000260: 57a3 ab3e da32 9b3e d84c 09be 4237 123d
00000270: ab0b 41bd 5927 d63d f852 a0bd 5f57 e6bd
00000280: d08b 92bd f8c0 813e bb20 7d3e 26cd 89be
00000290: d13c bd3d a10b 453d 1aa0 38be 87c5 363e
000002a0: d93c 14be 9949 1dbe f616 963d 51f1 c3bd
000002b0: 8e89 303e 2540 95bd 7e04 643e 652f 013c
000002c0: 4faa 84bd 7004 973e 4cee f53d 1ba3 793e
000002d0: c892 45be 11f9 8a3e be0f e6bc 2170 08be
000002e0: 9c8d 29be c8c1 543e 0941 dabd 80e6 9a3d
000002f0: bc76 2ebe 6e05 b0be 538e 333e 63c7 41be
00000300: 740e 6abe 4a31 e5bd 4a19 2fbe a4f5 71be
00000310: e64e 46bd 9f24 0fbe f788 843e b58a 0b3e
00000320: 545d 1b3e d582 6bbe af9d 8bbe 4177 89be
00000330: 02a6 b53d b724 4bbd 41f5 d3bd ffa1 e83c
00000340: 0f56 583e ceed 333e e4eb 9fbe 0552 98be
00000350: 555b b63d 2101 a83e 90a4 3c3d efcc 14be
00000360: 1a55 523e 0561 8d3e 38dd 85bd b8db 04be
00000370: 3cce 66be 43a9 13bd 1dff 1a3e be60 9c3e
00000380: 1258 1cbe 3ae6 91be 0026 32be b84b c03c
00000390: 5bc6 9c3c 65ce e73d 1dcb ce3d 1375 43bd
000003a0: 4bbc 29be f2ba 803e a0b1 983e 97af cebd
000003b0: 98e7 a2bd 2e7d eb3d 96bc 1f3d 45c7 a2bd
000003c0: 65a1 0fbe 0de3 3b3e fd36 023e 8696 00be
000003d0: cab0 7cbe 5e8d 683d 6b9f 173c 64c5 b33d
000003e0: 5e98 553e c8e0 4bbe ac3a 2f3e f790 66be
000003f0: 98b0 9c3d 0a6b 6abe b921 253e ba10 253e
-0.22672787 -0.15331258 -0.23128347 0.19312218 0.23354657 0.19066982 0.26402783 0.106702454
0.10609613 -0.26324284 0.014309777 -0.2283451 0.27668187 -0.0551273 0.0994567 0.011601173
0.051005803 0.025702372 0.0031831088 -0.1352236 -0.38292807 0.15062891 -0.1292711 0.18618031
-0.25644317 0.123795874 0.03571078 -0.04917532 -0.11898854 0.04430182 0.0016672616 -0.08262268
0.38086957 0.18391584 -0.12179196 0.056856435 -0.09848277 0.31093344 -0.10069526 0.14341381
-0.19048615 0.24525733 -0.008422397 0.22729741 -0.07317332 -0.2089849 -0.21556067 -0.040869094
0.1883065 -0.15726584 -0.26119125 0.16337936 0.07874207 0.19236033 -0.082398824 0.046201054
-0.113814406 -0.13110842 0.32084692 0.23917095 0.08054769 0.08885945 -0.03219849 -0.031418115
0.20345727 0.19868207 0.13808925 -0.26362318 -0.2785856 0.1743598 -0.12948595 0.2066461
-0.23663825 -0.18984622 -0.0918566 -0.20713462 -0.17416763 -0.109908 0.13089052 -0.12859598
-0.046754 0.29305658 0.22310558 -0.11742922 0.03476064 0.05226368 0.027917482 0.003848244
-0.01823036 0.24449013 -0.21691757 -0.29681507 0.03700037 -0.20890588 0.16806869 0.18439636
0.016026063 0.12283083 0.035545494 0.100071914 -0.05967612 0.15624352 -0.17976472 0.27773225
0.15062968 -0.16629273 0.18860354 -0.088786796 0.14332826 -0.18466237 -0.34103864 0.12226091
-0.11699007 -0.047008168 -0.17608696 -0.32211164 -0.2128999 -0.07856228 -0.15243797 -0.13009779
-0.13180615 -0.2418117 0.076786526 0.058711894 -0.26595244 -0.10996478 -0.016596146 -0.071437344
0.3192104 0.13439307 0.05748724 0.10726043 -0.13467129 0.2049312 -0.026640452 -0.0040366855
0.13574661 -0.32441774 -0.18132454 -0.19080903 -0.17721884 -0.0058618905 0.074157506 -0.072707616
0.115526766 -0.048489206 -0.1469075 -0.0028367627 0.031017527 -0.09886887 -0.011676794 -0.34367567
0.33523056 0.30312234 -0.1340822 0.03569723 -0.047130268 0.10456724 -0.07828325 -0.112471335
-0.07155573 0.25342536 0.24719517 -0.26914328 0.092401154 0.048106793 -0.18029824 0.17848788
-0.14476337 -0.15360107 0.07328598 -0.09567512 0.17239973 -0.07287625 0.22267339 0.007884835
-0.06477796 0.29495573 0.12008342 0.24378626 -0.19294274 0.27143148 -0.028083678 -0.13324024
-0.16557926 0.20777047 -0.10656936 0.07563496 -0.17037481 -0.34379143 0.17534761 -0.18923716
-0.22857076 -0.11191042 -0.17099491 -0.2362886 -0.048415087 -0.13978814 0.25885746 0.13627131
0.1517232 -0.22999127 -0.2726874 -0.26848796 0.08869554 -0.04959556 -0.10349513 0.028397558
0.21126579 0.17571184 -0.31234658 -0.29750076 0.08904139 0.3281336 0.046055377 -0.14531301
0.20540276 0.27613083 -0.06536335 -0.12974441 -0.2253961 -0.036050092 0.1513638 0.30542558
-0.15267971 -0.2849596 -0.17397308 0.023473606 0.019137552 0.113186635 0.100973345 -0.047719073
-0.16575734 0.25142628 0.29823017 -0.10092085 -0.07954329 0.114984855 0.03899821 -0.07948164
-0.14026411 0.18348332 0.12716289 -0.1255742 -0.24676815 0.056775443 0.009254317 0.08777884
0.20858905 -0.19909966 0.17112225 -0.22516237 0.0765087 -0.22892395 0.16126145 0.16119662

model.model.model.0.bias f4 [128]
00000000: ad6e d4bd a8b4 73bd 5e2d 54be 628d 9b3b
00000010: fbe1 00be f2f2 aebd 24f8 123d 4457 dabd
00000020: 7c85 103e e167 3bbe 3e5f 54bd 5362 513e
00000030: 8745 213c 0160 78be cb1f d5bd f8d0 43be
00000040: edc9 1b3d 0260 19be cc00 b83c d6d7 9cbd
00000050: c659 d43d 2be3 9b3c a52e 073e 13e1 8dbd
00000060: 1e25 38be ae7d 3c3d fe2b 53bc c34e db3d
00000070: 61bb c6bd 5273 863c 839d 52be 1bbd b1bd
00000080: 5aae 57bd 35b8 2bbe edac 3dbd 1070 6f3e
00000090: d730 4e3e 9711 e0bd 5f01 d7bd eded b33d
000000a0: 3c54 4b3e 5903 a03d acc4 d9bd bfff 473d
000000b0: 526c 083e 562c d4bd 662a 85bd 1d3f 903c
000000c0: 742a 733e d6fd 34be d0f5 053e cad4 9e3e
000000d0: d810 433e 12c5 f03d 63bd 583d ece4 003e
000000e0: cfcb ce3d 7a66 f1bb fcec 5e3e 7069 493d
000000f0: f2fe 7d3d 102c f5bd 9bba 363e b714 fb3d
00000100: bbe7 0cbe d034 6c3e c50f 96bd 7ac9 bebd
00000110: 98a7 ad3c d79f f23c 8b50 6c3e eb7d 49be
00000120: bbcc 80bd 94d4 9cbd f3db 1f3e 7c97 75be
00000130: d49a 06be f014 6b3e ed88 8d3d 7fa2 973d
00000140: 6f50 a73d 2f98 0a3e cbc4 a73e 8018 b73c
00000150: f1f3 3d3b 0261 343e 95dd 24bc 9fc9 fa3d
00000160: 4b56 0fbd d300 25be 096e 4b3e 1270 843d
00000170: 3fa9 1abe 0b6b 0f3c 9164 cebd 7769 543e
00000180: 6802 0e3d 820f 53bd d1ab 39be dbb0 62be
00000190: c965 46be 8097 72bc 6864 663d e070 1cbe
000001a0: 8dc3 cc3d 5000 2e3e 24f2 7f3c 3eba 523e
000001b0: e1ef 5bbe f7d1 873c 3444 b8bd a403 c3bc
000001c0: 4f13 0f3c 69bb 933d 9ede 90bc 10ad a2bd
000001d0: e4f9 8e3e 5786 f53d 31c9 72be 0c41 dfbd
000001e0: 00f0 d1bd ca23 bf3d bfa2 63be 4eb0 87be
000001f0: c6f0 15be dadf 5e3e 0daf 0ebe 1b92 c13b
-0.10372672 -0.05949846 -0.20720431 0.0047470788 -0.12586205 -0.08542432 0.035881177 -0.10661176
0.1411342 -0.18301345 -0.051848643 0.20447664 0.009843237 -0.24255373 -0.10406455 -0.19122684
0.03803437 -0.1497803 0.022461317 -0.07658355 0.103686854 0.01902922 0.13201387 -0.06927695
-0.17982909 0.046018295 -0.0128889065 0.10708382 -0.097037084 0.01641241 -0.20567898 -0.08678647
-0.05265651 -0.16769488 -0.046307493 0.23382592 0.20135818 -0.10940855 -0.104983084 0.08785615
0.19856352 0.078131385 -0.10633215 0.048827883 0.13322571 -0.10360019 -0.065022275 0.01760822
0.23746663 -0.17674956 0.13082051 0.3102172 0.19049394 0.11756338 0.05291499 0.12587327
0.10097467 -0.0073669525 0.2177009 0.04917282 0.062010713 -0.11971295 0.17844622 0.122598104
-0.13760273 0.23067021 -0.073272265 -0.09315772 0.021198079 0.029617233 0.230776 -0.1967694
-0.06289049 -0.076577336 0.15611248 -0.23983568 -0.13145 0.22957206 0.06910882 0.074040405
0.08169638 0.13534616 0.3276733 0.02235055 0.0028984512 0.1761513 -0.010062595 0.122454874
-0.034994405 -0.16113596 0.19866194 0.06466688 -0.15103625 0.008753548 -0.10077775 0.20743357
0.034670264 -0.05152846 -0.18131949 -0.22137778 -0.19374765 -0.014806628 0.0562481 -0.15277433
0.09998236 0.16992307 0.015621696 0.20578858 -0.21478225 0.016579611 -0.08997384 -0.023805447
0.008732631 0.0721348 -0.017684277 -0.07943165 0.27925026 0.11988514 -0.23709561 -0.109010786
-0.102508545 0.09332998 -0.22230051 -0.26501697 -0.14642629 0.2176508 -0.13933964 0.0059073097

model.model.model.2.weight f4 [128, 128]
00000000: 4fa0 a23d 0968 8c3d 743a 8f3c 2b06 9fbd
00000010: f456 20bd d555 0fbc 4ce0 27bd fc8a cc3d
00000020: d86a d53d 255a 3abd a56e 033e 918e b6bc
00000030: 343d 0d3e 5840 823c 14cf ccbc a587 673c
00000040: 806c c0bc e7b9 c23d d7ec b4bd 6ce4 7cbc
00000050: dee4 b63d c0a6 a8bd 6508 ca3d 0dc6 353d
00000060: 7230 d43d 8ee7 8dbc 8b86 603c 29a5 cd3d
00000070: 60e3 f63c dc14 95bd bfce cbbc 687b 6ebd
00000080: db90 53bc caad ffbc da86 d33d 4446 f2bc
00000090: 234d e1bb d964 81bd 9c57 863d 5cf1 513d
000000a0: 2766 8a3d 68bb cd3d 2237 c5bd 93e2 bfbd
000000b0: 7236 babd 6153 8b3d 0dff 1bbd 7d1a 373c
000000c0: ad3f 9cbc 805e f63d eea1 91bd 597b e23c
000000d0: 7d26 92bd 7b7b 683d 7ca3 7f3d 735e 663c
000000e0: 3dba be3d f0d9 91bd d2f1 463d 25b4 433d
000000f0: ef49 85bd 23a8 253e fab0 edbc 4b58 d9bb
00000100: 6457 933d 0042 9b3d 40f2 a43d 8e79 dc3d
00000110: 2e39 f03d 617f 413d 7158 a5bd 2cdf 213d
00000120: 9f03 a7bc 1b0c 26bd 8948 babc 80bb 49bd
00000130: 3c31 d03c 7165 3f3d d24f d0bd 0415 40bd
00000140: 654f 50bd ab8b 44bd 23f9 273d 53c4 793d
00000150: 2a69 423c 7068 84bd c7b6 003e 8e66 f2bc
00000160: 43f0 263d abf2 7b3d bda5 533c 7fa3 2c3d
00000170: dbb5 a33d fefd 9b3d c8e2 0cbe da69 a33d
00000180: da9d cdbd 2914 50bd 3fa2 5ebc df5c 39bd
00000190: 3f16 bebd 7d2c e53d 1997 8f3d fe64 003e
000001a0: 10b7 f93d bf3d 8abd 2c93 543d 44df b73d
000001b0: 33c6 5d3b 750e 2fbd f990 f1bc 39ea 57bc
000001c0: 2a5e b33d 1464 49bd 533c 0fbd 9710 263e
000001d0: eb19 0fbd 33c9 d83c ce5c 8e3d 4876 dcbb
000001e0: 9864 31bd 648b 913c dcd9 943d 2ce5 8e3d
000001f0: a440 643d a01b 743d 3818 6abd ccb6 1bbd
00000200: fc08 163d 5e87 6d3d 8aab 113c a548 20bd
00000210: 6f3b 80bc 2d60 1e3d f137 803c fdcc c33c
00000220: 7e33 393c 59e8 b93d 7ead 123d 335a 463d
00000230: c187 48bc fffd db3d 203f 99bd 08e3 47bd
00000240: 73d7 36bc fca2 e3ba 90f0 003d e076 213d
00000250: 26ed 403d fe3a d73d a504 cd3c e108 09bd
00000260: e343 26bd bdb5 bbbd 1109 cf3d 4bce 4dbd
00000270: c973 91bd 08ae cf3d 8a50 fdbc d61c 90bc
00000280: 0391 983d 7a48 ab3d ba1c 69bd 2299 c3bd
00000290: 9d1c 27bd 791a b93d 9861 7b3c 52ba b63d
000002a0: 4d3a 59bd df95 263d dffd e23c 50b4 a03d
000002b0: ff83 46bd 06f3 2b3d 938e e5bc 3cb3 e13c
000002c0: e61a 273d 4189 ee3b 36e6 1dbd b199 a73c
000002d0: bb1b 8d3d 60a4 4bbd ce1d 40bd 61da e13c
000002e0: 5a85 51bc f856 883c 8933 433d 0801 d83c
000002f0: d24e af3b 08a0 b53d ad7c 663d b4de c23d
00000300: e389 d2bc 51d7 9fbc 0822 b33c 735f 36bd
00000310: 3b84 c53d 5fe7 043d 08a9 453b ee0d d03d
00000320: a300 e33b 0043 02bd 276d 953d 366f 443d
00000330: 1ad1 0e3d dfa9 983d feea da3d fdec abbd
00000340: d2ba 743d 6511 743d ac9d 283d 13fb 49bd
00000350: 0a4a 513d 1018 8e3d 5748 6fbb ae05 eebc
00000360: 538d 9fbd 621f 1ebd 951b 7c3d 1244 0fbd
00000370: 8774 863d 5f82 00bd 1bfb e53d 11f1 be3c
00000380: c9bd a43d c183 f93d 610a c13d e606 cd3d
00000390: 2afe 893d 7b8e afbc c7ca 23bd a53c 293c
000003a0: cbe9 a5bc 9315 963d 67b4 4fbd bace c0bc
000003b0: 0cc5 923d 48ba 563d d9fb 253d 1d24 4fbd
000003c0: 8610 cebc ff89 fe3c 8e21 653d d2d5 053d
000003d0: a8b4 573d 2073 2d3a c4fa df3d d68c ee3c
000003e0: dedd a63d d906 57bd 143b 363c 17fe d7bc
000003f0: 42e0 6f3d 0e2b 073d 8b59 903d 9f24 933d
0.07940733 0.06855781 0.017483927 -0.07764848 -0.039145425 -0.008748491 -0.04098539 0.09987447
0.104207695 -0.045496125 0.12835176 -0.022284778 0.13792878 0.015899822 -0.025001086 0.014131461
-0.023489237 0.09508114 -0.08834236 -0.015435319 0.08930372 -0.0823493 0.098648824 0.04437833
0.10360803 -0.017322328 0.013703953 0.100412674 0.030137718 -0.07279369 -0.024878858 -0.058223158
-0.012912954 -0.031210799 0.10328455 -0.02957452 -0.0068756505 -0.06318063 0.06559679 0.05125557
0.06757765 0.100455105 -0.096296564 -0.093693875 -0.09092416 0.06803013 -0.038085032 0.011175749
-0.019073332 0.12029743 -0.07110964 0.027646707 -0.07136247 0.056758385 0.06241177 0.014060604
0.09312866 -0.071216464 0.04857046 0.04777922 -0.06508242 0.1617742 -0.029015053 -0.00663284
0.07194403 0.07580948 0.08054018 0.10765372 0.11729656 0.04724062 -0.080735095 0.039519474
-0.020387469 -0.04053889 -0.022739666 -0.04925108 0.025414102 0.0467276 -0.101714745 -0.046895042
-0.050856967 -0.04798476 0.04100908 0.060978245 0.011865893 -0.06465232 0.12569724 -0.029589918
0.040756475 0.061510723 0.012917933 0.04214811 0.079936706 0.076168045 -0.13758385 0.07979174
-0.100398734 -0.050800476 -0.013588487 -0.045254584 -0.09281587 0.11190126 0.070112415 0.12538525
0.121931195 -0.067500584 0.051898167 0.089781314 0.003384006 -0.042738397 -0.029488074 -0.013178402
0.08758195 -0.049167708 -0.03496964 0.16217266 -0.034936827 0.026463127 0.06951295 -0.0067279674
-0.043308824 0.017766662 0.07268116 0.06977305 0.05572571 0.059596658 -0.057152003 -0.038016126
0.036629662 0.057990424 0.008890996 -0.03913178 -0.01565334 0.03866594 0.015651675 0.023901457
0.011303781 0.0907752 0.035809986 0.048425864 -0.0122393975 0.10741805 -0.07482743 -0.0488005
-0.0111597655 -0.0017367299 0.03147942 0.03942001 0.047101162 0.10509299 0.025026629 -0.033455733
-0.040592086 -0.09165523 0.10109151 -0.050245564 -0.071021624 0.10140616 -0.030922193 -0.017591875
0.07449534 0.08363433 -0.05691216 -0.09550692 -0.040798772 0.090382524 0.015343092 0.089222565
-0.053034116 0.040670272 0.027708946 0.07846892 -0.048465725 0.041979812 -0.028022086 0.027551286
0.040797137 0.0072795455 -0.038549624 0.020459028 0.06890055 -0.049717307 -0.046903424 0.027569951
-0.012788141 0.016643032 0.04765657 0.02636768 0.0053499723 0.08868414 0.056271244 0.095151335
-0.025700515 -0.01951185 0.021866813 -0.04452462 0.096443616 0.032447215 0.0030160565 0.10158907
0.006927566 -0.031802177 0.0729621 0.04795762 0.034867384 0.07454275 0.106893525 -0.08394811
0.05974848 0.0595869 0.041165993 -0.04931171 0.051096 0.06938183 -0.0036511624 -0.029055443
-0.07790627 -0.038604148 0.06154974 -0.034977026 0.065651946 -0.03137433 0.11229535 0.023308309
0.08044011 0.12183333 0.09425808 0.100110814 0.06737931 -0.021430245 -0.039988305 0.0103294
-0.020253083 0.07328334 -0.050709154 -0.023536075 0.0716649 0.052423745 0.040523384 -0.05057155
-0.025154363 0.031071661 0.055940203 0.032674618 0.05266252 0.0006616581 0.109365016 0.02911989
0.081477866 -0.052496765 0.011122484 -0.026366277 0.05856348 0.033000045 0.07048329 0.07184719

model.model.model.2.bias f4 [128]
00000000: 3ec5 aebd 34ed 3d3c 5c16 86bb 8152 b83c
00000010: b10b c73c e13d cbbd 95ce 7c3d 10af 23bd
00000020: e61a 233d 6511 7cbc 626d f3bd 8270 c63b
00000030: 7cd1 13bc 5ed5 c4bd e1e5 c2bd 19c7 263d
00000040: b646 c4bc 3362 043e 7981 073d 4420 03be
00000050: 7a45 533d 9087 313c 6783 95bc 3fee b6bd
00000060: 789f 023d ba4d 84bd fb04 773d f3fb aabd
00000070: e5c5 bdbb 3d97 183d eb7a e6bc e614 0d3c
00000080: 25d6 9dbd 6e84 8f3c 0959 a93c b1f0 923b
00000090: dba1 073b fe41 623c 3e49 debc c8d1 d63a
000000a0: d605 69bd 472d e63d ee9e 093c 6fe1 55bd
000000b0: 990e dbbd b8bc 6b3d f9e5 2f3d 48b5 abbd
000000c0: d124 4bbd 49ec 80bc 08c6 75bd 09d5 443d
000000d0: eb40 87bd 7883 9bbd 8f86 a83c 8c8d 60bd
000000e0: 5d45 9ebd 3965 aa3c 13ff 693d f75c b4bc
000000f0: 6b12 9b3c bba5 abbd 215b 863c 31f8 4cbc
00000100: da1f 98bd a697 8dbb 47f5 323d 6ea9 b7bd
00000110: f77a f5bd b22a 103c 0070 0cbd 3d01 4b3d
00000120: f277 7d3c 7b9d 19bd 5dc3 80bc 654c 903c
00000130: 58fc a9bd 2c2d 79bc 3354 80bd c6f0 45bd
00000140: 22c3 97bd 82e5 933d 0e92 b8bd a44f 16bd
00000150: c13d f8bc eead 0c3e 2851 8d3d 7ce6 f8bc
00000160: a86a c7bd 44f6 ddba 8abf 263d be59 ab3c
00000170: b23d 7ebb 3da3 bcbb 3011 f2bc 16ec a73c
00000180: a58b 563d c5cb cabb ef97 683d 3b35 9dbd
00000190: d9cd b73c 21f8 a9bb d16e 163d 23ab 3cbd
000001a0: 9b3f 123d 7d23 19bd 7aae 8cbc 40c1 5c3b
000001b0: 2917 753d ae44 643d 12f6 b9bd 2241 a4bd
000001c0: 6b7c 993b 1340 afbd 5e0e 1d3d d182 30bd
000001d0: 8ba7 74bd f5fc 7dbd b5ed 98bb 3ad4 03bd
000001e0: 01bc 4bbc 18e6 ccbd 89df dbbd 9bac 063d
000001f0: 2b1f 1abc 1d41 8c38 f27e 11bc 395a 573d
-0.08533715 0.011592198 -0.004092021 0.022500278 0.024297567 -0.09923912 0.06172045 -0.039961874
0.039820574 -0.015385007 -0.118860975 0.0060558924 -0.009022113 -0.09611009 -0.09516502 0.040717218
-0.023959499 0.12928085 0.03308246 -0.12805277 0.05157993 0.010835543 -0.018251134 -0.089321606
0.031890363 -0.06460138 0.060307484 -0.08348837 -0.005791413 0.037253607 -0.028134784 0.00861094
-0.077068605 0.017519202 0.020672338 0.004484259 0.0020695839 0.013809679 -0.027134534 0.0016389424
-0.05689033 0.11239105 0.008399708 -0.052216943 -0.10696144 0.057553023 0.04294393 -0.08384186
-0.049595658 -0.01573767 -0.06000331 0.04805473 -0.06604179 -0.07593435 0.020571975 -0.05482249
-0.07728074 0.02080022 0.057128023 -0.022016985 0.01892968 -0.0838122 0.016400876 -0.012510345
-0.0742795 -0.0043210564 0.043690946 -0.08967863 -0.11986344 0.008799242 -0.0342865 0.049561728
0.015470492 -0.0375037 -0.015718156 0.017614553 -0.08300084 -0.015208524 -0.0626606 -0.048325323
-0.074102655 0.072215095 -0.09012233 -0.036697045 -0.030302884 0.13738224 0.06900245 -0.030383341
-0.0973714 -0.0016934355 0.04071001 0.020916816 -0.0038794097 -0.005756764 -0.029549211 0.020498317
0.05237927 -0.006188842 0.05678552 -0.076761685 0.022437023 -0.00518705 0.036726777 -0.046061646
0.03570519 -0.03738736 -0.01717304 0.0033684522 0.05983654 0.05572956 -0.09080137 -0.080202356
0.004684021 -0.08557143 0.03834378 -0.043093506 -0.059730094 -0.062008817 -0.0046670088 -0.032184817
-0.01243496 -0.100048244 -0.10735995 0.032879453 -0.009406845 6.6878485e-05 -0.008880364 0.052576277

model.model.model.4.weight f4 [128, 128]
00000000: 7e51 183e 4732 a73d f7e5 d43d 1c25 08bd
00000010: 5436 00be 1669 943c ab0a 8f3d f3a3 4b3d
00000020: c99b 553d 26fd 883c 1f48 7cbd bb19 07bd
00000030: 9649 673d 9626 553d e287 953d 4377 1dbd
00000040: e741 23be c4b3 81bc 26ee 7a3d 3578 86bc
00000050: 1e17 213d 59f4 753d e5b4 2bbd 8558 bc3d
00000060: 6dac 1d3d 6a5e cc3d 31c4 473d 222d e4bc
00000070: 5695 6e3c 63a0 223d bf5b 09bd b2a6 523d
00000080: 83b5 b3bc 07e9 b3ba 3f90 cf3d 4e16 b33d
00000090: 4117 cb3d a822 a93d abe1 5abd 76ee af3d
000000a0: 111f d1bc 0bd0 62bd 8a32 313d e673 9a3b
000000b0: cae1 313e 490d 6e3d 5e68 51bd ec2b 183e
000000c0: 6bf7 d93d cccd f83c b11b 543d 455d 8a3d
000000d0: f98c e13d 25bb de3d 4f8b fcbc a822 323d
000000e0: 9cff 033c c9a8 0cbd 7260 8b3c 27b9 893d
000000f0: 6900 fb3c f3ff c13d 4bc2 ac3c 7362 f73c
00000100: 1a47 36bd d23a 123c 21fc 953b 4e93 ab3d
00000110: 05e6 5f3d cd55 4fbd db1a cf3d 86f5 aebc
00000120: ce3d b13d 8cb9 df3d 8158 cd3d e850 5cbc
00000130: d22f 5e3d ef2e 8ebd 8fdd 1cbd 9783 7e3d
00000140: a009 aebb 7262 823d 2c87 3dbd 0d91 e03c
00000150: 6bd2 623d 6525 5ebb 2ded 4a3b 4d10 da3b
00000160: 79ae 873d afd4 ad3d c29a 5b3d 580a b5bc
00000170: b5f4 b23d 1edf 8f3d 9417 853b b3b6 013e
00000180: 2e4c bd3c 592f cf3d 9248 ce3d 6030 eb3c
00000190: c9b1 ea3d 8d29 773d e7e1 ec3d 4dbf 1cbc
000001a0: 425b bb3c 4d12 0c3d 3059 413d f187 2fbd
000001b0: 512a 6c3d 70f3 173d 1c19 333c f3a9 153e
000001c0: d4bb cb3b 5273 9a3d 6a2e 8cbd eaf8 843d
000001d0: 2853 ca3c ccb8 8c3d 3334 883d 417e 863d
000001e0: 1b97 5abd 7f00 69bd 71ea 8f3d 6d7c 84bd
000001f0: e2e8 df3d 61c0 a93d a607 683d d41e a33d
00000200: 40a5 e23c 6ba3 c03c 178a 92bc 0713 2a3d
00000210: ccb2 0dbc 50f6 143d e7e1 8e3c bfa8 96bd
00000220: d997 973b db39 51bd cc92 34bc a25d ea3c
00000230: 1ab8 a1bd 0b43 a4bd 20a3 9fbd 312f 86bd
00000240: 6e4d 54bd 8c4d 403d a5f4 863d 6ecb 9bbc
00000250: 30b3 c7bb 13b7 87bd 85e4 2ebd 27b1 003d
00000260: a77f adbd da64 b23d 07ab a4ba 1559 abbd
00000270: f48b a43d 9b50 b4bd 2b4d 87bb cb82 74bc
00000280: d777 103d d08c 903d d26c 563d fef4 80bd
00000290: ca21 d6bb 9edd 6b3d 9f47 66bd e492 733d
000002a0: 1cba d93c df39 6e3d 776a 3f3d 4108 a23c
000002b0: 1355 ffbc 4f5d 81bd 4d88 46bc b478 4ebd
000002c0: bf68 5ebd 12d3 a4bd c98c 92bb 1188 f43c
000002d0: eb49 afbd f9f1 333d 0c58 96bd 3e40 c63c
000002e0: 3598 82bd c0b9 18bd 5f09 3f3d f31e 85bd
000002f0: 52df 99bd 2565 9d3b dbba 3dbc 9646 40bd
00000300: 86ab 0f3d 8514 883d 4d50 9fbd c7ab 9dbd
00000310: bdf2 a93d 310f 8ebd 93dd 7bbc 7b61 f2bc
00000320: 94a1 f33c f624 69bd 6dc4 3e3d 8c7a 80bd
00000330: d122 45bd b2b0 96bd e7bc 0bbc 6bf8 99bd
00000340: 07a8 133c 3d18 9fbd 53e3 f33b 56be 8fbc
00000350: 8cac aa3d c625 e1bc fc1b 983c b2b1 12bd
00000360: 4c71 1f3d 302e 22bd 5ca2 b73c 317f 22bd
00000370: 1c01 88bd 1d0e 8d3d 363f 04bc af29 adbd
00000380: fea4 58bd dfa4 823d c509 30bc edef a4bd
00000390: d4ab dfbb 4d06 efbc b973 083d e134 28bd
000003a0: fcde 153d a6d0 a83d 17c8 5b3d 09e2 9ebd
000003b0: f8b4 6bbd 32b3 37bb 4703 c83c b387 c13b
000003c0: 089b 9abd dac2 5b3d b2ed 533d a0c6 52bd
000003d0: 84d3 9b3c fb34 21bb 931e 52bd 8b19 42bd
000003e0: 4782 c33c 3b7f 833b f6e5 a13d d9df 76bd
000003f0: 3333 c63c 53e7 7a3b 6610 7c3c 49bb a83c
0.14874837 0.081638865 0.10395425 -0.033238515 -0.12520725 0.018116515 0.06984457 0.0497169
0.05215052 0.016722273 -0.061592218 -0.032983523 0.05646666 0.05203875 0.07301308 -0.038443815
-0.15943108 -0.01583279 0.061262272 -0.016414741 0.039328687 0.06004748 -0.04192056 0.09196571
0.038494516 0.099789456 0.048771087 -0.027853552 0.014561972 0.039703738 -0.03353476 0.051428504
-0.021937137 -0.0013726064 0.10134935 0.08744489 0.09916545 0.08258563 -0.05343787 0.08590405
-0.025527509 -0.055374186 0.04326109 0.004713523 0.17371288 0.05811814 -0.051124923 0.14860505
0.10642894 0.03037157 0.05178422 0.06756071 0.110132165 0.10875539 -0.030828146 0.043490082
0.0080565475 -0.034340654 0.017013762 0.06724768 0.030639844 0.094726466 0.02108874 0.030198311
-0.0445014 0.008925157 0.0045771752 0.083777055 0.054662723 -0.050618935 0.10112544 -0.02135731
0.086543664 0.10924062 0.100266464 -0.013447024 0.054244824 -0.069425456 -0.038297232 0.062137213
-0.005311206 0.06366433 -0.046271488 0.027412916 0.05537645 -0.00338968 0.0030964122 0.0066547752
0.06625075 0.08487832 0.053614385 -0.022099659 0.087380804 0.07024978 0.0040616486 0.1266735
0.023107614 0.10116453 0.100724354 0.02870959 0.11459691 0.06034236 0.11566525 -0.009567094
0.022870664 0.03419714 0.047204196 -0.042854253 0.057657544 0.037097394 0.0109312795 0.14615612
0.006217459 0.07541527 -0.0684479 0.06492789 0.024697855 0.06871185 0.06650581 0.0656705
-0.05336676 -0.05688524 0.07027138 -0.06469045 0.10933091 0.082886465 0.05664792 0.079648644
0.027666688 0.023515424 -0.017888112 0.041522052 -0.0086485855 0.036367714 0.017441703 -0.073564045
0.004626256 -0.051080566 -0.011021327 0.0286091 -0.07896443 -0.080206 -0.077947855 -0.0655197
-0.051831655 0.046948954 0.06589631 -0.019017901 -0.006094359 -0.066267155 -0.042698402 0.031418946
-0.084716134 0.08710642 -0.0012563177 -0.083666004 0.080345064 -0.08804437 -0.004129072 -0.014923762
0.03527054 0.07058108 0.052349873 -0.062967286 -0.0065347897 0.057584397 -0.056220647 0.059466258
0.026578002 0.05816066 0.046732392 0.019779326 -0.031168496 -0.06316625 -0.012117458 -0.05040808
-0.054299112 -0.08048071 -0.0044723493 0.029850038 -0.085590206 0.043931935 -0.07341012 0.024200555
-0.063766874 -0.03728652 0.046639796 -0.06500044 -0.07513298 0.004803317 -0.011580194 -0.046942316
0.035075687 0.06644539 -0.07778988 -0.076987796 0.08298252 -0.06936491 -0.015372652 -0.029587498
0.029740132 -0.056920014 0.046574045 -0.06273374 -0.048128907 -0.07357921 -0.008528925 -0.07518085
0.009012229 -0.07768295 0.0074428706 -0.017546814 0.08333692 -0.027483832 0.018568031 -0.035813995
0.038926408 -0.03959483 0.022416286 -0.03967208 -0.066408366 0.068874575 -0.008071711 -0.08455216
-0.052891724 0.06379103 -0.010744517 -0.08053575 -0.0068259034 -0.02917781 0.033313487 -0.041066054
0.036589608 0.082429215 0.053657617 -0.077579565 -0.057545632 -0.0028030393 0.024415625 0.005906069
-0.07549101 0.05365262 0.051740356 -0.051458955 0.019021757 -0.002459823 -0.05129869 -0.04738764
0.023865832 0.00401297 0.0790519 -0.06027207 0.024194336 0.0038284853 0.015384769 0.020597117

model.model.model.4.bias f4 [128]
00000000: 417b b83c 6431 bc3c df97 babc 36b8 303d
00000010: 4daf 793d a7e6 79bc 1ea9 4e3d c1bd 9dbd
00000020: 73b8 1ebd c265 26bd cee4 4ebd 3394 c6bb
00000030: 5200 8abd 4af0 1f3d 8195 b7bd 2532 49bc
00000040: 1f9b adbd 1d67 0c3e 7ec0 79bd 45c7 e0bd
00000050: d73a 3e3d 9554 a23c 8357 163c dd18 5abd
00000060: 745a b6bd 96d0 aabd 0153 083d c72d 8ebd
00000070: 2068 bdbd a346 4a3d 1cf8 913c 32a5 66bd
00000080: 0665 babd 897e e9bb 03d4 ba3c 861c 443d
00000090: 963c 8c3d 4380 953d 898c 753c b2b2 85bd
000000a0: 2467 bbbd 7a73 cdbc a7d1 c6bd dc59 84bd
000000b0: f30b a03c f52a 9bbd d622 b1bb 3c95 74bd
000000c0: db39 a63d 3b7d a9bc ce04 38bd 83ab f1bb
000000d0: 1af5 873b 2dce 99bc 6962 e9bd c326 843d
000000e0: db39 c2bc fd6f 253d a2e4 65bd 30be 5b3d
000000f0: 5e5b 9abd 07c8 fc3c e9f3 0fbd 2cb0 803d
00000100: fb02 033e 3d0c 00bd c993 c5bc 9aa6 d53b
00000110: 2a34 203d 99eb 2d3d 448d e7bc a2bd 8bbd
00000120: bcaa 52bd 3800 2abc 3ea9 56bd 7055 0cbd
00000130: 521f 613d 95b8 a9bc ad71 813d 0fc4 f9bc
00000140: 9519 8c3c ce42 0c3d 3768 1cba 2eb0 deba
00000150: d8c3 0d3b e7b5 1fbd 79a0 cfbd 1de6 e3bd
00000160: f7f2 1dbd 6596 53bd 17c2 4ebd 5d84 98bd
00000170: a010 0aba e839 2bbc a552 11bd c37b 55bc
00000180: 28af 3c3d a9f5 d63c dae0 1f3d b9aa 83bd
00000190: fdea cabd 66d8 d9bc 3c56 f23c d77d 333a
000001a0: d123 c6bd 6719 063d 61fe a0bd ee55 703d
000001b0: 220a 793d c07a a3bd 06c0 a73c d638 cebd
000001c0: 1b76 85bc b3b5 dfbd 9988 9b3d 7bbc 413d
000001d0: bec6 743d 8608 e03c a8ab 203b fedb 6bbd
000001e0: a849 f2bc 5eda bcbd bd17 37bd 5062 84bd
000001f0: f1fb 85bd 0158 ebbd fdd5 2d3c 7151 893d
0.02251971 0.02297277 -0.022777496 0.043144427 0.060958195 -0.015252746 0.05045425 -0.07702208
-0.038750123 -0.040624388 -0.050511174 -0.006060147 -0.06738342 0.039047517 -0.089640625 -0.012280022
-0.084768526 0.1371121 -0.06097459 -0.10975508 0.046442833 0.019815722 0.009176138 -0.053246368
-0.08903971 -0.08340566 0.033282284 -0.06942325 -0.09248376 0.04938377 0.017818503 -0.056309886
-0.091013 -0.00712568 0.022806173 0.047878765 0.06847493 0.072998546 0.0149871195 -0.06528224
-0.09150532 -0.025079478 -0.09707957 -0.06462452 0.019536948 -0.07576553 -0.005405764 -0.059712633
0.08116504 -0.020689597 -0.044926457 -0.007375182 0.0041490914 -0.01877507 -0.113957234 0.06452706
-0.023709228 0.040390003 -0.056126244 0.053648174 -0.07536958 0.0308571 -0.03514472 0.06283602
0.12794106 -0.03126167 -0.024118321 0.0065201046 0.039112248 0.04246101 -0.028265603 -0.06823279
-0.051432356 -0.010376029 -0.052407496 -0.034261167 0.05496151 -0.020717898 0.0632051 -0.030488996
0.017102042 0.034243397 -0.0005966457 -0.0016989761 0.0021631625 -0.038991835 -0.101380296 -0.11127875
-0.038561787 -0.0516571 -0.050478067 -0.07447121 -0.00052667595 -0.010450818 -0.035479207 -0.013029995
0.04606548 0.026240187 0.039032795 -0.06429047 -0.09908102 -0.026592445 0.029582135 0.00068470597
-0.096748 0.03273907 -0.07861019 0.0586757 0.06080068 -0.07982397 0.020477306 -0.10069434
-0.016291669 -0.10923328 0.07594413 0.04729889 0.059759848 0.027347814 0.0024516378 -0.057582848
-0.029576138 -0.09221338 -0.044700373 -0.06464064 -0.06542195 -0.11491395 0.010610101 0.06704987

model.model.model.6.weight f4 [128, 128]
00000000: fd36 adbd 8f2a a7bd 2719 b63c 5e8a 67bd
00000010: d687 3d3d 9181 4ebd 418e b0bd f84d a9bd
00000020: 047f 7cbd de69 5bbd ec8f 88bd 1712 1bbd
00000030: 0519 67bc f96c c1bd 87f8 803d 6973 f5bc
00000040: 7f49 71bd 5b93 5e3c 89b8 f8bc 6707 c8bb
00000050: b31c a83c fed4 d1bc f349 8c3d d390 013d
00000060: 8a2d b5bd eac5 ae3c ee0c 8fbc 8349 2ebc
00000070: 0ff6 ce3c 744b a1bd f678 9c3d b1de 5f3d
00000080: 2b29 f8bc 1786 433c 6bb7 51bc 1ed4 4abd
00000090: 7a51 5c3d 0199 a8bd e8ca 7f3c b732 813d
000000a0: a533 aabc 98c9 403d 5d22 da3a 82be 463d
000000b0: 9d19 863b 7019 37bd 803a 9dbc 2849 7dbb
000000c0: 5a8c b1bc feb2 82bc 40ec 9e3d 573e 8aba
000000d0: f79d 013d 0d9f 313d bf72 23bd 30ef 413d
000000e0: f3d1 afbd a9f7 0dbd 6731 1dbd 66c9 90bd
000000f0: 5f02 743b 13e6 5abd e5f2 6dbc 969e a9bc
00000100: c760 193d de4b 973c 8c2d 813c 60b4 b3bd
00000110: 194d d23c 466a 73bc 53f8 273d 59fc db3c
00000120: 44b1 8c3d be08 4fbc 1157 8d3c 1c05 24bd
00000130: 1785 55bd acf0 8bbc 18c3 963d 2163 de3c
00000140: 9eba 8f3d 7d1f 3dba 037e 3f3d f425 b7bd
00000150: 3b51 48bd e958 753d 39d4 b13c fe10 5f3d
00000160: bd22 853d 4e26 84bd 65e1 7e3d 19a4 7abc
00000170: 2ab6 fbbc 8ce6 173d fdf2 cb3c 6d59 95bd
00000180: 3134 56bd 179c 88bd 43a0 9c3d bdbe 8b3d
00000190: 1694 92bb 5acd 8dbd 19e1 ba3c f568 07bc
000001a0: 132b a83d bfe1 7dbc b9fc 453c c62b bfbb
000001b0: 9272 6f3d a63b 7fbd 5b28 6cbd 9245 373d
000001c0: aa49 3eba 14d5 22bd 5919 593d 5006 8ebd
000001d0: 755f b6bc f288 823c 2077 003c a30e 82bc
000001e0: cb1d 9d3d e51e 103d 3575 adbd a8e1 183c
000001f0: 2696 a43d 831c 72bd 5cc6 cb3c 26da 963d
00000200: 3425 d93b 63b3 a53d 7892 823d 710d 9dbc
00000210: 384c a8bd cc59 afba 8492 ffbc 8b9c a2bd
00000220: b492 39bc 6f3c 38bd 4bc5 89bd 943f 1cbd
00000230: d1a1 c33c 188e 933d 8e24 6f3d 62a3 15bd
00000240: b205 3abc 1d32 9d3d cfc9 a7bc 7f1c 30bd
00000250: 368d 4a3d df4f 96bd f5fb a5bd 80e0 adbb
00000260: 2e71 a1bd 5df4 87bd b242 113d 3d01 41bc
00000270: 8cd5 8bbb 5357 143d 0820 3a3d 8586 8f3d
00000280: 07c7 023d 179f 463d 172a 76bd 0437 8ebc
00000290: 12f9 8abd 9182 a03d d210 fcbc bd96 2abd
000002a0: 2f53 04bd d72f 733d be3f 2d3d 5c29 47bc
000002b0: 9197 b5bd a809 353d 9bef 8cbc 2beb 20bd
000002c0: e181 993d 6bf8 69bd ca30 1cbd 955b 8dbc
000002d0: d600 75bd f8bf b8bd 8606 22bd f2b9 e5ba
000002e0: d929 9ebd b6ee a23d 39f2 713d a684 90bc
000002f0: e97e 833d 9adb 90bd 12dc a1bd 8cf3 97bd
00000300: 09e2 293c e687 103d 2ee1 3abd e678 abbd
00000310: 97f2 a7bd 611f 8d3d 8960 83bd 1f5d 8abc
00000320: 28e5 973c f80b a13d 4a99 683b 17cc aebd
00000330: c327 953d c423 6f3d 2bcc 053d 4b3e 98bd
00000340: 4734 03bc 30a8 09bd d384 253d a86d 893d
00000350: a544 99bd 4e63 9c3d cbd5 f33c 73c8 2c3d
00000360: af50 73bc d9d4 3dbc b097 0a3d b0ad df3c
00000370: c9fe c9bc 07ba 53bc 1491 e03b bbe7 ac3c
00000380: 03b8 7cbd 6d34 f8ba 3072 813d 190c b4bd
00000390: 7d13 573c 3326 a23d aa50 a03d ed6d 0fbd
000003a0: ccea 3ebd 25ad 9e3c ac58 ad3d dfa9 fdbc
000003b0: 7159 953d e5af cf3c 217a 313d 6471 593d
000003c0: 2a26 71bd c726 823d 4f66 6bbc e835 a2bd
000003d0: 9c3c 32bc 5fd0 803d 1d4e c2ba 0bc4 8dbd
000003e0: 329c ce3c 7777 04bd 6886 0b3b f8dc ccbb
000003f0: 33b0 82bd 0d34 bbbb 16df b2bc 3066 963d
-0.08457754 -0.08162414 0.02222879 -0.05652844 0.04627212 -0.050416533 -0.08620883 -0.082668245
-0.06164457 -0.05356776 -0.06668076 -0.03785905 -0.014105086 -0.09444613 0.06297403 -0.029962258
-0.058907982 0.013584937 -0.03036143 -0.006104398 0.020521497 -0.025614258 0.06850042 0.031632256
-0.088465765 0.021334607 -0.01746222 -0.010637644 0.025263814 -0.0787572 0.07640259 0.054655734
-0.030293068 0.011933825 -0.012800078 -0.049518697 0.05378864 -0.08232308 0.015612341 0.06308501
-0.02077658 0.047067255 0.0016642321 0.048521526 0.004092409 -0.044701993 -0.019192934 -0.003864834
-0.02167337 -0.01595449 0.07759905 -0.0010547143 0.031644788 0.043364573 -0.039904352 0.047347248
-0.085849665 -0.034660015 -0.038377192 -0.07069664 0.0037232859 -0.053442072 -0.014523243 -0.020705502
0.03744581 0.018468793 0.015768789 -0.08774638 0.025671529 -0.0148568805 0.041008305 0.026853727
0.06869748 -0.012636362 0.01725343 -0.040043935 -0.052128877 -0.017082535 0.0736143 0.027146878
0.07018016 -0.000721447 0.046751034 -0.08942786 -0.048905592 0.059899244 0.021707641 0.054459564
0.065007664 -0.064526185 0.06222667 -0.015297913 -0.030726511 0.0370851 0.02489614 -0.07292447
-0.052295867 -0.06670397 0.07647755 0.0682349 -0.0044732196 -0.06923933 0.022812413 -0.00826477
0.08211341 -0.015495717 0.01208418 -0.0058340756 0.058458872 -0.062312745 -0.057655673 0.04474408
-0.00072589016 -0.03975399 0.05300269 -0.06934798 -0.022262314 0.015934441 0.007840902 -0.01587612
0.07671698 0.035185713 -0.08469621 0.009331144 0.08036451 -0.059109222 0.024874859 0.07365827
0.0066267494 0.08090856 0.06375593 -0.019171448 -0.082176626 -0.0013378202 -0.031197794 -0.079400145
-0.011326481 -0.04497951 -0.06727084 -0.03814657 0.023880871 0.072048366 0.05838447 -0.036532767
-0.011353897 0.07675574 -0.020481972 -0.042995926 0.049451075 -0.07339453 -0.081046976 -0.0053063035
-0.078829154 -0.066384055 0.035463996 -0.01178008 -0.0042674 0.03621609 0.045440704 0.070080794
0.03192809 0.048491564 -0.060098734 -0.017360218 -0.06785788 0.078374036 -0.03076974 -0.04164766
-0.032305893 0.059371796 0.042297117 -0.012155857 -0.088667996 0.044198662 -0.017204097 -0.039286774
0.074954756 -0.057121675 -0.038132466 -0.017255584 -0.05981525 -0.0902099 -0.039557002 -0.001752673
-0.077228256 0.07955687 0.059068892 -0.017641377 0.064206906 -0.07073136 -0.07903303 -0.074195
0.010368832 0.035285853 -0.045624904 -0.08372669 -0.08200567 0.06890751 -0.06414897 -0.016890107
0.018541887 0.07863611 0.0035491758 -0.08535021 0.072829746 0.058383718 0.032665413 -0.074337564
-0.008008069 -0.03360766 0.040409874 0.067103684 -0.07483796 0.07636128 0.02976503 0.04218335
-0.014850779 -0.011586391 0.033836067 0.0273045 -0.024657624 -0.01292277 0.006853232 0.021106591
-0.061698925 -0.0018936523 0.06320608 -0.0879137 0.013127205 0.07917442 0.078278854 -0.035016943
-0.04661064 0.019369671 0.084641784 -0.03096479 0.0729245 0.025352428 0.04332936 0.053086653
-0.058874287 0.063550524 -0.014367654 -0.07920438 -0.010878708 0.06289744 -0.0014824305 -0.06922158
0.025220964 -0.032340493 0.002128983 -0.0062519275 -0.063812636 -0.005712992 -0.021834891 0.073437095

model.model.model.6.bias f4 [128]
00000000: f582 c33c a158 a4bc d7e0 143b 9521 f83c
00000010: b157 b5bd 2bae 72bd 4528 84bd 9312 95bd
00000020: 0952 11bc 208d 0f3d d3f9 613d 6d7f 97bd
00000030: a8df 8ebc 7fef 5c3d 2869 333d a22e 853d
00000040: b3fb aebd 6fed 66bd 6386 063d e07f e23b
00000050: 29af 01bc c0c5 93bd 9b33 9dbc 2f1c 013a
00000060: 4951 b4bc 7b59 173d b808 763c 2e14 8c3d
00000070: 4d54 9abd 1eb9 9fbd f96e afbd 13b4 01bd
00000080: 649f 3f3d 5870 90bc ba02 cabc 9f58 b4bd
00000090: 9746 943d a165 413d 5954 06bd 9e5c 953d
000000a0: ff50 91bd 23e8 4d3d a708 1b3d b6f6 7bbd
000000b0: 8005 393d 9784 abbd c9f5 c2ba 3406 27bd
000000c0: bf31 3c3d 80b2 473d 92b1 89bd 1ec5 a5bd
000000d0: 691f 423d b174 8ebd fd6f 3c3d cefb cb3b
000000e0: 654c f53c f0aa 8b3c a2bf 4dbd af32 c6bb
000000f0: 3136 59bd 410a 103c 3db4 adbd 49a0 703d
00000100: 402c 253d d2a2 9f3c 4c98 73bd beac 9fbd
00000110: c1d9 b9bd fba3 a6bd 4681 82bd 0f4b b2bd
00000120: 5416 333d 74f7 acbc e737 3abd f83b 9b3b
00000130: 5061 a1bb 24c6 b23d c00e b13a 866d 7b3c
00000140: 7bb8 53bc b936 c1bd 2acf 1c3d 47fe e6bc
00000150: 6726 b13c f495 6bbd e5fb ffbc e435 adbd
00000160: a262 97bd c7bd 403d f248 ef3b 4058 933d
00000170: a851 673c 9bb4 9c3d 4564 7d3c a7f9 933d
00000180: 3b4a 273d 9e63 d13d 6723 6fbd bd79 7abd
00000190: a5c2 bb3c d520 a5bc d042 693d 54c9 603d
000001a0: 2490 9abd 22d1 5a3d 3ac8 a7bd 4e1c 543d
000001b0: b60a c1bc e8b3 95bd 3ac0 67bd d46c 91bd
000001c0: ae59 8c3d 3641 1b3c f6c8 393d eddc 803c
000001d0: 31f1 893d 7d0e 563d 30ba 96bd 2261 803d
000001e0: 0e09 c7bc ffd3 3d3d 8745 9cbd 556f 42bd
000001f0: 13e7 86bc 3f69 fd3c d016 95bd 92e8 1dbc
0.023866156 -0.020061793 0.0022717023 0.03028945 -0.088546164 -0.05924813 -0.06452993 -0.072789334
-0.008869656 0.035046697 0.05516989 -0.073973514 -0.017440632 0.05393934 0.043801457 0.06503035
-0.085441016 -0.056378778 0.032843005 0.0069122165 -0.007915297 -0.07215452 -0.019189646 0.0004925159
-0.022011416 0.03695057 0.015016727 0.068397865 -0.0753561 -0.0779898 -0.08566088 -0.031665873
0.046782866 -0.017631695 -0.024659503 -0.08805966 0.072400264 0.04721606 -0.032795284 0.07293056
-0.07095527 0.05027021 0.03785005 -0.06151458 0.04517126 -0.08374899 -0.0014874275 -0.0407774
0.04594588 0.048754215 -0.06723322 -0.08094238 0.047393236 -0.06955851 0.046005238 0.006225086
0.029943654 0.017049283 -0.050231583 -0.0060485224 -0.053030197 0.008791507 -0.08481643 0.05874661
0.040325403 0.019486818 -0.059471413 -0.0779662 -0.090747364 -0.081367455 -0.06372313 -0.087057225
0.043722466 -0.021114089 -0.04546347 0.0047373734 -0.0049249306 0.087291986 0.0013508424 0.015345937
-0.012922402 -0.09434266 0.038283505 -0.02819742 0.021624757 -0.057516053 -0.031248042 -0.084575444
-0.073918596 0.047055986 0.007302397 0.07194567 0.014118589 0.07651635 0.015465801 0.07225352
0.040842276 0.102240786 -0.05838337 -0.061151255 0.022919962 -0.020157257 0.056948483 0.0548795
-0.07547024 0.0534221 -0.08192487 0.051784806 -0.023564678 -0.07309705 -0.056579806 -0.071008354
0.068530425 0.009475997 0.045357667 0.015730346 0.06735457 0.05225991 -0.07359731 0.062685266
-0.02429631 0.046344753 -0.07630449 -0.047469456 -0.016467607 0.030933974 -0.07279742 -0.009637969

model.model.model.8.weight f4 [5, 128]
00000000: 26c9 e83c 3850 973d 6616 90bc f464 37bd
00000010: bc43 1ebd 1754 a63c 6e49 98bd 6c4d e2bd
00000020: 8a06 b13d b609 e3bd d83e 033c 25e0 69b7
00000030: 9207 8a3c b4e6 7f3d ef0a 9e3a 001f e13c
00000040: 5092 80bb 9a19 a0bd 2432 57bc 2a6a 163c
00000050: 2d70 17bd cfac b13d cdb6 8b3c 1bc2 653d
00000060: d77f 83ba ba23 293d e20a 5fbd 13fc b5bd
00000070: e335 2d3d 88c4 cebb 5695 1c3b a6ad 643d
00000080: d0d8 4dbd b8b1 7b3d 8993 eebd feb0 3e3b
00000090: 7c31 5d3d 1e97 d8bd a071 57bd e7e4 293d
000000a0: dbe3 503c c43c c33c 17e7 b8bd c9e3 243d
000000b0: 8f19 c7bd e137 bfbd 69ff b1bc 88e9 483b
000000c0: 0987 aabd 7e73 9abd 8656 5a3d 539e 8e3d
000000d0: 4488 7ebd 9dc6 30bd bfbe a9bd 53b2 863c
000000e0: a10d 3e3d 4a5d aabd 24e3 903d e4ea abbd
000000f0: 9244 913c f65d 413d 7128 82bc c6ad c8bd
00000100: 6773 bdbd cb6a 143a 7385 58bd 2be5 153d
00000110: b5b4 b2bd c4e7 f43c 50ae 7ebd 400c 16bd
00000120: 0999 a53c c5e7 a1bd 7b03 54bd d044 833d
00000130: 2ac3 563d 2a57 f8bd a630 7ebd 17db b6bd
00000140: f9e4 973d 083d f23c 8048 703d 190f dabc
00000150: 50a6 f33c 82f3 5a3c d902 79bd bb11 e43b
00000160: da5d abbd 1f1f 3c3d 9048 c3bd 4b5b 43bc
00000170: 20ac 413b af75 233d bdef 8f3c b5e7 26bc
00000180: 065d 163d ba96 eabd 6bdd 10bd 81e4 9f3d
00000190: 85a1 edbd 5a6f 96bd 5313 a13d 3c66 72bd
000001a0: ecae b2bd 510e fd3c 5a38 6f3d ad0a 7bbd
000001b0: 2bdc cbbc 7102 663c 6867 44bd 064d 9bbd
000001c0: 90ba acbb 1e8c 9dbc 296b 893d 9d63 37bd
000001d0: 9d51 d9bd 37d8 40bd e579 7fbc 4211 4b3c
000001e0: 9d8e ca3a 0183 1bbc ace0 debc 3ae3 043d
000001f0: f9af 3f3b a2eb dabd 0988 29bd 1d1b 12bd
00000200: 6c64 753d 8e1f ab3d 19ab 91bd 56ba e2bd
00000210: dbc3 ccbd d021 71bd c684 ad3d 82a3 40bd
00000220: 05cd 98bd 7a6c c2bd 1754 d2bd b563 e2bc
00000230: 02bd 41bd 85b3 21bc 7441 f53c a969 063d
00000240: ef48 dbbd 824a 3ebd 9c96 c4bd 2f75 3fbc
00000250: 88d4 a73d ec00 ae3d 6939 273d f01d 783d
00000260: a93d 853d 929b a83c 3cab 42bc b160 0abd
00000270: dfb7 2f3c 7112 dcbd fcc3 55bd cac8 7fbd
00000280: fced aa3d f9c5 923d 25f5 9fbd 4679 bfbd
00000290: 399c d7bc b7f3 e2bc 7ed5 b5bd 4167 523d
000002a0: fc92 aa3d 4150 4b3d 3281 16bd b94f 2ebc
000002b0: 4ffe 60bc 0ff3 0fbd fe38 aebc 7903 f2bc
000002c0: 6321 d9bd 090a 8d3c f668 ca3c e48b f33c
000002d0: 60bb 3dbd 66b7 7c3d 28db 4b3c a05a b4bb
000002e0: 96ba 1bbd f213 84bc 5be2 87bd 5686 32bd
000002f0: e665 72bc ad0f 97bd 76e3 603d 3093 7fbd
00000300: e87e e6bd 03b6 73bd d607 503d b524 083b
00000310: 7aed 133d c0bb c13a 1ddb aebc ee83 a6bc
00000320: a786 9ebd 1bdf f63c ab5c e1bd 5ad5 c13c
00000330: 1eed f03c b5bb c6bd 5876 6c3c bec6 723c
00000340: 0f5b 623d 9b0f ecbd 43f7 5f3d 6793 193c
00000350: ac8c b03d 081c 7c3d a1ed 57bd 9638 873d
00000360: 5fd9 953d 880a ea3c 3fff bfbd d264 833c
00000370: 6b41 19bd 4a34 423d 94a7 1cbd 5579 8e3d
00000380: 0fa6 813d 6935 5c3c 1d8f d8bc ba19 a43d
00000390: c22a 3dbd 82e1 1a3d 2653 9cbd b250 abbd
000003a0: 0527 2dbd d041 c13c 61b7 943c 21f4 83bc
000003b0: 9370 523d a001 5fbb c7d0 7abd b581 6e3c
000003c0: f17a 8dbd 1fc4 b0bc 0a88 ccbc 9f3b b1bd
000003d0: c15c 7f3d bdf8 a03d d6a2 8a3c 6ee4 88bd
000003e0: 0867 0ebd dd76 883d e832 5dbd 80f2 183d
000003f0: 55c5 4dbb 37de c73c a5ef 173d 0a88 9abd
0.028416228 0.073883474 -0.017588805 -0.04477401 -0.038638815 0.020303769 -0.074358806 -0.11049923
0.08643825 -0.110858366 0.008010589 -1.394007e-05 0.016849313 0.062475875 0.0012057702 0.027480602
-0.003923692 -0.07817383 -0.013134513 0.009180585 -0.036972214 0.08675539 0.01705494 0.056093317
-0.0010032606 0.041293837 -0.054453738 -0.0888597 0.04228772 -0.0063100494 0.0023892722 0.055829667
-0.050255597 0.061448783 -0.11649234 0.0029097195 0.05400227 -0.10575698 -0.052598596 0.041478064
0.0127496375 0.023832686 -0.09028452 0.040256295 -0.09721672 -0.0933683 -0.021728234 0.0030656774
-0.08326537 -0.0754156 0.05330517 0.06963792 -0.06214167 -0.043158162 -0.08288335 0.016442453
0.046399716 -0.08318575 0.07074574 -0.08394411 0.017732892 0.04720875 -0.015888425 -0.0979877
-0.09250527 0.00056616653 -0.052861642 0.036595505 -0.087258734 0.02989567 -0.062177956 -0.036632776
0.020214574 -0.07905535 -0.05176113 0.06409609 0.052432217 -0.12126 -0.062058114 -0.08928507
0.0741672 0.029570118 0.05866289 -0.026618527 0.02974239 0.013363721 -0.06079373 0.0069601214
-0.0836751 0.045928117 -0.095353246 -0.011923621 0.0029552057 0.039907154 0.01757037 -0.010187079
0.036709808 -0.1145453 -0.03536741 0.078072555 -0.11603073 -0.073454574 0.07865014 -0.05917953
-0.0872477 0.030890616 0.05840335 -0.061289478 -0.024885258 0.014038668 -0.04795018 -0.075830504
-0.0052712634 -0.019231852 0.06709892 -0.044772733 -0.106112696 -0.0470812 -0.015593027 0.012394251
0.0015453879 -0.009491683 -0.027206741 0.032443263 0.0029249175 -0.10689475 -0.0413895 -0.03567039
0.059910223 0.08355628 -0.071127124 -0.11070697 -0.09998294 -0.058870137 0.0847259 -0.047030933
-0.07460979 -0.094933465 -0.10269945 -0.027635435 -0.047299393 -0.009869461 0.029938437 0.03281561
-0.1070727 -0.046457775 -0.09599039 -0.011685654 0.08194834 0.084962696 0.040826235 0.060575426
0.06505901 0.020581994 -0.011881646 -0.03378362 0.010724991 -0.10745705 -0.05218886 -0.062447347
0.08346173 0.071666665 -0.078104295 -0.09349303 -0.02631961 -0.027704103 -0.08878611 0.051368
0.08328816 0.049637083 -0.036744304 -0.010639125 -0.013732507 -0.035143908 -0.02126741 -0.029542672
-0.10602071 0.0172167 0.024708252 0.029729791 -0.046321273 0.06169834 0.012442388 -0.0055039674
-0.03801974 -0.016122792 -0.06634971 -0.043585144 -0.014794802 -0.07376037 0.054904424 -0.06239623
-0.11254674 -0.05949975 0.050788723 0.0020773832 0.036115147 0.0014780685 -0.021344716 -0.02032658
-0.07740527 0.030135682 -0.11004003 0.023661304 0.029409941 -0.09703771 0.014432512 0.014817892
0.05526262 -0.11526414 0.054679167 0.009373522 0.08620581 0.06155017 -0.052716855 0.0660259
0.07316851 0.028569475 -0.09374856 0.016039286 -0.037415903 0.047413148 -0.038245752 0.06956736
0.06330501 0.013440468 -0.02643543 0.080127195 -0.046183355 0.037812717 -0.07633047 -0.08365001
-0.04227354 0.023590952 0.018153848 -0.01610762 0.05137689 -0.0034028068 -0.06123426 0.014557292
-0.06908215 -0.021577893 -0.024967212 -0.0865395 0.062344316 0.07859943 0.01692335 -0.066841945
-0.034766227 0.06663296 -0.054003626 0.03734064 -0.0031398137 0.024397952 0.037093777 -0.07545479

model.model.model.8.bias f4 [5]
00000000: 1136 dc3c d653 6c3d 44fc b7bc 6ef7 96bd
00000010: 63c8 013b
0.02688125 0.05769714 -0.022459157 -0.07371412 0.0019803278
