VRCP_Regression/data/adversary/policies/agent_1_final.pth (torch, 421933 bytes, 20 tensors)

model.model.model.0.weight f4 [128, 12]
000000 fa c3 58 3d 08 d7 a9 bd ad 68 f7 3d d6 f2 33 be
       0.052921273 -0.08292967 0.12080512 -0.17573103
000010 6b 76 77 3e 8c 3a 03 bd 09 00 1c bc 52 06 07 3e
       0.24166267 -0.032038257 -0.009521493 0.13186005
000020 c1 65 b1 3e 33 ef 30 bd 6f 8c 4f bd ed 47 12 3d
       0.34647945 -0.04319687 -0.050671037 0.035713125
000030 2d 0f 8d be 28 77 f9 bd fa 16 1e bd 4e ce ad bd
       -0.2755064 -0.121809304 -0.03859613 -0.08486615
000040 d9 d9 d7 3c c8 cd 99 3d e0 74 0c be cb 2f a1 be
       0.026348995 0.07509953 -0.1371646 -0.31481776
000050 13 eb ea bc 96 51 0f 3e 91 3d b7 bd 45 ba 11 bd
       -0.028676545 0.13995966 -0.0894729 -0.03557803
000060 18 61 e7 bd d6 8d 71 3e 4e 96 05 3c 4e 51 08 b9
       -0.11297816 0.23589262 0.008153511 -0.00013000259
000070 a3 12 8b be ff 18 09 bd 9e 80 34 be 08 3c 59 bc
       -0.27162656 -0.033471104 -0.17627189 -0.0132589415
000080 e3 a1 a2 3e 6d 02 1d 3e 40 ec 43 be 50 93 32 3e
       0.31764135 0.15332957 -0.19133091 0.17439008
000090 7b 82 41 3d 4c 09 05 be 86 6a 11 3e ae 10 79 3c
       0.047243576 -0.12991828 0.14200792 0.015201731
0000a0 ea b9 8a bd fe 1b 10 3d 94 09 34 3e 70 14 80 3e
       -0.067737415 0.035182945 0.17581779 0.25015593
0000b0 77 15 b6 bd 86 b8 54 be a8 cc df 3d f9 4d a4 3d
       -0.08890813 -0.20773515 0.10927707 0.080226846
0000c0 99 06 92 be 97 b8 9b 3b 4d a9 c4 bd e2 01 70 3d
       -0.2852066 0.0047522294 -0.09602604 0.058595546
0000d0 75 ec e6 bd ab 92 64 3e 9a 88 46 3d cc fb 46 3e
       -0.11275569 0.22321574 0.048470117 0.1943199
0000e0 3f d3 79 be 00 0b 1d 3e 99 4a 8c be d7 a8 18 bd
       -0.2439699 0.15336227 -0.27400663 -0.037270393
0000f0 51 7a 92 3e 2b 69 7b be fc e8 83 bd de 7b aa 3c
       0.28608945 -0.24551837 -0.064409226 0.020811018
000100 8a 55 7a 3d 40 d8 61 be 91 57 5f be 66 43 28 be
       0.061116733 -0.22055149 -0.21810748 -0.1643196
000110 38 c7 59 3e 05 69 85 be 21 cf 1b be 16 a4 a1 3d
       0.21267402 -0.26056686 -0.15215732 0.07892625
000120 7d ea 7a be 0f 05 db 3d 9e 9c 66 3e 1e 68 20 be
       -0.24503513 0.10694324 0.22520682 -0.15664718
000130 5d 00 f6 3d 37 e5 0c be d4 37 a8 3e 7c c6 8d be
       0.12011788 -0.13759314 0.32855093 -0.27690494
000140 48 f8 9b 3e 66 41 f2 3d db 2f 2b 3e 71 bb 6e be
       0.3046286 0.1182888 0.16717474 -0.2331369
000150 ee 92 e1 bc 82 d5 17 be 3e f4 3c be 57 76 31 be
       -0.027535882 -0.1482754 -0.18452546 -0.173303
000160 c6 7e 1e 3e ec 7b 26 be e2 8f 2a 3d d1 20 65 3e
       0.15478048 -0.1625821 0.041641124 0.223758
000170 cc 82 29 bd 19 d3 4a 3e 5d 23 67 be f4 00 94 3e
       -0.041384503 0.1980709 -0.22572084 0.28906977
000180 d0 00 1c be c2 0c 82 be 56 fa 11 3e 41 fe 5a 3e
       -0.15234685 -0.25400358 0.14255652 0.21386053
000190 45 50 0d be 6b 48 86 3e ef 16 9c bc ab 1f ae bc
       -0.13800152 0.26227126 -0.019053904 -0.021255335
0001a0 5b 04 6e be 27 d1 24 bd 7d 96 0a 3e c6 34 4a 3e
       -0.23243849 -0.040238526 0.13533969 0.19746694
0001b0 5b bd 28 3e 73 28 e5 bc c0 cb 49 3e cc ab 40 3e
       0.16478483 -0.02797339 0.1970663 0.18815535
0001c0 84 4a 80 be d6 9c 02 bb 5d 0f 53 3e 9c 18 2b bd
       -0.2505685 -0.0019929907 0.2061133 -0.041771516
0001d0 4a d4 ad be 40 3f c3 3d be 10 0a be b1 a5 5a be
       -0.33951026 0.09533548 -0.13482949 -0.21352269
0001e0 91 75 73 be 17 e3 a4 bc 29 94 d6 bc e2 ed 69 bd
       -0.23775317 -0.020127816 -0.026193695 -0.05711163
0001f0 d4 15 a3 bd 3a 4f 17 3b 19 d0 7f 3c 28 2c 16 3e
       -0.07963148 0.0023087994 0.015613579 0.14665282
000200 74 f4 0b 3d d8 84 80 3e 69 c1 86 3e 66 69 05 be
       0.034168676 0.25101352 0.26319435 -0.13028488
000210 dc ea 58 3e 88 73 51 be 86 c1 b3 3d 2d d2 13 bc
       0.21183342 -0.20454228 0.08777146 -0.009022278
000220 e8 ad d3 bd 6b af 0d 3e b5 ed 3e be 4e ef b8 3d
       -0.10335904 0.13836448 -0.18645366 0.09030019
000230 d8 ad 94 3e 78 07 21 3d 39 30 4a 3e bb 43 84 be
       0.29038882 0.039313763 0.19744958 -0.25832924
000240 ed 86 fb bd fb 23 e0 3d 4b 17 57 3d cd 28 27 bd
       -0.122815944 0.10944363 0.05251245 -0.040810395
000250 dc 50 84 3d 85 f1 14 be 07 b2 81 bd b3 54 3a be
       0.06460735 -0.14545257 -0.06332784 -0.18196373
000260 8c 34 a9 3e a0 c3 29 be d5 b8 ec 3d 4e 7e 17 be
       0.33047903 -0.16578531 0.115586914 -0.14794275
000270 00 96 60 be 96 33 4c be f5 05 6d be b9 87 ba 3d
       -0.2193222 -0.19941553 -0.23146804 0.09107918
000280 43 eb 15 be db f8 5f 3e 0e 6d 0d bc 8c 38 e7 bd
       -0.14640526 0.21872275 -0.008631958 -0.11290082
000290 92 fe c2 bd 4a 5e f5 3d 77 85 fe bc 22 90 f8 bd
       -0.09521212 0.11980875 -0.0310695 -0.12136866
0002a0 33 16 51 bd a4 fb 91 3e d6 12 c8 3c c4 0b 15 be
       -0.05104656 0.285123 0.024423044 -0.1455527
0002b0 e4 e3 6d be cf c8 28 3e b6 89 aa 3e 87 8c 3c 3e
       -0.23231465 0.16482852 0.3330819 0.18412982
0002c0 f4 01 88 3e cd de 79 3d 48 e2 cf bd c7 7e 8e bd
       0.2656399 0.061003495 -0.101505816 -0.069577746
0002d0 8d 42 98 3e f5 9e 54 3e b6 45 41 bd cf b6 32 3e
       0.29738274 0.20763762 -0.047185622 0.17452548
0002e0 a0 87 8d 3e 21 81 7c 3e e9 ed 5f bd 52 64 3a be
       0.27642536 0.24658634 -0.05467025 -0.18202332
0002f0 f5 07 0b be cb f0 89 3e f2 e8 9d be 31 26 d0 bd
       -0.13577254 0.26941523 -0.30841786 -0.101635344
000300 4a 2a 8b 3e 86 03 13 be 43 f0 13 bd e1 f1 92 3d
       0.27180701 -0.14356813 -0.036117803 0.07175041
000310 ea 5e 02 be 49 60 3b be 11 54 80 be c6 dc 79 be
       -0.1273152 -0.18298449 -0.25064138 -0.24400625
000320 3e 91 77 3e 7b a4 ef 3d 0b 78 89 3e fb c1 31 3e
       0.24176499 0.11701294 0.26849398 0.17359154
000330 16 6d 5a be a5 c8 12 be 83 a0 07 3e ba 2f 5b 3e
       -0.21330675 -0.14334352 0.13244824 0.21404925
000340 93 45 97 3d c4 bf 73 3e 35 78 7d 3e 47 16 20 3e
       0.07386317 0.23803622 0.24752887 0.15633498
000350 e5 51 2f be e4 54 32 3d 3f 88 53 3d 77 80 9d 3d
       -0.17121084 0.04353799 0.051643606 0.07690518
000360 7d 54 75 be 62 98 a1 3d 18 da 43 be d6 b5 31 3d
       -0.23958011 0.07890393 -0.19126165 0.043386303
000370 9c d4 87 3e eb 8f b2 bd 51 44 5b be c1 13 9a be
       0.26529396 -0.087188564 -0.2141278 -0.30093196
000380 aa 5d 53 3e bd 71 43 be 20 05 de b9 0d 6e 6a be
       0.20641199 -0.19086356 -0.00042346958 -0.22893544
000390 09 5e 83 be 57 7f 2d be e8 ad 2e 3e 11 ed 31 bc
       -0.2565768 -0.16943108 0.17058527 -0.010859744
0003a0 59 da 00 3d 53 ea 88 3e 10 68 01 3e 84 5c 99 3d
       0.031458233 0.26741275 0.12637353 0.07488349
0003b0 62 da c2 3d 65 e8 2b 3d 25 2f 95 3e c7 f7 66 3e
       0.095143095 0.041969676 0.2913753 0.22555457
0003c0 eb 5e 05 be d4 85 f0 3c 55 58 52 3e 49 a2 dc bd
       -0.1302449 0.02936069 0.20541508 -0.10773141
0003d0 c4 db 89 3e d6 c9 44 be 09 ac 86 bd e6 77 0c 3e
       0.2692548 -0.1921762 -0.06575782 0.13717613
0003e0 a3 01 3a be eb 2c 53 bd 07 c1 04 be 2b 8a 92 3e
       -0.18164687 -0.05155651 -0.12964259 0.2862104
0003f0 7a 6a 02 3e 65 26 c6 bd bb b0 3a 3e 0e 52 2d be
       0.1273593 -0.09675292 0.1823148 -0.16925833

model.model.model.0.bias f4 [128]
000000 ff 9a ab 3e 47 dc e7 3c ae 74 83 3e f2 f4 d3 bd
       0.3351669 0.028303279 0.25674957 -0.10349454
000010 81 e7 1a 3e 7c a5 85 bd 33 f5 06 3c 97 3b 0f be
       0.15127374 -0.06525704 0.008237171 -0.13987575
000020 7b 98 16 bd 2d 57 0a be 8b 04 43 be fa 8a 9c bd
       -0.03676651 -0.13509817 -0.19044702 -0.07643695
000030 59 6c e1 bd 0f 3c 4e 3e 8b 1e 59 be 6b 74 fd bb
       -0.11006994 0.20140098 -0.21203057 -0.0077348254
000040 87 5d 41 3e a3 e3 81 be 50 e9 88 be a1 84 41 3e
       0.18883334 -0.25368986 -0.26740503 0.1889825
000050 da 9c 13 be ff ae 7e 3c 2e 12 49 3e 81 44 fe bd
       -0.14415303 0.015544652 0.19635841 -0.1241541
000060 36 56 3e be 05 dd 62 be 4d 87 93 3c a9 40 b3 3c
       -0.18587574 -0.22154625 0.018008852 0.021881418
000070 dd 48 c9 3d bf 69 c3 3c 9b f8 59 be 32 49 6b 3d
       0.09828351 0.023854135 -0.21286242 0.05744285
000080 c2 67 60 3e cd a1 8f 3e de 40 05 3e 86 34 36 3e
       0.2191458 0.28053132 0.13013026 0.17793474
000090 00 6b 9c bc 93 ed 97 3e a9 3c a1 bd b7 2a 95 3e
       -0.01909399 0.29673442 -0.07872898 0.2913415
0000a0 37 7f 49 3e 1a f3 62 bd e4 f9 93 3e be 78 c1 bc
       0.19677435 -0.05540762 0.2890159 -0.023617145
0000b0 31 ea 12 be 38 72 1d 3e 6c 83 63 3d 53 83 96 3d
       -0.1434715 0.15375602 0.055545256 0.07349267
0000c0 45 16 99 3a 62 08 82 3e 7c a7 e7 bc 6f f5 59 be
       0.001167961 0.2539702 -0.028278105 -0.21285032
0000d0 df 23 f4 3d aa 23 5a 3e b5 6a 01 bd d2 4a cd 3c
       0.11920904 0.21302667 -0.031595904 0.025060091
0000e0 da 44 90 3e ed c4 33 3e 69 21 42 3e db e4 05 be
       0.2817753 0.1755559 0.18958057 -0.13075583
0000f0 4d 5b a3 3e 3c b8 81 3e 1b 2e 1a bc 22 cc 31 be
       0.31905594 0.25335872 -0.009410406 -0.17363027
000100 01 cc 71 3d e5 47 37 be 22 5a 8f 3e c7 c1 20 bc
       0.059032444 -0.1789852 0.27998453 -0.009811825
000110 dc ec 7c 3d 66 27 1c 3e 76 7a 0e 3b 34 e8 65 be
       0.061749324 0.15249404 0.0021740473 -0.2245186
000120 94 06 3e be 83 3e ed bd 32 b1 7a be 2f d0 ee bd
       -0.18557197 -0.11584189 -0.24481657 -0.116608016
000130 c3 df af 3e ed 52 a5 bd 60 1e 9b bd b5 aa e7 bd
       0.34350404 -0.080724575 -0.07574153 -0.11311857
000140 b0 af 15 3c 2f fd 73 3e 40 82 10 be eb 78 d4 bb
       0.009136125 0.2382705 -0.14112186 -0.006484141
000150 19 0e 62 be 17 bc 29 3e 91 7c 95 3e 1a 4a ee bd
       -0.2207569 0.16575657 0.291966 -0.116352275
000160 77 96 e3 3b cf 56 f7 bd 93 ca 25 ba d0 72 00 3d
       0.006945427 -0.12077104 -0.00063244364 0.031359494
000170 91 5d 9a bc 09 c5 3f 3d f5 5f 92 be 63 ca 78 3e
       -0.018843444 0.046818767 -0.28588834 0.24295954
000180 2d 68 05 bd f4 1b 26 be 7b 76 c1 3b 14 d5 bc 3d
       -0.032570053 -0.16221601 0.0059040166 0.09220329
000190 38 ae b6 3e 7d e3 f6 3d 39 6e ad ba 6e eb 9f bd
       0.35679793 0.12055109 -0.0013231701 -0.078085765
0001a0 3b 86 b7 3d 88 0b 0d 3e 8b 5a 68 3e 52 1a 89 be
       0.08961149 0.1377393 0.2269079 -0.26777893
0001b0 d7 51 68 3e 69 f5 4d bd a5 c8 40 3e 64 01 50 3e
       0.2268747 -0.05028287 0.1882654 0.2031303
0001c0 e5 d5 bf 3e 8b b2 99 3d 05 6b cc bc 2f fa c6 bd
       0.37467876 0.075047575 -0.024953375 -0.097156875
0001d0 21 4f bd 3d bd 3a 69 bd 59 b8 36 3d 8e 6b c2 bd
       0.09243608 -0.056940783 0.0446094 -0.09493171
0001e0 6e 5f 9c 3e 1d 42 24 3e 11 46 93 3e ac 4d 71 be
       0.30541557 0.16040845 0.28764394 -0.23564786
0001f0 76 b3 8e 3e 5e 9a 8b 3d 81 9f a2 3e d6 cb 86 3e
       0.27871293 0.068165526 0.31762317 0.2632739

model.model.model.2.weight f4 [128, 128]
000000 f5 2d 7a bd 59 b3 e2 3d 04 7c 64 bc b2 69 29 bd
       -0.061078984 0.11069364 -0.013945583 -0.041360565
000010 e9 c2 8f 3d 74 27 84 3d 90 3d 86 3d e1 ed 29 bd
       0.07019598 0.064528376 0.06554711 -0.041486625
000020 8f 9e 8f bd cf 93 ea 3c 26 12 2a bd 24 31 d8 3d
       -0.070126645 0.028634934 -0.041521214 0.10556248
000030 9d 42 40 3d 48 50 f2 bc 4f 26 88 bd 07 db c6 3c
       0.046938527 -0.029579297 -0.06647932 0.024274362
000040 87 ac 29 bb 7e 59 54 bd ab 12 52 3d a7 e5 fb 3c
       -0.0025890188 -0.05184316 0.051287334 0.030749155
000050 bc 09 97 bb 67 95 50 3d b9 95 7f 3c 19 27 8e 3d
       -0.0046093147 0.05092373 0.0155996615 0.06941051
000060 4a 94 42 bd d5 38 0a 3d db 57 2b 3c 77 64 56 3d
       -0.0475047 0.033745605 0.010457958 0.052341904
000070 c0 d9 8f 3d 6d 60 a9 3d 8b 41 32 3c c0 31 14 3d
       0.070239544 0.08270345 0.0108798845 0.036180258
000080 18 a5 33 bd 6c c2 33 bc ae 55 8c bd 9f ea 30 3d
       -0.043858618 -0.010971647 -0.068522796 0.043192502
000090 bd ae 17 3c 49 7c ec bc 5a 01 41 3d 8f 6c cb bd
       0.009257969 -0.028867858 0.04712043 -0.09932815
0000a0 81 c9 69 3c e9 db cc bd e1 c0 20 3d 7f 1c cb bd
       0.014269234 -0.10002882 0.039246444 -0.099175446
0000b0 38 10 aa 3d 6e 74 40 bd 2e 99 5d bd a3 38 30 bb
       0.08303875 -0.046986036 -0.05410116 -0.0026889227
0000c0 89 88 23 3d d0 e3 97 3c 1f 63 d3 bd d5 b1 6b bd
       0.039925132 0.018541247 -0.1032164 -0.05754264
0000d0 80 1a 07 bc ab dc 09 3d a0 a6 dd bd ce 31 b8 3d
       -0.008246064 0.03365771 -0.10822797 0.089938745
0000e0 dc f7 a2 3c 72 69 8d 3c 3c dd 94 bd 5b 14 2c bd
       0.01989358 0.017262194 -0.072687596 -0.0420116
0000f0 84 10 b1 3d 4e b1 20 bd 4e 16 c3 bd 23 f1 bf 3c
       0.08645728 -0.03923159 -0.09525739 0.023430413
000100 7e 42 eb bd 95 53 6b bd c2 ee b7 bb 17 3a fb bc
       -0.11487292 -0.057452757 -0.005613179 -0.030667348
000110 7d 26 94 bd 35 ea 5e bd e8 1b 5c bc 35 46 cb 3d
       -0.072339036 -0.054422576 -0.013434388 0.099255
000120 3a 0d 1b 3d b8 c1 a4 bd 01 2c a8 3d 3d 56 cd 3d
       0.03785441 -0.080447614 0.08211518 0.10026214
000130 db 0a 40 3d a8 57 e2 bc ae ad 65 3d 2d 47 9c bd
       0.046885353 -0.027629688 0.056073837 -0.07630763
000140 ec ff c4 3c 77 27 ef bd 2d e9 53 bd 4d 89 b5 bd
       0.024047814 -0.11677449 -0.051736046 -0.08864079
000150 9c e0 36 3d c8 f2 10 bd fe c2 72 3d 41 e7 7b 3d
       0.044647798 -0.035387784 0.05926799 0.061499838
000160 6f 0d bb 3c 64 77 8c 3d f2 05 e7 bd 5e c4 14 3c
       0.022833554 0.068587095 -0.11280431 0.009080021
000170 19 aa 8b bd 15 e0 3c bd 08 4c 90 3d 81 8e 34 bd
       -0.06819553 -0.04611214 0.07045752 -0.044081215
000180 79 96 85 bd 7f 69 8d 3d 6b 9f 84 bb 6c ea 97 bd
       -0.06522841 0.069048874 -0.0040473244 -0.07417759
000190 c3 8c a7 bd 40 8a 32 3d f7 fe a6 bd 87 c2 a8 3d
       -0.08181145 0.043588877 -0.081540994 0.08240228
0001a0 8b f2 95 3d 49 f7 4d bd 05 30 24 3d d1 19 64 3d
       0.07321652 -0.050284658 0.040084857 0.055688683
0001b0 4f 95 5c bd 83 6a 34 3d 86 04 36 bd c7 c8 17 3d
       -0.05385333 0.04404689 -0.044437908 0.03705671
0001c0 c7 d2 ff bc f0 3d 7e 3d c8 21 9f 3d cb a3 87 bd
       -0.031228436 0.062070787 0.07770115 -0.06623038
0001d0 e2 14 26 bd c3 7c 89 3d 1b f1 97 bd 35 fa ca 3d
       -0.04054726 0.067132495 -0.07419034 0.099110045
0001e0 e7 a7 a5 3d 6a 69 af bc 16 74 6f bd f0 b2 01 3d
       0.080886655 -0.02141257 -0.058460318 0.03166479
0001f0 c7 8d 4a bd ba 2c 00 3d 32 18 9a 3c cc 84 7b 3b
       -0.049451616 0.031292655 0.018810365 0.0038378714
000200 23 22 53 bc a3 cc 18 3d 3a 5f bf bd c0 c4 a3 bd
       -0.012886557 0.03730453 -0.09344335 -0.079965115
000210 53 f4 76 bd 6b ac 15 3d ef 15 70 3c 0c 98 88 3c
       -0.0602916 0.036541384 0.014653667 0.016674064
000220 44 12 64 3d 3f 9b 44 bc 17 10 8c 3d 52 77 11 bb
       0.055681482 -0.011999904 0.068390064 -0.0022196365
000230 15 18 c8 bc d1 70 a9 3c cf 04 00 3d be 9d 96 bd
       -0.024425546 0.020683678 0.031254586 -0.07354306
000240 07 d8 5a bc 7b b0 18 3d f9 88 e4 b8 94 55 1f 3d
       -0.013357169 0.03727768 -0.000108974 0.038899973
000250 d1 49 64 bd f1 a7 97 3d 92 f7 4c bd 70 95 db 3c
       -0.05573446 0.07405079 -0.05004079 0.026804656
000260 34 84 75 3c d4 5c 65 bc 98 ee 8a bc 29 56 e5 3c
       0.014985133 -0.013999183 -0.016959473 0.027995186
000270 21 9a 23 3d 32 29 9a 3d 5d 87 88 bc 1c 27 88 bd
       0.03994191 0.07527389 -0.016666109 -0.066480845
000280 0b ee 1d bc 8d 17 27 3d 7f ce d7 3c 01 72 95 3c
       -0.009639273 0.040793944 0.026343582 0.018242838
000290 78 1c 30 3c 58 67 5c bd 60 7b d1 bd c6 44 92 3d
       0.010748975 -0.053809494 -0.1022861 0.07142024
0002a0 6f c6 92 bd 6c ff 82 bc fe 48 7e bd f9 81 bb bd
       -0.071667545 -0.015990935 -0.06208133 -0.0915565
0002b0 a6 54 5e bd 9a 8f c4 3c 86 4f 6b 3d b9 e0 19 bb
       -0.054279946 0.023994256 0.057448886 -0.0023479892
0002c0 67 63 c0 bd d3 a7 0f 3d 36 1f 3d bd d6 a1 8c bd
       -0.093939595 0.03507216 -0.046172343 -0.06866805
0002d0 e8 54 91 bd c7 24 75 3d 56 9c 5b bc 56 7d 2f 3d
       -0.07096273 0.059849527 -0.013403973 0.04284414
0002e0 97 96 3d 3d 7a f3 9b 3d 10 3c a6 3d 0e eb 51 3b
       0.04628619 0.07614799 0.08116925 0.0032030973
0002f0 c9 2f 92 3d 78 10 e2 bc 64 0a 4f 3d d6 89 62 3c
       0.071380205 -0.027595744 0.05054702 0.013826808
000300 0f 4b 81 bc 8b 5a 2a bd fd 50 11 bd 8c 76 c5 bd
       -0.015782861 -0.041590255 -0.035477627 -0.09641752
000310 f0 49 89 bd 6a 24 0d bd f7 df d3 3d 1d f7 09 3d
       -0.067035556 -0.034458555 0.10345452 0.03368293
000320 38 f1 ee 3b b1 a8 74 3c 2f 2e cc bd 9f 68 41 3d
       0.007291939 0.014932797 -0.09969746 0.047218915
000330 90 c5 a3 3a af 75 c7 bd ce 86 38 bd ae d9 43 bd
       0.0012494791 -0.09739243 -0.045050435 -0.047815017
000340 f4 ba 00 3e 9c 33 8c 3d 68 2e 01 3e 0e 77 87 bd
       0.12571317 0.06845781 0.12615359 -0.06614505
000350 40 c2 c1 3b 8e 8f 6f bd 79 09 f6 3d 7a a4 ad 3d
       0.005913049 -0.058486514 0.120135255 0.08478637
000360 a8 3b c3 bc 0e 75 96 bd 82 29 39 3c a7 2e c2 bd
       -0.023832157 -0.07346545 0.0113014 -0.094815545
000370 63 ab a1 3c 1a ab 2c 3d 4f c7 1e bc 41 e7 cc 3d
       0.019735044 0.042155363 -0.009691074 0.10005046
000380 3b 75 43 3c 60 58 07 3c 0e c5 f0 3b 17 23 b2 3d
       0.011929805 0.008260816 0.0073477095 0.08698099
000390 b3 4e a8 3d 44 cb b9 3c 18 f7 9f bb 07 7b 8e 3d
       0.08218136 0.022679932 -0.004881751 0.06957059
0003a0 bb 5e 3f 3d bd a2 67 3c 0c 82 cf 3d c3 81 85 bd
       0.0467212 0.014137921 0.10132226 -0.06518891
0003b0 8f 81 85 3d a7 f7 d1 3b 43 8b 06 3d ad 9f b3 3d
       0.06518852 0.0064076963 0.032847654 0.0877069
0003c0 6d 5a 3c bd fe 99 8f bc 10 d8 01 bd 0d 37 d3 bd
       -0.045984674 -0.017529484 -0.031700194 -0.103132345
0003d0 a4 6e 2b bd d9 98 81 bd 6d 79 79 bc 7a 20 79 3d
       -0.041853562 -0.063279815 -0.015226704 0.060821988
0003e0 3d e1 2b bd 44 01 e9 3c 8e 9e 99 3d 88 a3 a2 3d
       -0.04196285 0.028442986 0.07500945 0.07941347
0003f0 a5 8b b5 3d 68 33 49 3d f8 6f 3a 3c bc 19 5d 3c
       0.08864526 0.04912129 0.0113792345 0.013494905

model.model.model.2.bias f4 [128]
000000 8e b4 67 3c 87 91 cf 3d 6d a4 11 3d 0a 3c a5 3d
       0.014142169 0.10135179 0.0355572 0.08068092
000010 13 c8 52 bd db 22 c0 3d 67 7e a7 3d 35 87 82 3d
       -0.051460337 0.09381648 0.08178406 0.06373445
000020 b5 4f 24 bd dd c4 83 bd b8 a9 d8 3a 81 28 92 bb
       -0.040115077 -0.06434033 0.0016530072 -0.004460395
000030 e5 cd 38 bd a3 b0 93 3c 9a b9 b0 bd 3f 7a 28 3c
       -0.04511823 0.018028563 -0.08629151 0.010283052
000040 fb e2 97 3c ed 6a 36 3d 82 60 de 3d 13 83 5e 3d
       0.01854085 0.044535566 0.10858251 0.05432422
000050 4c 02 8d bd 5d ec 36 bd cc 98 5d 3d e2 26 4f 3d
       -0.06885204 -0.044659007 0.054100797 0.05057419
000060 52 2c f4 3c 24 40 b2 3d dc 4e 0b bc 09 75 9a bd
       0.02980629 0.0870364 -0.008502688 -0.07541854
000070 56 05 2f 3d f5 c0 42 3d 6d 0d 56 bd 3f 95 0a 3e
       0.042729698 0.0475473 -0.052258898 0.13533495
000080 ab 60 8e bd 49 c6 8f 3d 1d f6 5c bc cc 62 b9 3d
       -0.06952032 0.07020242 -0.013486412 0.09052047
000090 1b 6c 3c bb 63 d0 09 bd 88 c4 26 bd 76 b8 84 bd
       -0.002875096 -0.033646 -0.04071477 -0.06480496
0000a0 df 6a 17 bc ef 0e e8 bc 52 f9 45 bd 26 b9 d0 bb
       -0.009241789 -0.028327433 -0.048333474 -0.0063697277
0000b0 e4 68 c2 38 ce 69 ba 3d 1e fa 1e bd 60 26 49 bd
       9.270178e-05 0.09102212 -0.03881275 -0.049108863
0000c0 6d e3 05 bd e1 03 fb bb 40 ba 8a bc f2 08 41 bc
       -0.032687593 -0.0076603745 -0.016934514 -0.011781918
0000d0 75 94 a3 3c 35 2c 98 bd d7 2d fe bc 2a 0f c2 bc
       0.01996825 -0.07430307 -0.031027718 -0.023688871
0000e0 1e 80 40 bd 5d ee f9 bc 44 2f cd 3d 56 50 9b bd
       -0.046997182 -0.030509168 0.10018781 -0.07583682
0000f0 60 80 07 3a e7 44 18 3c 3e 2d df 3c 07 de 38 bd
       0.00051689707 0.009293771 0.027243253 -0.045133617
000100 10 a8 4a bd c6 28 9c bd d3 68 84 bd c2 aa c3 bd
       -0.049476683 -0.076249644 -0.06465306 -0.09554054
000110 ed 88 a5 bc a8 b6 ac 3c ed cf b9 bd b2 92 55 3d
       -0.020206893 0.021083191 -0.09072862 0.052141853
000120 27 e0 a2 bd 2e 6f 84 3c 4b 73 19 bc ad 4a 90 3c
       -0.0795291 0.016166296 -0.009365867 0.017613733
000130 72 f5 42 bd f2 53 f4 3c 83 ed 9c 3d 63 23 dd bd
       -0.047597356 0.029825184 0.07662489 -0.10797765
000140 9e f5 01 3e c1 2d 5b 3b 51 02 95 3d e8 c9 5e 3c
       0.12691352 0.003344402 0.072758324 0.013597943
000150 42 41 5f bd 8b 6c 45 bd 10 15 e6 3d 5c b8 95 3c
       -0.054505594 -0.048199218 0.11234486 0.018276386
000160 94 80 8c 3d 05 bb 91 bc 40 da ba 3c e0 5b 37 3d
       0.06860462 -0.017789373 0.022809148 0.044765353
000170 c1 0d 73 bd df 4c 5d bd 2d c5 66 3d 25 38 ae bc
       -0.05933929 -0.054028388 0.056340385 -0.021267006
000180 2d ac 20 3d 72 aa 1a 3d 9f cd 56 3d 42 95 26 3d
       0.0392267 0.037760206 0.05244219 0.040669687
000190 7d 04 eb bb 13 38 00 3e 2c c0 3f bd c9 95 78 3d
       -0.007172166 0.1252139 -0.04681413 0.06068972
0001a0 7d a5 b5 bc 65 b4 a9 bc 6e 54 87 bd cc d4 41 b9
       -0.022173638 -0.020715902 -0.066079006 -0.00018485187
0001b0 88 50 3d bc cc 0c bb bc 6d a1 0b bd 44 72 a8 bb
       -0.011554845 -0.02283325 -0.034089494 -0.0051405746
0001c0 20 77 79 bd ec 4d 61 3d 49 bb 8d 3d 53 7e b3 bd
       -0.060904622 0.055005953 0.069204874 -0.08764329
0001d0 e2 8b 13 3d 4b 9c 8d 3d f6 83 f8 3c 1a 9c 73 bd
       0.036022075 0.06914576 0.030336361 -0.059475042
0001e0 8c 35 1f 3d 2d 73 ba bb 32 1f d3 bd d0 8b 01 3d
       0.038869426 -0.0056899996 -0.103086844 0.031627476
0001f0 21 32 97 3d a0 7f 68 3d 44 a1 9d 3d c7 9e 4e bd
       0.07382608 0.056762338 0.076967746 -0.05044439

model.model.model.4.weight f4 [128, 128]
000000 bc bd b3 3a 88 51 75 3d 0c 2a f9 3c be 2a 1f 3d
       0.0013713161 0.059892207 0.030415557 0.03885912
000010 5f a7 03 bd 48 a3 d4 3d 50 42 89 bd b6 2d 80 bd
       -0.03214204 0.10382706 -0.06702101 -0.06258719
000020 d2 0b 55 bd c4 8e f2 3c e8 0f 97 bd b3 ef 78 3d
       -0.052013226 0.029609092 -0.07376081 0.06077547
000030 6f e6 88 3d f5 20 9a 3d 53 9c b3 3c 0c ab d7 bd
       0.06684577 0.07525817 0.021925127 -0.105306715
000040 7a ac ce ba 52 b8 87 bd 6b 3c 57 3c b3 42 c3 3c
       -0.0015767955 -0.06626953 0.013136963 0.023835516
000050 7e 9c 3e bd f1 ea 78 bd 09 94 50 3c 64 d4 78 bd
       -0.04653596 -0.060770933 0.012730607 -0.060749426
000060 6a 06 b1 3d c7 46 53 3d 1b e4 36 bd 4c 2f 0f 3d
       0.086438015 0.05158117 -0.044651132 0.034957215
000070 d1 de ac bb 6c b4 9c bb 5c 82 9e bc 07 d9 95 3d
       -0.005275585 -0.00478225 -0.01934927 0.07316785
000080 40 df 59 bb 8e a5 87 bd d6 19 0c bd dc 2c d4 bd
       -0.003324464 -0.06623374 -0.034204327 -0.10360119
000090 2c e7 d0 bd c0 56 cb 3c 17 5c ce 3d 08 c6 e5 3c
       -0.102003425 0.024821639 0.100761585 0.02804853
0000a0 b9 07 3c 3d fd 57 dc 3d a4 64 4d 3d cf e9 f2 3b
       0.045905802 0.1075897 0.050144807 0.007413126
0000b0 28 3e 42 bd 80 5b bd bd 21 d2 21 3d 57 23 61 bd
       -0.047422558 -0.09245968 0.039507035 -0.054965343
0000c0 66 c0 86 bd 93 87 8b 3d 16 97 05 bd a1 82 60 bd
       -0.06579666 0.06812968 -0.03261479 -0.054812077
0000d0 20 0d 71 3c 23 47 d5 bd 43 7d 90 3d c2 9c d2 3d
       0.014712602 -0.10413959 0.07055142 0.102838054
0000e0 0c cf ca bd cb de c0 3d e1 01 67 bd d5 2e 8c bd
       -0.09902772 0.094174944 -0.056398276 -0.0684487
0000f0 27 2a 95 3d a2 e4 34 bd 0e b2 80 bc a0 1b 9d 3d
       0.072834305 -0.044163354 -0.015709903 0.07671285
000100 db b8 75 3b ad 6b e3 39 70 e9 5a bd 3c ff d7 bd
       0.0037494216 0.0004337704 -0.05344528 -0.10546729
000110 37 cc f1 bc 69 50 27 bd 1a 28 d6 bc c2 63 71 3d
       -0.029516323 -0.04084817 -0.026142169 0.058933027
000120 ad 7d a1 3d e1 c5 b8 3d 87 58 85 3c 8e 1c 44 3c
       0.07885299 0.090221174 0.016277565 0.011969699
000130 1a d1 37 3d 06 1a 37 3d 3b d6 8c 3c 2b ad 2d bc
       0.04487715 0.044702552 0.017191997 -0.0106003685
000140 d6 2d 4a bc 65 b5 98 3c 4c c3 62 3d 37 29 b0 bc
       -0.01234003 0.018641183 0.05536203 -0.021504028
000150 90 3f 76 bd ac e4 4e bd 7d 63 7e bd ff b2 a6 bd
       -0.06011921 -0.050511047 -0.0621066 -0.081396095
000160 d5 68 5c 3d f3 0a a2 bc 8e ec 68 3d 20 21 9f 3d
       0.053810913 -0.019780612 0.05686622 0.0776999
000170 6d 15 9f bd cd 7c 9d 3d d3 b5 bb bd ae 1d 37 bd
       -0.077677585 0.076898195 -0.091655396 -0.04470604
000180 d2 0f 2d bd 10 4f dd bd 5e ea 3e bd fa cc 6c 3d
       -0.042251416 -0.108060956 -0.04661023 0.05781267
000190 4f 77 14 3d 9e 14 27 bd 00 6f a7 3d c9 d7 cc 3c
       0.036246594 -0.040791146 0.081754684 0.025005238
0001a0 15 62 99 bc bc 75 a2 bc 0b b8 b2 3b 24 ed 63 bd
       -0.018723527 -0.01983153 0.0054540685 -0.055646077
0001b0 df 1c 07 bd 93 80 a4 3d 07 69 e4 bd 73 17 4d 3c
       -0.032986518 0.08032336 -0.11152845 0.012517798
0001c0 00 fc a9 ba 85 c2 b5 3d 40 97 a2 bc c2 2a 27 bd
       -0.0012968779 0.08874992 -0.019847512 -0.04081226
0001d0 63 a6 02 be ea 1e e8 bd 5d e3 d1 3c c2 0d fa 3c
       -0.12758784 -0.113340214 0.02562111 0.030524138
0001e0 d7 47 1f bd b9 1a a5 3d 08 42 a4 3d ef 7f 9e bc
       -0.03888687 0.080617376 0.08020407 -0.019348113
0001f0 40 07 b5 bd c0 86 92 3d ec bf ae 3d 23 6f 28 bd
       -0.088392735 0.07154608 0.085327 -0.041121613
000200 f1 8f 05 3e ed 2e 70 bd 3d 64 a3 3c d3 cd 98 bc
       0.1304319 -0.058638502 0.019945258 -0.018652832
000210 f0 84 b0 3d 42 13 be 3a 65 a2 a8 3b 23 43 13 3a
       0.08619106 0.0014501589 0.005146312 0.0005617609
000220 86 8a 2e bd 40 f9 d6 3d 21 0a 8b 3d c2 72 29 3d
       -0.042612575 0.104967594 0.06789041 0.041369207
000230 c2 88 23 be f4 68 8e 3d ee 12 7f 3d b7 88 2f bd
       -0.15970138 0.06953612 0.062273912 -0.04285499
000240 39 81 23 bd dd 93 95 3d 58 37 a9 bc 46 1b b1 3d
       -0.03991816 0.07303593 -0.020656273 0.0864778
000250 b4 1b 55 3d c7 45 cc bd a3 99 88 3c 10 2c 36 3e
       0.052028373 -0.099742465 0.016674822 0.17790246
000260 06 39 b8 3d 38 15 1f 3d 04 10 9a 3c ab bf 0d be
       0.08995251 0.038838595 0.018806465 -0.13842647
000270 a7 c4 2d bd d0 20 71 bd 2c 97 14 3e a3 fd 1e bc
       -0.04242387 -0.058869183 0.14510792 -0.009704026
000280 b8 f3 33 bd 51 1a a2 3b 41 55 10 3d 99 bc 07 bd
       -0.0439336 0.004946985 0.035237554 -0.033138845
000290 74 78 71 bd 68 79 56 3d 33 e3 c2 bc 3a 0c b8 bc
       -0.058952764 0.052361876 -0.023789978 -0.022466768
0002a0 fb b3 63 3c f0 b1 d4 bd 53 1f 00 be 7c d5 0f be
       0.013897891 -0.103855014 -0.12511949 -0.14046282
0002b0 71 0b 51 3c 20 09 6e 3d 21 22 65 bd 59 cc e5 bc
       0.0127590755 0.05811417 -0.05594075 -0.028051542
0002c0 1e 56 83 bd 0e 25 49 3d b0 41 9f bc 39 08 a4 3c
       -0.0641291 0.049107604 -0.019440502 0.020023452
0002d0 3b e7 93 3d bf 4e 5f 3d 28 1d 2c be f7 22 7a bd
       0.07221838 0.054518458 -0.16807997 -0.0610685
0002e0 5e a5 6e bc 4c 56 a8 3d 9a 07 5c 3d 7f 38 ee 3b
       -0.014565794 0.08219585 0.053718187 0.0072699185
0002f0 e2 b5 5a 3d 42 62 81 bd 44 e0 39 3d 89 ef 12 bb
       0.053396113 -0.06317569 0.045379892 -0.0022420606
000300 f0 3f 1b 3c 88 fc ac 3d 99 a3 00 3d 8d e7 72 bd
       0.009475693 0.08446604 0.03140602 -0.059302855
000310 6d 17 ea 3d 8b 42 0c 3d 99 50 cd 3d 12 4d 70 3c
       0.11430249 0.034243148 0.100251384 0.0146668125
000320 b1 01 a1 bd 87 94 ef 3d e3 56 a9 3c 79 28 99 3d
       -0.07861651 0.11698251 0.020671314 0.07478423
000330 29 a9 e2 3d b4 10 90 ba f0 4f 97 bc ae d8 e5 3d
       0.11067421 -0.0010991306 -0.018470734 0.11222969
000340 04 a2 af 3d 1e 1c 06 3e c9 84 9b bc 83 b3 9d bd
       0.08575824 0.13096663 -0.018984215 -0.07700255
000350 d5 3a 8c 3d 2d c6 4c bd 6f d7 97 3d cd 02 b5 bd
       0.06847159 -0.049993683 0.074141376 -0.08838425
000360 73 f7 82 bd 29 a2 d7 3c 48 f1 47 3d 89 a2 91 bc
       -0.063948534 0.026322441 0.048814088 -0.017777698
000370 67 ac 0c bd 13 a1 ae 3d 30 e3 2f bc 31 9e 76 bd
       -0.034344103 0.08526816 -0.010735318 -0.060209457
000380 34 a4 9f 3c bc d5 5e 3d d5 37 10 bd 72 7b d7 bb
       0.019487478 0.05440305 -0.035209496 -0.006575995
000390 61 7b 12 bd 3a b6 d3 bc 13 fd 3b 3c 94 89 43 bd
       -0.035762195 -0.025843728 0.011473912 -0.047738627
0003a0 99 38 18 3c a4 c0 13 3e 34 78 92 3d e4 41 bc 3d
       0.009290838 0.14428955 0.07151833 0.09192255
0003b0 d0 e2 d3 3c 32 0e 8a 3d b6 2e f6 3c 60 87 1d bd
       0.025864989 0.06740989 0.03005157 -0.03845918
0003c0 09 d7 08 3e e0 af af bc e8 9a 25 bd 40 d3 93 3d
       0.1336328 -0.021446168 -0.040430933 0.07218027
0003d0 b6 2e b9 3d 30 93 9a bd 68 ba 81 bd 66 02 b0 3d
       0.090421125 -0.07547605 -0.06334382 0.085942075
0003e0 62 42 62 bd 68 59 1f 3d 5a 53 72 3d d9 f8 cd bc
       -0.05523909 0.038903624 0.05916152 -0.025143074
0003f0 61 3f c7 3d c1 f6 ad bd e9 34 95 3d 26 2c e7 3b
       0.097288854 -0.0849433 0.072854824 0.0070548235

model.model.model.4.bias f4 [128]
000000 5c 31 3f 3c 51 07 16 bd ad f1 69 3c 63 9e b1 bd
       0.011669483 -0.03662807 0.014278811 -0.08672788
000010 7e a2 0d bd d9 16 66 bd aa 07 f3 3d b2 92 2a 3d
       -0.034578793 -0.056174133 0.11866696 0.041643806
000020 df 96 8c bc 41 d1 2f bd b0 55 b9 bd c1 e9 80 3d
       -0.017161785 -0.04292417 -0.09049547 0.06294585
000030 f1 b7 49 bd 3f c2 38 3d 02 d8 5f bd c0 8a 3a bd
       -0.049247686 0.045107123 -0.05464936 -0.04554248
000040 82 40 ca 3a bb 67 c1 bd 88 db 78 3d aa 61 2f bd
       0.0015430602 -0.09443613 0.060756236 -0.04281775
000050 60 ce 23 3d 90 a7 56 3b fc bc 76 3c 19 a5 5c bd
       0.039991736 0.0032753684 0.015059706 -0.053868387
000060 73 21 c1 bd 14 1c 80 3d b1 a0 81 bd 4a 95 01 bc
       -0.09430208 0.062553555 -0.063294776 -0.007909128
000070 90 2a 26 3d 86 64 a6 bb ec 71 88 bd 15 65 09 3d
       0.040567935 -0.0050779013 -0.06662354 0.033543665
000080 4c 4c be bd 3f 78 9a 3d 3f 27 bf 3d fa 62 0d bd
       -0.09291896 0.07542466 0.093336575 -0.03451822
000090 bb 2d ab 3d b0 a6 a6 bb b8 fa 76 bc ca e2 8d 3d
       0.08358332 -0.0050857887 -0.015074424 0.06928022
0000a0 54 1b 75 3d 80 5e 46 3d f6 c8 cd 3d 7d bf a5 3c
       0.059840515 0.048429966 0.10048096 0.02023291
0000b0 7a fa ed bd e6 3f 0a 3d 40 13 cf bc ef af 9a bd
       -0.1162004 0.033752345 -0.025277734 -0.07553088
0000c0 42 65 fc bc c3 df 34 bd b1 b7 b4 3d bd 67 2a bd
       -0.030810002 -0.04415871 0.08824099 -0.04160284
0000d0 ae d9 bd bc 69 e9 3f 3d c2 29 30 3c 4c 59 5c bc
       -0.023175087 0.046853457 0.010752143 -0.013449024
0000e0 bc a9 d2 3d 16 9c 16 3d 33 0b 8b bc b7 da a5 3d
       0.102862805 0.03676995 -0.016973114 0.08098357
0000f0 00 9b 2d 3d 31 d4 37 3d 0e 2c 95 3d 7a 35 41 bd
       0.042384148 0.044880096 0.072837934 -0.04717014
000100 24 7b 16 3e 23 1b a3 bc 0a e1 06 be d9 7c aa 3d
       0.14695412 -0.0199104 -0.13171783 0.08324594
000110 8a 99 57 bd 94 75 21 bc f1 e5 47 3d 85 03 da bc
       -0.05263666 -0.009854693 0.048803274 -0.026613006
000120 93 80 a9 3c 3d 21 99 bd 65 78 a9 3d 29 0d c8 bd
       0.020691192 -0.07477043 0.082749166 -0.09768135
000130 61 93 18 3c 40 46 c4 bd e9 de c7 3d 0f 44 4c bc
       0.009312482 -0.095837116 0.097593136 -0.012467398
000140 f2 a8 8e bc 8e db 43 3d 83 c0 ba 3c 95 1f 00 be
       -0.017414544 0.047816806 0.022796875 -0.12512048
000150 25 da 04 3d 13 ee 1f bd 78 bc 9a 3d 69 1f 65 bd
       0.0324346 -0.039045405 0.07555479 -0.05593816
000160 0e 70 b1 bd 9e 01 16 3d 08 7f 2d 3c 06 8b ec bb
       -0.08663951 0.036622636 0.010589369 -0.0072187213
000170 72 91 19 3d 69 f3 2d 3d 61 de 6d bd 44 49 76 3d
       0.037492223 0.042468462 -0.058073405 0.060128465
000180 49 60 08 bc ab 6a 4c 3d fe bd aa bd 30 86 0f 3d
       -0.008323737 0.049906414 -0.083370194 0.03504008
000190 6f e2 15 bc e3 30 93 3d cc a0 06 bd 2d a4 86 bd
       -0.009148224 0.07187059 -0.03286819 -0.06574283
0001a0 37 2a 0f 3c 9d 54 35 3d 8f cd 07 bd b8 1b bc bd
       0.008738092 0.044270147 -0.03315502 -0.091849744
0001b0 6c b4 7e 3d 75 8a 9e 3c a3 a0 79 3d 92 7c 8d 3d
       0.062183782 0.01935313 0.06094421 0.069085255
0001c0 be 26 fd 3c 8f a6 89 3d 0b da 14 3d 73 ef f1 3c
       0.030902263 0.06721222 0.036340754 0.029533124
0001d0 5e 1b be 3d c5 44 a6 3c ef fc 79 3c 13 d2 ad bb
       0.092825636 0.020296464 0.015258058 -0.005304584
0001e0 53 45 e7 3c 88 cc 96 3d 73 2f c9 bd 07 7f 58 3d
       0.028231299 0.0736323 -0.09823503 0.052855518
0001f0 d6 3c 89 3d 5f 1a cf 3b 0a 84 12 bc fb ea a4 3c
       0.06701057 0.0063202824 -0.008942613 0.020131579

model.model.model.6.weight f4 [128, 128]
000000 69 6f 09 bd 02 cb ba bc 14 ba 3d 3c 88 94 df 3c
       -0.033553515 -0.02280188 0.011580009 0.027292505
000010 11 fe f9 bd 47 77 7a 3c b0 f5 2b 3e 22 f9 5c 3c
       -0.122066624 0.015287227 0.16792941 0.013487132
000020 2d 5c e7 bd 0e 2f b9 bd ad b8 e3 bd 13 90 b7 3d
       -0.11296878 -0.09042178 -0.111192085 0.08963027
000030 77 3e 33 bd d7 fe 75 3d bb c6 e7 3d d0 a6 57 3e
       -0.043760743 0.060057487 0.11317202 0.21059728
000040 1f 84 ff 3c 31 a6 ec bc 3c c6 82 bd 8e 3f a4 bd
       0.03119093 -0.02888784 -0.063854665 -0.080199346
000050 00 fb 26 bd 7d 65 70 3e 6f 8b 69 3e 80 49 52 bd
       -0.040766716 0.23476215 0.22807096 -0.051339626
000060 f9 03 a8 bd bf 88 66 3e 30 f2 a6 3c a0 d8 c7 3c
       -0.08203883 0.22513102 0.020379156 0.024395287
000070 e4 c8 f3 3d c0 36 6b 3e 21 95 75 3b 0f 33 c9 bd
       0.11903551 0.22970104 0.003747292 -0.09824192
000080 21 3d dc bd fc 94 3c 3e 84 5a 43 3e 54 39 9c 39
       -0.10753847 0.18416208 0.19077498 0.0002979735
000090 d8 7c 4e 3e 4d 56 c9 3c cf 1f 67 3e 6f ef 03 be
       0.20164812 0.024577284 0.22570728 -0.12884305
0000a0 90 90 52 3e 49 06 b7 3d da c6 bd 3d 98 db 3b bd
       0.20562959 0.08936746 0.092664436 -0.045863718
0000b0 90 53 32 be fc 83 9f bd f4 b7 23 3d 8d e3 37 be
       -0.17414689 -0.07788846 0.039970353 -0.17957897
0000c0 66 5b 80 bd de d0 93 3d 6f b1 d8 3c a7 1a a2 3d
       -0.06267433 0.07217573 0.026451794 0.0791524
0000d0 c5 59 6b bc 32 79 82 bd e5 51 43 bd 0f b9 b3 3b
       -0.014364664 -0.063707724 -0.047685523 0.005484707
0000e0 82 69 44 bb b0 ef 9c bb 7c 50 17 bd 41 b3 e5 bd
       -0.0029970114 -0.004789315 -0.03694199 -0.112158306
0000f0 c7 b3 cf bb 45 f9 e4 3d 76 a8 b2 3d 05 25 d0 bd
       -0.00633857 0.11180357 0.087235376 -0.10163311
000100 62 34 25 3d 57 6d 2e 3e d6 f2 70 bc b6 e4 ce 3d
       0.04033316 0.17033897 -0.014706334 0.10102217
000110 92 54 a1 3d 62 7e 73 3a ae db 94 bd 1e 84 ba 3d
       0.07877459 0.0009288547 -0.07268463 0.091072306
000120 c0 ca dd bd eb de 80 3d 7b a3 66 3e e2 29 0a bd
       -0.10829687 0.06292518 0.225233 -0.03373135
000130 f4 55 28 bd bc 43 b2 bd 41 58 ce 3d 82 4f 29 3e
       -0.041097596 -0.087043256 0.10075427 0.16534236
000140 e3 3a 50 bd 7a 7f 04 3d bb b6 bb bd 72 dc 80 bd
       -0.05083741 0.032348134 -0.091657124 -0.062920466
000150 35 b3 78 3d af cc ba bd 56 9d 88 bd fa a0 68 3d
       0.06071778 -0.091210715 -0.066706344 0.056794144
000160 16 6a ff 3c 10 ae 82 3d bc d3 b8 3d 9f b1 70 bd
       0.031178515 0.06380856 0.0902476 -0.058763143
000170 a8 b8 c2 bd 54 dd d8 bd f7 a1 b9 bd 62 a6 e7 bd
       -0.09507877 -0.1058909 -0.090640955 -0.11311032
000180 3f 97 7b 3d ba a8 1b 3e 0f 32 be bb 1a e8 60 bd
       0.061423536 0.15201083 -0.0058043073 -0.05490885
000190 26 23 61 bd e0 00 cf 3d e5 6f c7 39 4a 91 38 3c
       -0.05496516 0.10107589 0.00038039606 0.011265108
0001a0 58 1a 48 bd 97 e4 e8 bd 68 86 02 3d 94 39 6c bd
       -0.04885325 -0.11371725 0.03186646 -0.0576721
0001b0 ca 4f 3e 3e b2 67 ff 3d a0 b7 ae 3d b3 54 eb 3d
       0.18585125 0.1247095 0.085311174 0.114907645
0001c0 32 c6 19 3d 88 09 44 bd 61 99 c4 bc 39 d0 52 bd
       0.03754253 -0.047860652 -0.023998918 -0.051468108
0001d0 d0 4c 0d be 67 00 3a 3d a1 02 9e 3d b7 c1 25 3e
       -0.13798833 0.04541054 0.07715345 0.16187178
0001e0 d3 e4 9e 3d 5a b4 06 3e dc 95 ef 3a df 8e e6 3d
       0.077584885 0.13154736 0.0018278915 0.11257719
0001f0 e7 56 e8 bd 0e 9d 21 bc 52 90 45 3d a0 5c 22 3e
       -0.113447 -0.009864105 0.048233338 0.15855646
000200 eb 47 0e 3d 18 f9 bb bc 38 02 a6 3c df d3 1b 3d
       0.034736555 -0.022945926 0.02026473 0.038043853
000210 b6 53 ef bd c4 8e 2c bd c0 64 9e 3d 67 a9 f8 3a
       -0.116858885 -0.04212834 0.0773406 0.0018971384
000220 f5 e7 c8 bd 28 d3 0e bd d1 ec 1b be d9 89 0c bd
       -0.09809867 -0.034869343 -0.15227057 -0.03431115
000230 7f 12 98 bd 6f 0e a5 bd 70 b3 3d 3d 2a 82 bc 3d
       -0.07425403 -0.080593936 0.046313703 0.09204514
000240 79 0c b4 3d a3 01 09 3d 68 2e 6e bd 9f 41 a4 bd
       0.087914415 0.033448827 -0.058149725 -0.08020329
000250 15 16 c4 3b 6c 8e 67 3d 53 75 98 3d 0a 29 23 3c
       0.0059840777 0.05653231 0.07444253 0.009958515
000260 73 84 19 be 98 7f 36 3d 22 a5 b7 3c 22 83 70 bd
       -0.14991932 0.044555277 0.022417609 -0.058718808
000270 34 9f a7 3d 9c 31 c7 bb 35 d2 92 bd c0 e6 61 bd
       0.081846625 -0.006078912 -0.07169 -0.0551517
000280 b9 83 01 be 07 ec 09 3e db 69 e2 3d 45 3a 0d 3e
       -0.12647904 0.13468944 0.110553466 0.1379176
000290 ef 12 fa 3d b1 1c 0a bd 56 19 3e 3e ce f8 48 bd
       0.122106425 -0.03371877 0.18564352 -0.049065404
0002a0 ba 44 37 3d ba e1 f6 3c 4d ef f9 3d 6e 5c 1d bd
       0.044743277 0.030136932 0.12203846 -0.038418226
0002b0 ec 37 1e be e3 00 25 bd f2 68 bc 3d 6e 51 3b be
       -0.1545102 -0.04028405 0.09199704 -0.18292782
0002c0 ef 44 e3 3c b8 9b d2 bc d9 64 f8 3d 50 cb ef 3d
       0.027742831 -0.025709018 0.1212861 0.11708701
0002d0 f6 a5 fe bc 0d 64 a6 bd 8e 3b 27 bd c2 f3 ea 3c
       -0.031084996 -0.08124552 -0.04082828 0.028680686
0002e0 00 09 93 bd da 53 0f bd 76 ac 31 be 31 66 09 be
       -0.07179451 -0.034992076 -0.17350945 -0.13417889
0002f0 08 0d 15 3d e9 a4 cf 3d fc f0 bb bc 35 0c 8d bc
       0.03638938 0.10138876 -0.022942059 -0.017217735
000300 a7 61 22 3d e4 af 98 3d a8 e1 3d bd 2a d9 e2 3d
       0.03964391 0.074554235 -0.04635778 0.11076577
000310 ab f6 ec 3c c8 4f 48 bc 00 38 af bd ff 3d 5d 3d
       0.028926214 -0.012226053 -0.08555603 0.054014202
000320 cc dd a5 3c 5f 6b a3 3d 6e b7 e2 3d ce 09 d7 3b
       0.020247363 0.07979464 0.11070143 0.006562448
000330 f5 b5 e3 3c 6b ae 38 3c db b0 82 3c b1 c6 30 3d
       0.027796725 0.011272053 0.015953472 0.043158237
000340 a5 09 2d bd 2a 8c 82 3d 11 7e 9e 3c 31 de d6 bd
       -0.042245526 0.063743904 0.019347223 -0.104915984
000350 f8 56 82 3d 9f cc fa bb fe 4b 99 b9 e6 26 99 3d
       0.06364244 -0.0076537873 -0.00029239053 0.074781224
000360 44 3f 1d bd 6c b0 6f 3d c0 ac 84 3d 17 3f 6f bd
       -0.038390413 0.05851786 0.06478262 -0.058409777
000370 3a ff d0 bd 77 b9 42 3d 3f 39 9e 3d 34 25 6f bd
       -0.102049306 0.047540154 0.077257626 -0.05838509
000380 a2 bb 1a 3d 18 d6 f3 bc e7 dc b1 bd fd e0 b6 bc
       0.037776597 -0.029765174 -0.08684712 -0.02232408
000390 db bc 8c 3c 07 24 aa 3c 1f aa 5a 3d fa fd 25 bd
       0.017179897 0.020769132 0.053384896 -0.040525414
0003a0 75 8b a9 bd 55 e2 c3 bb df c3 9c 3c f6 87 ab bb
       -0.082785524 -0.0059779086 0.019136367 -0.0052347137
0003b0 e8 66 34 3e 08 7e 98 3d a4 39 4c 3d 0f f8 08 3d
       0.1761738 0.074459136 0.049859658 0.033439692
0003c0 73 62 81 bd 03 2d 8b bd 72 c2 af bc bf c6 35 3c
       -0.06317606 -0.06795695 -0.021455023 0.011094748
0003d0 2b 2c cc bd 32 bd 12 3e 37 43 38 3d 47 85 ae 3b
       -0.09969362 0.14329985 0.044985976 0.0053259465
0003e0 e3 77 15 3e ec 09 4a 3c f8 2f 36 bc 6e 85 5c 3d
       0.14596514 0.012331467 -0.011119835 0.053838186
0003f0 b9 4b 51 bc 03 d8 89 3c dd 72 10 3d d0 32 d3 3d
       -0.012774401 0.016826635 0.035265792 0.10312426

model.model.model.6.bias f4 [128]
000000 02 db 12 3d 7b a0 5f 3d 76 61 d2 3a 1e db 8b 3d
       0.035853393 0.054596405 0.0016050774 0.06828903
000010 a2 bf a2 3d f7 7b 9a bc 51 4b 1b bb 51 4d 41 bd
       0.07946707 -0.01885794 -0.0023696015 -0.047192875
000020 4e 5a a8 3d 8a 72 bb bd 97 36 30 bd 10 2d d3 bb
       0.08220349 -0.09152706 -0.04302081 -0.006444581
000030 00 bf 7d bb 06 5f 60 bd ef da 2e bd 39 11 8b bc
       -0.0038718581 -0.05477812 -0.04268926 -0.016975986
000040 16 06 57 3c 12 ca 20 3d 53 47 44 bd ed db 9c bd
       0.01312401 0.03925521 -0.047919583 -0.07659135
000050 f9 15 2a 3c a5 bc d2 3d c2 4e 6f 3c 67 bc 15 3e
       0.010381215 0.10289887 0.01460618 0.14622651
000060 ce 1e 73 3d d7 d2 b3 3d a5 5f dc 3b 71 94 b8 bd
       0.05935555 0.08780449 0.006725269 -0.09012688
000070 fe 25 16 bd 09 c7 e2 3b bf ca bc 3d 54 5c 8f 3d
       -0.036657326 0.0069206995 0.09218358 0.07000032
000080 ed 65 07 bd b5 fb b4 3d a1 b3 b2 bd 3b 1c 13 bd
       -0.03305619 0.08837072 -0.08725668 -0.035915595
000090 54 4f a4 3c 64 e2 a0 3d a2 61 1b 3d fe e2 77 3d
       0.020057358 0.078556806 0.037934907 0.06051921
0000a0 fb 50 c2 bc 85 0a d5 3c 59 75 94 3d 0b d5 da bc
       -0.023720255 0.026005993 0.07248945 -0.026712915
0000b0 09 a6 04 3e 44 40 87 bd 97 99 91 3d 07 56 68 bd
       0.12953962 -0.066040546 0.07109373 -0.056722667
0000c0 86 47 90 3d 7b f8 43 bd 1b 2f a9 3d a8 35 c2 3c
       0.07044892 -0.04784439 0.08260938 0.023707226
0000d0 71 92 89 bc b4 5d 86 bb b8 6b 91 bd ea 6e 95 bd
       -0.016793462 -0.0041005258 -0.07100624 -0.07296546
0000e0 1a 89 a8 bd 45 05 8c bd 17 90 9b bd e9 c9 08 3d
       -0.08229275 -0.068369426 -0.07595842 0.03339568
0000f0 38 ee 16 3c 3b 31 84 bd bf e9 3a bd 91 60 63 3d
       0.009212069 -0.064547025 -0.045633074 0.055512015
000100 19 cd 8b bd 8a 9a 0e 3d 9f af 16 3c b2 9f 9b bd
       -0.06826229 0.03481535 0.009197145 -0.07598819
000110 58 ca fc 3d 31 e5 83 bd 85 0b dc bb 7a 31 14 bd
       0.123432815 -0.06440199 -0.0067152404 -0.036179997
000120 2b ce 4e 3d 9b 1c a3 3d 3d 6e 2d bd 5b ec 9c 3d
       0.050489586 0.079644404 -0.04234146 0.07662269
000130 e5 fe 6d 3d aa 24 41 3d 31 1f d4 bc 76 69 ca ba
       0.058104414 0.047154106 -0.02589378 -0.0015442807
000140 ea 83 b4 bc 98 95 a4 bd 0a 0d 91 3d 71 f7 b2 bd
       -0.022035558 -0.08036345 0.07082565 -0.08738602
000150 e3 61 1d 3d b8 0a d9 3d 4b c3 6d 3d c0 c1 96 bd
       0.03842343 0.105977476 0.058047574 -0.07361174
000160 c7 e8 16 3c 4a f9 52 3c 14 db 80 3d d4 e6 82 3d
       0.009210772 0.012876818 0.06291786 0.06391683
000170 c2 d1 f2 bc 27 13 c3 bc f2 50 76 3d c7 35 02 bd
       -0.029641036 -0.023812843 0.06013579 -0.031789567
000180 f4 a0 00 bc 43 91 a1 bd 27 b2 c2 bd 19 52 72 bb
       -0.007850874 -0.078890346 -0.09506636 -0.0036975204
000190 79 2e b8 3d 1f ae b7 3d 45 aa d2 bd a9 66 83 bc
       0.08993239 0.08968758 -0.102863826 -0.016040163
0001a0 83 f5 81 3d bb 59 f7 3d 6b 10 4a bd 90 6c 35 bc
       0.06345656 0.120776616 -0.049332064 -0.011073247
0001b0 ce 17 96 3d 17 04 9b bd 2a dc 05 3b e6 ad a3 3b
       0.07328759 -0.075691395 0.0020425417 0.0049950955
0001c0 de cd a6 3c 64 51 15 3d 83 74 ba bc 22 43 9a 3d
       0.020361837 0.036454573 -0.022760635 0.07532336
0001d0 0b 99 a8 3d 72 76 80 bd f8 e7 b1 3c e2 57 a7 3c
       0.08232316 -0.06272592 0.021717057 0.020427648
0001e0 55 74 cd bc 01 2b c3 bd 94 32 fa 3a 6e 9c b8 bc
       -0.025079885 -0.09529687 0.001908856 -0.022535529
0001f0 5b 7d 02 3e 38 2d 7f bc 67 f6 71 3d 3f 68 03 bd
       0.12743132 -0.015574746 0.05907288 -0.03208184

model.model.model.8.weight f4 [5, 128]
000000 b2 61 82 bd 76 ca 0b be 62 87 8a bc 39 db 51 bd
       -0.0636629 -0.13651451 -0.016910259 -0.051234458
000010 9b bc 1c 3e db 58 6f bd b0 6b e4 3d 16 bc d0 bc
       0.15306322 -0.05843435 0.11153352 -0.025480311
000020 5a f4 2e 3e 12 07 8d bd 02 aa 6d 3c 61 ca 32 3c
       0.170854 -0.06886114 0.014505865 0.010912509
000030 f8 60 95 3d 39 3b 4b bd e5 4f d1 3c 98 ca dd 3d
       0.07293886 -0.049617026 0.025550792 0.10829657
000040 94 1d e3 3d 82 41 16 3e cb 88 60 be de fb 12 bd
       0.11089626 0.14673427 -0.21927182 -0.03588473
000050 94 bd 84 bc fd f9 b1 bd 3b 22 24 bc 14 fa 0a be
       -0.01620368 -0.086902596 -0.010017927 -0.1357196
000060 1c 27 9e bd a2 20 58 3d e5 7e d4 bd 2d f0 d0 3b
       -0.07722303 0.052765496 -0.10375766 0.0063762874
000070 c9 0d c9 3c 79 16 04 be 85 f2 ba bd 4b fa 39 3d
       0.024542706 -0.12899198 -0.09128288 0.045404714
000080 1c 9a e4 bd 76 5c 05 be 8b 29 23 3e 78 4b 44 3c
       -0.111622065 -0.13023552 0.15933816 0.011980884
000090 fe 6f e9 bd 92 b9 dc bd 5f 62 03 3d 34 3e d0 bb
       -0.11398314 -0.10777582 0.032076236 -0.0063550714
0000a0 c0 7b ac 3b 67 49 bc 3d c7 03 c8 3c 62 42 ef 3b
       0.0052637756 0.09193688 0.024415864 0.0073016146
0000b0 a1 9e 09 be 08 69 34 3e 98 c4 79 bd 0b 0d 3a 3d
       -0.13439418 0.17618191 -0.060978502 0.045422595
0000c0 53 db b2 bd 10 27 8a 3d 8f 5b 0f bd 8c 5d 58 3d
       -0.08733239 0.06745732 -0.034999426 0.05282359
0000d0 01 36 e7 3d de b2 47 3e 33 56 b5 3c 90 99 9a 3d
       0.11289597 0.19501826 0.02213583 0.07548821
0000e0 e3 7b 48 bd a3 a2 fb 3d d6 30 2f 3e 6d a1 26 3e
       -0.048946273 0.1228688 0.17108473 0.16272517
0000f0 df a3 dd 3d 77 57 bc 3d fa 42 12 3e 22 df 95 3d
       0.108222716 0.0919637 0.14283362 0.0731795
000100 a1 db af 3d ba e3 d0 3d 8b d2 0d 3e ba 49 11 bc
       0.08586813 0.101996854 0.13849847 -0.008867675
000110 b6 ba e6 bd db e9 82 bd 8a 9d 97 bd 4b af 97 3d
       -0.11266081 -0.06392261 -0.07403095 0.07406481
000120 56 1d ad bd 6b 9a 42 bc 8d c6 aa 3d 9c 1d a6 3d
       -0.08452861 -0.011877636 0.08338652 0.08111116
000130 2f f5 1d 3e 33 aa 45 bd 84 2b 77 bd ba 8b f1 3d
       0.15425561 -0.048258018 -0.060344234 0.11794229
000140 83 cd ee 3d 8a 55 82 3d d2 db 02 be 25 1a 90 3d
       0.11660292 0.063639715 -0.12779167 0.07036237
000150 7c fc 60 3a c8 dc a6 bd 90 c8 d1 3d 8d 89 94 3d
       0.0008582545 -0.081475794 0.102433324 0.07252798
000160 8f 9d 71 3d 60 6b c4 3d ce ea 83 3d b2 a4 0d be
       0.05898815 0.09590793 0.0644127 -0.13832358
000170 8a 57 06 3e 9f 75 11 be e9 1f 13 be 08 3e 56 b9
       0.13119331 -0.14205025 -0.14367642 -0.00020431739
000180 1d 88 0f be 26 a1 21 3e 43 ce 17 3e b3 cc 0f 3e
       -0.14016767 0.1578413 0.14824776 0.1404293
000190 57 99 13 bd 9b b5 b1 bc 72 ea bd 3d 1b c6 33 bd
       -0.03603491 -0.021693042 0.092732325 -0.0438901
0001a0 63 7f 1a 3e 33 c6 b1 bc 1c b4 d2 3d ea 69 15 3e
       0.15087657 -0.021700954 0.102882594 0.14591184
0001b0 82 d3 47 3d 1c 3e a8 3c c0 a7 11 3d 42 a1 8a 3c
       0.048785694 0.020537429 0.03556037 0.016922597
0001c0 21 c0 13 be 30 45 2e bd eb 4a 37 be 96 90 e2 3d
       -0.1442876 -0.04254645 -0.17899673 0.11062734
0001d0 77 ae 08 be 6d 52 54 bd 3e db 2f bd f7 db e7 3c
       -0.13347803 -0.05183642 -0.042933695 0.02830313
0001e0 b3 08 1d 3e 42 9b 51 3d 77 7c 84 3c a2 f4 19 3e
       0.1533535 0.051173456 0.01617263 0.15034726
0001f0 e1 f3 cc bd 55 a2 9a 3d 70 77 7f 3d 8d 54 64 3c
       -0.10007454 0.07550494 0.062369764 0.013936174
000200 3a 2a e0 bd bf a3 82 bc 6e 3e 87 bd 84 37 07 be
       -0.10945554 -0.01594722 -0.066037044 -0.13204771
000210 bd fb 6b 3c 8e d0 a7 3c 4e 34 33 3e 5a 34 eb bd
       0.014403281 0.020485189 0.17500421 -0.11484595
000220 79 46 49 3c 82 2a 45 bd 4a 04 69 3d a8 ff 95 3d
       0.012284868 -0.04813624 0.056888856 0.07324153
000230 21 64 1e 3e a2 43 c6 3d 37 71 a2 3b 66 16 14 3e
       0.15467884 0.09680869 0.004957344 0.1446167
000240 1f 13 d8 3c 84 73 d9 3d 6a 60 03 be 82 7d 81 bd
       0.026376305 0.10617736 -0.12829748 -0.06322767
000250 42 9e ec bd f2 4a 28 be 65 92 a8 bd ab 8c e7 bd
       -0.11553623 -0.1643484 -0.082310475 -0.11306127
000260 cf 15 bf bd fc 9d 15 3d 82 39 fa bd 5b 0e 03 3e
       -0.093303315 0.03652762 -0.12218 0.12798445
000270 76 5b d3 3d 25 4b fe bd ff 93 04 be f3 4c fb 3c
       0.10320179 -0.124166764 -0.12947081 0.03067634
000280 dc 22 e0 bb 51 84 10 bd cf 2a 9a 3c c4 6f 8c bd
       -0.006840093 -0.035282437 0.01881924 -0.06857255
000290 35 2b 84 bd 97 e9 25 be 41 ea 6d bb 0e dc 89 3d
       -0.064535536 -0.16202389 -0.0036302956 0.06731425
0002a0 f5 b4 1f 3e a6 d0 52 bc 07 c6 92 3d d8 c0 c5 bc
       0.15596373 -0.0128671285 0.07166677 -0.024139807
0002b0 c4 e8 18 be d5 05 bd 3d 20 b0 e1 3c 7e 20 72 bc
       -0.14932543 0.09229628 0.027549803 -0.014778255
0002c0 39 1a ff bd 1a 19 08 3e 53 2e 82 3d 6a 3a 27 3e
       -0.124561734 0.13290825 0.06356492 0.16330877
0002d0 40 28 13 3d b5 31 ff 3d 4a 4e a4 bc c8 86 f4 3d
       0.035927057 0.12460653 -0.020056862 0.1193977
0002e0 1b 5a 84 bd 2f 88 5f 3d 65 87 18 3e 69 6a 2f 3e
       -0.06462499 0.054573234 0.14895399 0.17130436
0002f0 91 fd 29 3e e5 21 0e 3e 2e 1b 22 3d 6d b0 d4 3d
       0.16600634 0.13880117 0.0395767 0.10385213
000300 ab 03 2a 3c 73 fd 0e 3e cf 6c b7 3d fa 1e 40 3d
       0.010376851 0.1396387 0.089563005 0.04690454
000310 c7 7b e2 bd 07 80 09 bd 7b 6e de bd 9c 56 8e bd
       -0.11058765 -0.033569362 -0.10860916 -0.06950113
000320 be c0 b0 bd 21 03 48 bd 9c 0d aa 3d 88 89 20 3e
       -0.08630513 -0.04883111 0.08303377 0.15677464
000330 2e 14 c3 3d 57 89 84 3c 56 6b 76 bc 1f 42 1f 3e
       0.09525333 0.01617877 -0.015040239 0.15552567
000340 f1 fc a4 3d 92 5b 3d bd 76 57 09 be 52 f6 e9 3d
       0.08056057 -0.046229906 -0.1341227 0.11423935
000350 a4 63 00 3b ef cc d8 bd e0 f0 26 3e e3 4d 79 bd
       0.001959064 -0.10585963 0.16302824 -0.060865294
000360 83 96 6e 3d 70 be d3 3d f8 d2 96 3b d3 65 25 be
       0.058249008 0.103390574 0.004602786 -0.16152124
000370 02 bc 1b 3d 01 16 87 bc fb 2e 55 bd f3 ea aa bc
       0.038021095 -0.016489984 -0.052046757 -0.020863986
000380 5f 2e f6 bd 0b 0b 1e 3e ed 43 80 3d eb c3 70 3d
       -0.12020563 0.154339 0.06262956 0.058780592
000390 93 a0 3b be 36 bb 0f be b3 83 c4 3d 43 64 02 be
       -0.18322973 -0.14036259 0.09595432 -0.1273356
0003a0 6a da f6 3d 39 2e 52 bc 3c 61 f8 3d 7f d8 84 3c
       0.12053378 -0.012828403 0.12127921 0.016216515
0003b0 b5 d0 1a 3c f0 bf c8 3d 30 5c 9b 3d 9a 1f 01 3c
       0.009449174 0.09802234 0.07585943 0.00788107
0003c0 af d6 d3 bd 98 a4 cc bc 62 6b c8 bd d5 72 9c 3d
       -0.10343682 -0.024980828 -0.09786107 0.0763909
0003d0 c7 80 00 be 28 c2 84 3d b8 59 e4 bd 08 0f cd 3d
       -0.12549125 0.06482345 -0.11149925 0.100126326
0003e0 d8 d2 2f 3b 0d f3 2d 3e 48 fd 8c bd b5 9b dc 3c
       0.0026828554 0.16987248 -0.06884247 0.026929716
0003f0 9e cc 73 bd ba 4c 90 bd 45 24 1d 3e 9b 6a 9a 3d
       -0.05952131 -0.070458844 0.15345867 0.07539865

model.model.model.8.bias f4 [5]
000000 a0 93 ad bd ef 24 39 bc 61 af 9c 3d 07 d4 7f bd
       -0.08475423 -0.01130031 0.07650638 -0.062458064
000010 f7 bf c2 3b
       0.005943294
