VRCP_Regression/data/adversary/policies/agent_0_final.pth (torch, 421933 bytes, 20 tensors)

model.model.model.0.weight f4 [128, 12]
00000000: c833 44bd 86f9 57bd 5e82 f23b 2e05 5cbe
00000010: d729 66be 0b6b b4bd f13d 27be 9026 18be
00000020: 8d05 da3d ec3e 383e e31e 5b3d a99f 49bd
00000030: 43f3 803d 8ef5 763e 4cdb e6bd bba2 63be
00000040: 48d1 83be 67fd 1ebe f08d efbd 8de5 813d
00000050: 5036 40be e2b5 e73c cbb6 04be fa68 46bd
00000060: cfc8 86bd 38f7 e13d 04e8 6b3e 3101 14be
00000070: 0213 9d3d d09d 643e 1f86 7dbe 93ce 063e
00000080: fdb4 793e 97ae 5a3e cad2 16bc 68d4 af3c
00000090: 6c9e cfbd f2c7 0fbe f83d 153e fcf8 903e
000000a0: 1a19 02bd 1be2 b9bd c17b 823e 0a19 403e
000000b0: 70a2 c83c 7b3c 693d 3971 593d b047 5d3d
000000c0: 43d1 523e a5f5 8ebe 92ba 47be 61c3 44bd
000000d0: d308 b8bd ad29 9e3d e7c5 ecbd c3e1 ac3d
000000e0: 5f65 6c3b 446d 8d3e c3a7 0e3e 36bb 81be
000000f0: fe9b 65bd 9728 fb3d bf28 88be 06b0 803e
00000100: 213c d03d 9650 333d 8adf 4e3e 3e94 1c3e
00000110: 09ff 623d 97c3 48be 1cd4 5e3d a26b f53d
00000120: d7bc 81be 6230 e6bc cbe0 5f3e 0c3e ecbd
00000130: f8ec 94bd 03ea 023e 5770 34be e58d e5bd
00000140: b904 75be e9b6 723e 1351 05bd 75a3 853e
00000150: 7e6b 063d dc4c 67be c8d3 12be 559c f73c
00000160: ea92 19bd f8ce eebd 0b5a 87be 9f11 0d3c
00000170: 77f5 913e a398 1abd 7847 78be abac 17be
00000180: cdae 0f3d 7969 91be 21ab 92be cb53 45be
00000190: 9e28 81be 9b94 50be f9c2 18be eddd c73d
000001a0: 51ca b53d 93fd 363e cf52 88bd 2248 113e
000001b0: 36db a13d 86e1 d5bc 73f1 8e3d 9291 4ebe
000001c0: 6977 babd a9f0 43be 61dd 8f3e 42e8 f4bd
000001d0: 26e3 39be a3d1 2d3e d53a f73d e829 113e
000001e0: d678 ebbd 0b51 b9bb 3180 333e 2d56 3a3e
000001f0: a2e7 f1bc fbd2 8f3e 336e 943c dbb9 31be
00000200: 9c42 493e 98c8 57bd 74fb 1dbe 1d89 62bd
00000210: afa8 2cbd 1cfa d43d 87ce 373e b4f3 40be
00000220: 77eb 6b3e e8aa 27bc d79b 1abe 5889 cebd
00000230: 525b 813e a7f0 833e e079 04bd 0664 2a3e
00000240: fae1 d0bd cbae 85be af10 f23c e087 d03d
00000250: 46ff a63d 7d80 f8bb 3590 4a3e ce48 1dbe
00000260: c9b0 2b3e 18ca b53d 93d3 283e fdee 1a3e
00000270: 6f5c 8e3e 461f 49be c50a e0bd ca12 5f3e
00000280: fd24 63be acf2 6f3d 64cc 813e 630e 01be
00000290: aa69 593e bc77 173e 1a09 81be acbb 663c
000002a0: 1ff9 43be 1564 193e 7fa3 b6bd 5adb 0ebe
000002b0: c6b6 40bd a6cd 50be 9f12 0b3e be33 1f3d
000002c0: 0d0e 2fbe c5bf 54be 3673 85be 29a3 3fbd
000002d0: 5765 e7bc e167 e53d d5bd 83be e380 883d
000002e0: 30d2 793e 736c 74be 3060 06be 0237 debc
000002f0: a0a0 773e 0e1b 3d3e 96ca 2ebe 9276 233e
00000300: d65f 22be dff2 403a 96b3 823e 8133 5dbe
00000310: c039 62be 32d1 ae3d a4f7 85be 8e9e 523e
00000320: a5ab 483e fe50 6b3e dff1 5d3c 5548 7c3e
00000330: b977 e3bd 1475 88be f5a7 843d c37d 04be
00000340: 1352 12be 2547 dbbd 08a0 a63d 2e2e 8ebe
00000350: 579a aa3d b191 67be f3ef 4bbe 7f8b 8c3e
00000360: 9835 5e3e 16ab 3b3e 17fe 55bc 229b 4b3e
00000370: 8892 d43d e13b dd3c 1e26 3b3d 5374 143e
00000380: 7838 1f3d 7424 213e 13e0 233e 39f2 803e
00000390: 93d3 193e 73e3 633e e2fe ae3d e11d 3d3c
000003a0: c4c5 343e b8d4 12be 7b9a 253c a438 5ebe
000003b0: a6b6 44be 1e5d 12be ea24 8cbd f94f 5a3e
000003c0: eb99 4f3e ec4a 88bd e591 4e3e 9bc5 d03d
000003d0: 511c a13d 067e c03c 9f09 d1bd 744a 583c
000003e0: e291 d53d 0d43 98bd 6066 6c3e ed8e 6e3e
000003f0: b7d6 ee3d dc2f 53bd ad9b 02be 05ee b73d
-0.047900945 -0.0527282 0.007400795 -0.21486351 -0.22476898 -0.08809479 -0.16332223 -0.1485846
0.1064559 0.17992753 0.053496253 -0.04922453 0.062963985 0.24117109 -0.11272296 -0.22230045
-0.25745606 -0.15526353 -0.11696994 0.063426115 -0.18770719 0.02828497 -0.12960355 -0.048439957
-0.0658127 0.11033481 0.23037726 -0.1445358 0.07669641 0.22325826 -0.24758194 0.1316474
0.24385448 0.21355663 -0.0092055295 0.021463588 -0.101376384 -0.14041117 0.1457442 0.2831496
-0.03176222 -0.09076329 0.25485042 0.18759552 0.024491519 0.056942444 0.053086493 0.054023445
0.2058764 -0.27921787 -0.19504765 -0.04803789 -0.08986058 0.07722793 -0.115611844 0.08441498
0.0036071164 0.27622426 0.13931184 -0.25338143 -0.05605697 0.12263601 -0.26593587 0.25134295
0.10167719 0.043778025 0.20202461 0.15290925 0.055419 -0.19605862 0.054401502 0.1198342
-0.25339386 -0.028099243 0.21863095 -0.11535272 -0.07271761 0.12784581 -0.17620979 -0.11208705
-0.23927583 0.23702587 -0.03254802 0.2610127 0.032817356 -0.22587913 -0.143386 0.030225912
-0.037493624 -0.1166057 -0.26435885 0.008610158 0.28507587 -0.037743222 -0.24246013 -0.14811961
0.035078812 -0.28400782 -0.28646186 -0.19270246 -0.252263 -0.20369188 -0.14918126 0.09759126
0.088764794 0.17870168 -0.066564195 0.14187673 0.07903139 -0.026108515 0.069796465 -0.20172718
-0.09104807 -0.19134773 0.28098586 -0.11958362 -0.18153057 0.16974501 0.12071768 0.14176142
-0.11497657 -0.005655413 0.1752937 0.18196936 -0.029529396 0.28090653 0.018118953 -0.17356054
0.19654316 -0.052681535 -0.15427953 -0.055306543 -0.042153057 0.10399267 0.17949878 -0.18842965
0.23039041 -0.010233618 -0.1509851 -0.1008479 0.25264984 0.2576954 -0.03234279 0.16639718
-0.101993516 -0.2610992 0.029548971 0.10182166 0.08154158 -0.0075836764 0.19781573 -0.15359804
0.16766657 0.08876437 0.16486959 0.1513023 0.27804896 -0.19640836 -0.10939554 0.21784511
-0.22182079 0.05858104 0.2535125 -0.12603144 0.21231714 0.14791769 -0.25202256 0.01408283
-0.19138001 0.14979585 -0.08917903 -0.13950863 -0.047049306 -0.20390949 0.13581322 0.038867705
-0.17095204 -0.2077628 -0.2606446 -0.04678646 -0.028246565 0.11201454 -0.25730768 0.06665208
0.24396586 -0.23869495 -0.1312263 -0.02712584 0.24182367 0.18467352 -0.17069468 0.159632
-0.15856871 0.00073604094 0.25527638 -0.21601678 -0.22092342 0.085359946 -0.26165497 0.20568296
0.19596727 0.22980115 0.013546436 0.24636967 -0.1110682 -0.26651824 0.06477348 -0.129386
-0.14289121 -0.10706929 0.08135992 -0.27769607 0.08330219 -0.2261417 -0.19915752 0.27450177
0.21700132 0.18326983 -0.013061068 0.19883397 0.10379511 0.027006092 0.04569065 0.14497499
0.038872212 0.15736562 0.16003446 0.251848 0.15022115 0.22254734 0.08544709 0.011542768
0.17653567 -0.14338958 0.010107632 -0.21701294 -0.192103 -0.14293334 -0.06842978 0.2131957
0.20273559 -0.06654915 0.20172842 0.1019394 0.07866729 0.023497593 -0.10206913 0.013201345
0.104282156 -0.07434664 0.23085928 0.2329671 0.11662047 -0.051559314 -0.12754698 0.089809455

model.model.model.0.bias f4 [128]
00000000: 5920 e5bd cd7e d03c 7bb4 5c3d 120e 103e
00000010: 25cf 6b3e f203 573d 0fd6 efbd bfb3 5fbe
00000020: 5111 05be 23c2 8abe 8a28 22be ea02 683e
00000030: b948 9abd eaea 8ebe 967b dbbc e9d7 0abe
00000040: 6052 823e 2464 82be 4025 943d 7f6c 3836
00000050: f754 7dbc 9027 77be 6ce5 a9bd abe9 783e
00000060: f62a 293e d2b9 493d 5cf3 d3bd 0498 73be
00000070: f6b3 213d fbe2 1b3e 90e4 3d3e 92ef 67be
00000080: 3c94 6bbe 45cf 5fbe aa68 733c fc68 c1bc
00000090: d61a 61be 5b98 e2bd 7bc1 c8bd 73c3 463e
000000a0: 2479 b83d e502 75bd 02eb 413d 5eec 17be
000000b0: 6df7 45be b6f6 8abe 9a6c 383e d2bb 963d
000000c0: 0f29 4bbe 2cea 373e 041b 90be e8e5 85be
000000d0: 3af7 3f3e 0f57 09be 9149 753e 72aa 87bd
000000e0: 3524 bfbd 2e4e 5a3c f657 5b3e 25ec 10be
000000f0: 1cb7 143c db5c 89be dd37 5dbd 363a 04be
00000100: 1eef aa3d 69b8 483e 5ad5 833e 7bb8 4c3d
00000110: 4746 72bc 4ede c0bd 5e85 ebbd e831 0b3e
00000120: 7737 90be 6a54 273d bf84 603e 474c e23d
00000130: 0514 c2bd ea23 0f3e 886f 753c 84ba 51be
00000140: 0783 203e 138a 373e a8ba b63d f53b 173d
00000150: ec83 95be 9a2e 33bb 172e 513e 2508 bdbd
00000160: 1fb4 083e 761f 033d 2e2e ee3d 7c49 5a3e
00000170: 100c e33c 6ad0 bf3d 82a9 0ebe 079f 87be
00000180: 9a63 4d3e 7ab2 00ba e2bb 61be c013 813e
00000190: db33 55bd eba6 9b3c 4d3c 56be 3d11 c13d
000001a0: 894d 8abe c4c6 94be 6eb2 433d fbac 75bc
000001b0: 3f3f 9ebe 5ea9 683e e2a5 8bbe 66e3 523e
000001c0: e91c 763d a31b 84bd eb82 8abd 481a 7fbe
000001d0: 6564 99bd 7dc5 87be 2307 61be 9521 c03d
000001e0: 2f41 6abe b49e 7abd 0d7d a1bd 3c19 ea3d
000001f0: a269 133d 7330 e1bd 4714 523d 0e44 8dbe
-0.111878105 0.025451088 0.053883057 0.14067867 0.23028238 0.052493997 -0.1171075 -0.21845911
-0.12994887 -0.2710124 -0.15835777 0.22657362 -0.07533402 -0.279136 -0.026792329 -0.13558926
0.25453472 -0.25467026 0.072336674 2.748129e-06 -0.015462152 -0.24136186 -0.08295712 0.24307887
0.16520295 0.049249478 -0.103491515 -0.23788458 0.039478265 0.15223305 0.18544221 -0.22649983
-0.23005766 -0.21856411 0.014856497 -0.02360963 -0.21982893 -0.11064216 -0.098025285 0.19410495
0.09007481 -0.059817214 0.04734326 -0.1483626 -0.19332667 -0.2714135 0.18010178 0.07360043
-0.19839881 0.17960423 -0.2814561 -0.26151967 0.18746653 -0.13412116 0.23953845 -0.06624307
-0.09333078 0.013324304 0.21420273 -0.14152582 0.00907686 -0.26828656 -0.054008354 -0.1291283
0.08346389 0.19601597 0.25748712 0.04998062 -0.014787263 -0.09417401 -0.11500047 0.13593256
-0.28167316 0.040851988 0.21925639 0.11049705 -0.09476475 0.13978544 0.014980204 -0.20481306
0.15674983 0.17923765 0.089223206 0.036922414 -0.2920221 -0.002734101 0.20427738 -0.09230069
0.1334996 0.032012425 0.11629902 0.21317095 0.027715713 0.09365924 -0.1393185 -0.26488516
0.20057526 -0.00049094076 -0.22044328 0.2521038 -0.052051406 0.019000491 -0.2092144 0.09427116
-0.2701228 -0.29057896 0.047777586 -0.014994855 -0.30907628 0.22720858 -0.27274996 0.20594558
0.060086165 -0.06450584 -0.06763252 -0.24912369 -0.07489852 -0.2651786 -0.21975379 0.09381405
-0.22876428 -0.061186507 -0.0788518 0.11430594 0.03598941 -0.10995569 0.05128887 -0.27590984

model.model.model.2.weight f4 [128, 128]
00000000: 81ae b738 eff7 a5bd a0fe c2bb e0fa 453d
00000010: d1ca 2c3d 9fda 413d 7683 7b3d c53a 1e3d
00000020: 8661 993d 2d7f 793d 1dc9 053d 4b94 8fbd
00000030: 9001 48bd c9d2 5a3d dc22 56bd a323 953c
00000040: 51af 93bd 2a40 853d 9377 a8bb 3005 8e3d
00000050: 5538 95bc 8bf0 95bd 6aad 99bd cf64 c8bc
00000060: 6db6 b03d 4dff a5bd 0c63 8bbb f170 7d3c
00000070: 1904 cabc 9f6d 6e3d 3ca6 e5bc 3552 af3c
00000080: 1c0e 56bd cd26 373d 4a54 b53c 06f5 113d
00000090: 49ac c1bd 2424 653c 3e55 05bd 8575 bc3b
000000a0: 88a2 723d 46e7 4ebd 6e60 76bd b64a 38bd
000000b0: ddbe 7d3d 94a7 983d db97 5e3d a4f2 383d
000000c0: b396 8bbc 6033 9bbd 0b4f 903c 183c aebc
000000d0: 337a 70bd a921 99bd 1c83 8fbd 27ea 69bd
000000e0: 8622 8e3c 8077 29bd 5079 a7bd f181 a73c
000000f0: 16fe 68bd 49c7 0ebd 6571 713d 4aab 14bc
00000100: aa7a 3fbd bddd 51bd c1c0 9ebd 4999 ba3d
00000110: 0ad7 94bc 6eca 67bd adca 49bd cc36 e33c
00000120: 1d3e 0fbd bb24 4a3c f87d f43c e44b a73d
00000130: f5b8 67bd f582 fa3c 6124 65bd 8a8b 173d
00000140: bc40 07bd d05f a73d 41a5 4b3d e2cc 80bd
00000150: d20c 83bd 638e f0bc fe25 57bd 967e 8ebd
00000160: e7d3 3bbd d581 a6bd 4d01 633c 57f2 08bd
00000170: 3aaa 90bd 2cdc 913d 0e1b c1bb 9fc5 61bc
00000180: f7b7 b33c 7f7a 52bd cf86 51bd 6129 463b
00000190: f0f2 893d c5ce 75bd ca90 153d 0bce a5bc
000001a0: f648 a3bd 88b0 d23c d76c 343c d0e9 7e3d
000001b0: a9f7 1ebc c0c2 9b3d 5402 4e3d d840 243c
000001c0: 8c0a a6bd 0a8b 263c fe21 2f3d e332 843d
000001d0: 7b07 923c e5d2 7dbc 1dc5 6fbd 6fe4 943d
000001e0: d4c8 67bd 9ce6 38bd 2e6c 71bd c082 c43c
000001f0: 3c93 633d 8f40 9f3d 3d92 923d 9057 90bd
00000200: 1b65 8f3c 1cb4 bbbb 040b 86bd aff6 513d
00000210: 30a4 3c3d 6575 263d 1da2 9c3c 71c3 0a3d
00000220: 4444 80bd 6aef abbd 3a4b 5b3d 5199 833d
00000230: b606 283d e782 1cbd 1b14 8a3d 466f 95bd
00000240: 895f 593d 82b3 18bc ebba 1bbc 44e9 763d
00000250: fb72 aabd 605c 323d 0daf 07bd aa3b 98bd
00000260: ac44 673d 32c0 033c 96ed a33b a479 8abd
00000270: f452 7bbd d022 a0bd c952 85bd 39c6 223d
00000280: 4622 833d f78d 6dbc cd1a 2dbd b7e4 f23c
00000290: e1da 6a3d 720f bdbc dba1 793c d180 523d
000002a0: 988d 65bd 81ba d23c 1a67 fcbb 769d edbc
000002b0: 28cd 06bc f3c8 aebc 74b5 62bd a1fc 8bbd
000002c0: 2be3 78bd 6400 923b f7af f4bc c56c a43d
000002d0: 3726 45bd 5392 8f3d 9549 85bd a68c 0bbd
000002e0: bc24 273a 61b6 58bd 8645 593b a7a1 723d
000002f0: bfd9 983d eb38 d1bb b293 853d cc6f 9b3d
00000300: 864b 5abd e585 dd3c e675 5e3c 1d60 953d
00000310: 84b0 04bc 5a65 aabc 4d19 8c3d 76ac 9b3d
00000320: 969b 67bd d4e1 bfbc 8bfc 75bd 6bdc 02bd
00000330: 0afc 83bd 1c59 90bd 1962 9bbd 6f07 4d3c
00000340: 5c49 76bd cf56 cf3c a480 90bd 00d9 4c3d
00000350: 7747 093d 0e45 5cbc 45d3 2b3b 3585 0ebd
00000360: 8e75 bbbd 3fc7 6fbd 1d5c 953d 064e a13c
00000370: ed4b babb 12b0 01bd f247 c7bc 734a 903d
00000380: 5938 fbbc 57a8 9ebc 18a1 8bbd a18c 19bd
00000390: 7901 cbbd 1ea5 943a e7d0 b43c e7e3 0dbd
000003a0: 32df 5b3d e1b9 913d ea40 eebc 8b5b 2fbd
000003b0: 8b23 8b3d 8c12 9a3d ab02 d53b 2052 713d
000003c0: 04f5 773d 19b8 843d 55a5 a9bc 1265 eebc
000003d0: 12df 8d3d 6fe4 123d e478 953d d1e6 49bd
000003e0: 2fe7 3fbc 8700 81bc fcc3 68bd 6d29 13bd
000003f0: 5318 2bbd b423 ffbb 5aae 713c 21b5 1e3d
8.758624e-05 -0.0810393 -0.005950764 0.048334956 0.04218561 0.047327634 0.061404668 0.038630266
0.07489304 0.0609123 0.0326625 -0.070107065 -0.048829615 0.053423677 -0.05227934 0.01820547
-0.07211173 0.06506379 -0.0051412075 0.06934583 -0.018215338 -0.073212706 -0.07503779 -0.024462132
0.08628545 -0.081053354 -0.0042537507 0.015468822 -0.024660157 0.05821001 -0.028033368 0.021401504
-0.05225955 0.044714738 0.022134919 0.035634063 -0.09456689 0.013985667 -0.032551996 0.005751314
0.059237033 -0.05051353 -0.060150556 -0.044993125 0.0619496 0.07453838 0.05434404 0.045153275
-0.017039632 -0.075781584 0.017615816 -0.02126889 -0.05871029 -0.07477123 -0.07007429 -0.05710807
0.017350446 -0.04137373 -0.081774354 0.020447703 -0.05688294 -0.034858022 0.058946032 -0.009074042
-0.04674784 -0.051236857 -0.07751609 0.09111268 -0.018168945 -0.056589536 -0.049265552 0.02773609
-0.034971345 0.012337859 0.029845223 0.08168772 -0.056572873 0.030580023 -0.055942897 0.03699831
-0.03302072 0.08172572 0.049718145 -0.06289078 -0.0639893 -0.02936477 -0.052526467 -0.06957738
-0.045856383 -0.08130232 0.013855291 -0.03343424 -0.07063718 0.071220726 -0.0058931177 -0.013780027
0.021938307 -0.051386353 -0.051153954 0.0030237066 0.0673579 -0.060011644 0.036515035 -0.02023985
-0.079729006 0.025718942 0.011012278 0.0622347 -0.0097026015 0.07605505 0.05029519 0.010025226
-0.081074804 0.010164985 0.042757027 0.06455018 0.017825833 -0.015492176 -0.05853759 0.07270133
-0.05658801 -0.0451418 -0.05894106 0.023988128 0.055560336 0.077759854 0.07156799 -0.07047951
0.017504266 -0.005728258 -0.0654507 0.051260646 0.04605502 0.0406393 0.01912027 0.033877794
-0.06263021 -0.08395274 0.05353854 0.06425727 0.041022025 -0.038210776 0.06742116 -0.07296614
0.053069625 -0.009320142 -0.009505014 0.060281053 -0.08322712 0.043545127 -0.033125926 -0.07433255
0.056461975 0.008041428 0.0050026877 -0.06761482 -0.061358407 -0.0781914 -0.06509931 0.03973982
0.064030215 -0.014499179 -0.042261887 0.029650075 0.057337645 -0.023078654 0.015236343 0.05139238
-0.056043237 0.025723698 -0.0077027204 -0.029005747 -0.008227624 -0.021336054 -0.05534883 -0.068352945
-0.06076352 0.004455613 -0.029869063 0.08028559 -0.048132148 0.07010331 -0.06508175 -0.03406968
0.0006376018 -0.052908305 0.0033153011 0.059236195 0.07463407 -0.006384959 0.06522311 0.07589683
-0.05329468 0.027041385 0.013577914 0.07293723 -0.008098725 -0.020800281 0.06840763 0.07601254
-0.056544863 -0.023423113 -0.060055297 -0.03194849 -0.06444557 -0.07048246 -0.0758707 0.012513979
-0.060128555 0.025309948 -0.07055786 0.050011635 0.03351542 -0.013444198 0.0026218456 -0.034795005
-0.09153281 -0.058539625 0.0729296 0.019690525 -0.0056853206 -0.031662054 -0.024326298 0.0704545
-0.030666517 -0.01936738 -0.068178356 -0.03748763 -0.0991239 0.0011340713 0.022072269 -0.034641173
0.053679653 0.07115532 -0.029083688 -0.04281191 0.06793889 0.07523069 0.006500562 0.05891621
0.0605364 0.06480426 -0.02070872 -0.029100928 0.06927313 0.035862383 0.07298449 -0.04929239
-0.011712833 -0.015747322 -0.05682753 -0.03592818 -0.041771244 -0.0077862386 0.014751041 0.038746957

model.model.model.2.bias f4 [128]
00000000: b602 1d3d d305 b03c d408 453d a8c6 853d
00000010: 7a3e 1fbd fbbd d0bc 2d48 afbd 6992 a83d
00000020: bdcd 8fbd 7656 96bc 5024 50bd 1766 933c
00000030: 77a2 89bd 569a 8dbd 6537 2cbb e0c8 853d
00000040: 29ec b1bd 7471 523c 57d9 5c3d 8249 9bbd
00000050: b19e 9c3d b46c 443b 38a0 64bb a352 c9bb
00000060: f0f6 08bd a80c 373c 368f 9abc 13e8 8ebd
00000070: 7aa6 b43c aed9 a7bd 1deb 9fbd d4de 98bd
00000080: 78c4 c03c b5b4 2d3b 6f4f fd3c b467 5bbd
00000090: 5ad3 153d 6b54 4dbd f181 813d cb39 2d3d
000000a0: 0bb2 4b3d afea 4f3d 5b25 a33d 7b11 403d
000000b0: dc82 503c 8812 a23d 8995 96bc e7f0 66bd
000000c0: aab3 ac3c c5f9 76bd 1857 b3bd a5ec e5bc
000000d0: e407 f3bc 196c 98bd ba06 bfbd 998a 9cbc
000000e0: 7433 443d 120d e03c 9ee4 84bd 8c8b 113d
000000f0: eb88 9fbd 487b 373d bcbf 38bd bb02 8abd
00000100: 6fca 863c 8116 82bd fa1f 11bd a0af 3a3d
00000110: 4699 8d3c c337 6fbd bab8 0fbd a031 f33c
00000120: 4a8a 3a3d 3cdb b83d 2062 cd3c ffaf 453d
00000130: 99ff 243d 8976 94bc a808 993d a2c2 1e3d
00000140: 1822 483d 702d 86bd c1e6 783d 3fda 58bd
00000150: e7fa eebb 9d93 513d 4239 b9bc bb30 c23d
00000160: 8631 23bd 5f32 b4bc 405e b7bd e049 8c3b
00000170: c58c a1bd f73e 123c e60b 0dbb 4f1b 9e3b
00000180: 3b88 03bd 9b32 bbbd 2f06 73bd b4b8 b43d
00000190: a6ff b33d b91e a63c 748c 873d ca6e a83d
000001a0: 3c30 9c3b 0e39 8dbd c88f 6b3d be45 643d
000001b0: 31c9 a7bd 81a4 643d 4191 803d 3325 3b3d
000001c0: 69d2 61bd 49b6 ee3c 7e84 303d 31a8 2b3d
000001d0: 1881 04bd 805d 66bc 7eb5 a03d f4aa 043b
000001e0: 9431 90bd 4d3a 35bd 09d4 2dbd d702 183d
000001f0: 1ab8 9abd 3a71 903c 70cf 9dbd 4caf 283d
0.038332663 0.021487152 0.048104122 0.06532031 -0.03887794 -0.025481215 -0.08558688 0.082310505
-0.07021663 -0.018351775 -0.05081588 0.017993016 -0.06720441 -0.06914203 -0.0026278135 0.065324545
-0.08687622 0.012844432 0.05391821 -0.0758238 0.076474555 0.0029972019 -0.0034885537 -0.0061438843
-0.033438623 0.011172451 -0.018867116 -0.069778584 0.022052038 -0.08195816 -0.07808516 -0.07464376
0.023531184 0.0026505415 0.030921666 -0.053565696 0.036578514 -0.050129335 0.063236125 0.042291444
0.049730342 0.05076092 0.07966109 0.04689167 0.012726512 0.07913691 -0.01838185 -0.056382086
0.021081764 -0.060296793 -0.08756846 -0.028066942 -0.029666848 -0.07442493 -0.09327455 -0.019109057
0.047900632 0.027349982 -0.06488918 0.035533473 -0.07789787 0.044795305 -0.045104727 -0.06738802
0.01645395 -0.063519485 -0.035430886 0.045577645 0.017285 -0.058402788 -0.03508828 0.029686749
0.04554204 0.09026191 0.025071204 0.048263546 0.04028282 -0.018122928 0.07472354 0.038759835
0.04886064 -0.06551635 0.06076694 -0.05294251 -0.0072930935 0.051166166 -0.02261031 0.09481951
-0.03984215 -0.021996675 -0.08953524 0.0042812675 -0.07888178 0.008926145 -0.0021521985 0.004825033
-0.03211234 -0.091405116 -0.05933207 0.08824292 0.087889954 0.020278322 0.06618586 0.08224256
0.004766492 -0.06895648 0.057510167 0.055730574 -0.08192671 0.055820946 0.06277705 0.045689773
-0.055132303 0.029139655 0.043095104 0.041908447 -0.032349676 -0.014060378 0.07847117 0.0020243498
-0.07040706 -0.044245053 -0.04243854 0.037112083 -0.07554646 0.017632116 -0.07705581 0.0411828

model.model.model.4.weight f4 [128, 128]
00000000: 5936 923c 369f 153c 9d0d 0d3d 99b8 3abd
00000010: a723 90bd ea3e 93bd 08a4 a3bc bcf6 82bb
00000020: 41d0 86ba eee1 36bd 09f4 9bbc dd4e b03d
00000030: 06c3 0f3d 81ba 26bd a989 d4bc 9cfa 4a3d
00000040: d9cc 84bd f6c7 91bc 09ca cebc 52f5 19bd
00000050: cd72 c5bc 0c0d 9f3d c58b f73b 064f a93c
00000060: 0f04 50bd cb09 d4bc f242 6bbc 1232 313d
00000070: 0fdc 88bd 5c03 2f3d f9fe 013d 0112 7a3d
00000080: ac04 143d f78f 09bd f585 10bb 25ba acbb
00000090: c3e1 1abd e969 913d 9a38 6d3d a4d0 143c
000000a0: d713 03bd 5b24 65bd 838d a8bd 94da aebd
000000b0: e439 4fbc c1db 113c ff7f f3bc 35cb 0f3c
000000c0: ac38 2b3d f5f6 a43d bf1f 8abd 8e4e 353d
000000d0: f0ae b53b e4e6 43bc ba21 3bbd dd8a 453c
000000e0: d513 62bd e76b 94bd 124b ae3d 2172 763d
000000f0: 924f 953d 4dcd 62bd 4a48 2f3d 5aef 8e3d
00000100: 71ee ea38 c667 18ba 2404 a0bc 5233 acbc
00000110: e88d adba fe2a 9ebc 7598 e9bb ab93 773c
00000120: ef87 76bd c381 993d e2af 883a a8e4 8bbc
00000130: 361a 95bc 9d2f a9bd 483f 9abd 2c98 9c3a
00000140: aaa6 823b 95bd 933c b230 29bd 7b28 73bd
00000150: 3937 a8bd 5557 3b3d 9dd1 d3bc 7976 8b3d
00000160: 7be8 6bbd 1c2b 10bd 3910 43bd 165d b13d
00000170: 6a0c 7e3c b72c 4fbd eb9e 563d 5d93 7cbd
00000180: b765 1e3d 6919 bdbc 59d2 093d f53a 3dbd
00000190: 6dc8 d23b 73d4 003d e839 8e3d a910 f43c
000001a0: 8564 49bc 5743 c13c 2bb7 843c 7790 b4bb
000001b0: d98a 74bd b5f6 99bd 6a34 e93b edbf 3b3d
000001c0: b580 9a3c 1e8b 163c 6774 a2bd 7e3f 18bd
000001d0: bf61 c53d da66 8b3d f88e 7bbd 86b9 a0bd
000001e0: 14b3 30bd 25ec bbbc 9b45 113c e5f2 c73b
000001f0: 649c 8a3d 9b7a 873d ce93 40bd 7b27 ef3b
00000200: a487 a3bd 64c7 8dbd ee50 0ebb dba8 8e3d
00000210: b265 f33c a410 69bc cb74 b2bd 33c7 0fbd
00000220: 41ae 49bd 8d40 ecbc 85ba 993d e2bc 413d
00000230: bb77 a53c 6540 28bd 035d 223d d987 9f3d
00000240: ebd1 4abb 36e5 b33d a4ad 013c bc28 09bd
00000250: 0d4f b9bd eb6f 303d 0ed0 a53b 5b8c 213d
00000260: 1f6d acbd f2c7 5e3d e58d d33c e4eb 183d
00000270: 4aba 92bd cc9f 5b3c 6918 46bd 3f88 a6bc
00000280: b95e 9ebd 41c3 563d cf09 8bbb 7f2d c73c
00000290: 50e0 323d 6a62 a33c d6d2 0abd bdbf d63c
000002a0: 890e 6bbd 0d13 7d3d 0387 303d 35fd 053d
000002b0: e316 b5bc 2543 4abd 2a8c 363d ede5 ab3c
000002c0: 5854 07bc 2df2 6fbd b4a6 8fbd 91bf 563d
000002d0: d176 86bd 779c 75bd 4466 97bd 5d46 2dbb
000002e0: 932d 8ebc 4a41 ec3c c61d 3abd 627b 99bb
000002f0: ad7c 783d aff7 793d 133d 71bd 86db 6b3d
00000300: ddc4 97bd 3410 073d 11da c1bd fd2c d43c
00000310: 7757 94bc 5b6b c9bd 0676 31bd dcb0 933d
00000320: 695a 84bc c760 ffbc dc9d 1dbd 7214 853d
00000330: b7d7 c6bc 7d69 e2ba 0c29 123d e66f 0ebb
00000340: 09f5 c5bd 8815 6cbd 2eb5 473d 6ce4 d5bc
00000350: e118 d2bd d6da 2cbd 1adf 7e3d 4e79 f2bc
00000360: 881d 8e3d 3bd0 ddbc fe49 25bc b91e e5bb
00000370: 90dd 6bbc 4135 a7bc ea7a 313d 318e 45bd
00000380: 0a80 1abd 3a44 8e3c 1818 433d 38d3 21bd
00000390: c250 e7bc 9a50 653b 00e6 6b3d 6670 143c
000003a0: b531 92bd f397 943c 0809 b1bd 790c c3bc
000003b0: 356d c0bd 0d03 7d3c 68b6 273d 9768 6abd
000003c0: 4066 bbbd 766d 5abd 17d3 b53c aed9 6bbd
000003d0: 7fbf 20bd eb7a 91bd 2d8f 1ebd 49fc 5ebd
000003e0: 765d 353d 5d60 493d 3dfa 03bb 0c8e 66bd
000003f0: dd19 203d 824c 21bd fa60 103c b643 a23d
0.01784818 0.009132197 0.03443681 -0.045586202 -0.0703805 -0.07189734 -0.019975677 -0.003996698
-0.0010285453 -0.044649057 -0.019037263 0.08608792 0.0350981 -0.040705208 -0.025944548 0.049555406
-0.06484384 -0.017795544 -0.025242822 -0.03758747 -0.024102593 0.0776616 0.0075545036 0.020667564
-0.05078512 -0.025883576 -0.014359223 0.04326064 -0.06682598 0.042727813 0.0317373 0.061052326
0.036137268 -0.03358456 -0.00220525 -0.0052712136 -0.03781296 0.07100279 0.057915308 0.009082947
-0.032001343 -0.055942874 -0.08230116 -0.08537784 -0.01264808 0.008902491 -0.02972412 0.008776476
0.041802093 0.08054916 -0.06744336 0.04426437 0.005544536 -0.011956904 -0.04568646 0.012057033
-0.055194695 -0.07247143 0.08510412 0.060167436 0.072905675 -0.05537157 0.04279355 0.069792464
0.00011202403 -0.0005813803 -0.019533224 -0.021020565 -0.0013241144 -0.01930761 -0.00712877 0.01511089
-0.06018823 0.07495453 0.0010428394 -0.017076805 -0.018200975 -0.08261035 -0.07531601 0.0011947206
0.003987153 0.018034736 -0.041306205 -0.059364777 -0.08213658 0.045737583 -0.025856787 0.06809706
-0.057594758 -0.035197362 -0.047622893 0.08660333 0.015505889 -0.050579753 0.05239765 -0.061663974
0.03867122 -0.023083406 0.03364787 -0.046198804 0.006432584 0.031452607 0.069446385 0.0297931
-0.012292032 0.02359168 0.016200623 -0.0055103856 -0.059702728 -0.07517759 0.007116844 0.04583733
0.0188602 0.009188442 -0.07932358 -0.037169926 0.09637784 0.06806727 -0.061415642 -0.07847886
-0.043139532 -0.02293975 0.008866693 0.0061019533 0.067681104 0.06615182 -0.047015958 0.0072984076
-0.07984856 -0.06922796 -0.0021715718 0.069658004 0.029711578 -0.014225159 -0.08713683 -0.03510208
-0.049238447 -0.028839374 0.07506279 0.047299273 0.020198693 -0.041077036 0.039639484 0.07789583
-0.0030947875 0.08783953 0.007914934 -0.033486113 -0.09048281 0.043075483 0.0050602024 0.039440494
-0.08419251 0.0543899 0.025824497 0.037334338 -0.07164438 0.013404798 -0.048363123 -0.02032864
-0.07732911 0.052432302 -0.0042431126 0.024313686 0.043670952 0.019944388 -0.033892475 0.026214475
-0.05738691 0.061785746 0.043097507 0.03271218 -0.02210564 -0.04938044 0.044567265 0.02098366
-0.008259855 -0.058580566 -0.07014218 0.052428786 -0.06565631 -0.05996367 -0.073925525 -0.0026439645
-0.017355716 0.028839726 -0.04543855 -0.004683898 0.060665775 0.061027225 -0.058896136 0.0575824
-0.074105956 0.032974437 -0.09465421 0.025900358 -0.018108113 -0.098349296 -0.043325447 0.072114676
-0.016156392 -0.031174077 -0.038480625 0.0649804 -0.024272783 -0.001727387 0.035683677 -0.0021734177
-0.09665877 -0.05763772 0.04875677 -0.026109897 -0.102586515 -0.042200886 0.062224485 -0.029598858
0.069392264 -0.027076831 -0.010088442 -0.006992188 -0.014396086 -0.020411136 0.04333011 -0.048231307
-0.037719764 0.017366517 0.0476304 -0.039508075 -0.02823675 0.003499067 0.057592392 0.009060001
-0.07138387 0.018138861 -0.08644301 -0.023809658 -0.093958296 0.015442622 0.04094544 -0.05722865
-0.09150362 -0.053327046 0.022195382 -0.057580642 -0.039245125 -0.07103523 -0.03871076 -0.054439817
0.044278584 0.049164165 -0.0020138167 -0.05628781 0.039087165 -0.039379604 0.0088121835 0.07923071

model.model.model.4.bias f4 [128]
00000000: f39e a7bd e96c dd3c 4314 e23b 41db d1bc
00000010: a15c 09bd 6ab0 0f3d f92d 713d d3bf 773d
00000020: e152 323d 52e1 923d 4eaf d1ba 7882 473d
00000030: 2596 a73d 2fc4 623c 02de 4c3d 9823 9dbd
00000040: c4af 5bbd b22e 8f3d ecd2 ddbc 824c 403c
00000050: d78e 663d 7487 4fbd 01f2 c43c 92ca d23c
00000060: f2f7 823c 8e0b 9dbd 886a a63d 2fef 373d
00000070: f26f 82bd d92b afbd d73a 943d 07cb 09bd
00000080: dad0 ea3c 51e4 feba 087c e03c a559 753d
00000090: 0dce 52bc a9a0 443d fb02 a9bd 1a0f 573d
000000a0: cd98 dabc 485a 043d 18d1 43bd 88d6 173d
000000b0: 9fe3 243b 0e9b 273d 164b 993d f4b1 2dbd
000000c0: ae39 f03c 6a68 03ba 4f03 9ebd 5f0c 54bd
000000d0: 6757 4fbd 1ed3 993c 0581 5dbc 4ea6 9d3d
000000e0: 8911 65ba a0b2 9ebd f6fd bcbd 299c 973d
000000f0: 7a7b 093c 8dea 073d 6b56 94bc e9e9 973c
00000100: 56d7 713d fa81 03bd f670 9f3d 8424 45bd
00000110: 4047 1abd 55ab 853d 2a63 9abd 635e 86bc
00000120: c0e5 893b 69cf 7c3d 75e8 44ba f953 cd3c
00000130: 9261 8fbc da91 b6bd 3325 8abd fdf3 1d3d
00000140: 7a87 5f3d 8ae5 5c3d 640b a0bc 356f 42bd
00000150: 34f1 44bd b363 c6bc 185b 5abc a2cd e1bc
00000160: 1b9e 523d da62 ae3c 03b3 74bd 368c 43bd
00000170: 8fc7 9bbd 44f6 7a3d a973 d13c fbc9 493d
00000180: 9095 75ba dac4 1b3d 8c9d ef3c 5e52 8b3c
00000190: 95bb cf3c 0fa2 6d3d 45fd adbd 18e3 d03c
000001a0: ae60 163d faca 52bd 88dd 0dbd dcd8 9cbd
000001b0: 842d d3bc 7273 63bd 3cad a93d f89e fa3c
000001c0: c22c 493c 5541 883b b71b 9c3b f40a f13c
000001d0: 9f55 daba 2f83 0d3b 6b70 edbc af0b 123d
000001e0: ffde a23d 8dd2 913d a4f6 b63d 6681 1e3c
000001f0: 6ff7 d1bc bacd 3bbb 14c0 d63c 535d 803d
-0.08184614 0.027029471 0.006899388 -0.025617244 -0.033535603 0.03508035 0.058881734 0.060485672
0.04353607 0.07171883 -0.001599768 0.04870841 0.08182935 0.013840719 0.05001641 -0.076728046
-0.05363442 0.06991328 -0.027078114 0.011736991 0.056288566 -0.050666288 0.024041178 0.025731359
0.01598737 -0.076682195 0.08125788 0.044905838 -0.06369008 -0.08553285 0.07237785 -0.033640888
0.028664041 -0.0019446706 0.027402893 0.059899945 -0.012866509 0.04800478 -0.082525216 0.052504636
-0.02668419 0.03231266 -0.04780683 0.037069827 0.0025160087 0.040919356 0.07485025 -0.042406037
0.029324379 -0.00050128123 -0.07715475 -0.05176961 -0.050620463 0.018777426 -0.01351953 0.07697736
-0.00087382697 -0.07748914 -0.09228127 0.07402832 0.0083912555 0.03318267 -0.018107614 0.018544154
0.05904325 -0.032106377 0.077852175 -0.048130527 -0.037665606 0.065268196 -0.07538445 -0.016402429
0.0042082965 0.06172124 -0.00075114454 0.025064455 -0.01750258 -0.08914538 -0.067453764 0.038562763
0.05457256 0.053929843 -0.019536681 -0.047469337 -0.04808159 -0.024217462 -0.0133273825 -0.027563874
0.051420312 0.02128737 -0.05974103 -0.047741137 -0.07606422 0.061270013 0.025567846 0.04926489
-0.0009368295 0.03802953 0.029249929 0.01700705 0.025358 0.05801588 -0.08495573 0.025498912
0.036713295 -0.051463105 -0.034635097 -0.0765855 -0.02577854 -0.05553002 0.08284995 0.03059338
0.0122787375 0.004158179 0.004764046 0.029424168 -0.0016657597 0.0021593084 -0.02898427 0.035655674
0.079526894 0.071202375 0.08933762 0.009674406 -0.02563068 -0.0028656558 0.026214637 0.062678

model.model.model.6.weight f4 [128, 128]
00000000: 6cdb 5a3d f3c7 53bd e314 073d 8550 b73c
00000010: 91e1 593d 810c 73bc 1efc ddbb cd99 4c3d
00000020: 3e04 f9bc ec36 413d 6c6b 333d 3ea3 d53c
00000030: eef8 05bd 946f 9b3d 283b 9c3d 6a86 963c
00000040: 6485 4cbc 7b65 18bc 7f67 253c 7add 82bd
00000050: c3fc 8f3d 7245 3bbd bc07 a43c aeb1 303d
00000060: cacf 393d 7f0f 273d 5b10 6bbd bae8 cabd
00000070: 9686 31bd 6ed2 a93d 28c0 2f3d a66a 953d
00000080: a89c 13bd 6c79 ad3d 91eb 02bd eb6e 963c
00000090: 1cad 25bd 3481 403d 0894 9ebd 61d8 f1bc
000000a0: b8f1 3c3c 4a24 97bd 25ea 713d 128d 3c38
000000b0: 646e 02bd 0c6a 80bd 07e7 663d c88e 313d
000000c0: 7ee9 733d ea3e 35bb 4e14 293d 0f3f a2bd
000000d0: 9587 4ebc 9ec2 62bd 5575 803d 447a dc3c
000000e0: 2139 5d3d 9e97 9a3c a27a 58bc 9276 973d
000000f0: 5e4a 3c3d 9ad5 ccbc cce9 633d eb4b 193d
00000100: ad52 303d fa3c abbd ddac 84bd d91c 493d
00000110: 80c6 583c 2056 8abc f1e9 71bd 9941 583d
00000120: 5f8a 26bd 5d2d 083a f204 c23b ee1e 62bc
00000130: 5972 ef3c ab22 553c 4a96 2fbd 50be a5bd
00000140: b1af 25bd dcdf ae3d 21c6 993d 946b b1bd
00000150: 4814 843d 126c 793d 38ee fcbb 3783 2b3d
00000160: 7d90 a33b 12b9 91bd 1adf 20bb b0f9 d03b
00000170: 6601 68bd 7de3 84bd d59d a43c 2945 9d3d
00000180: f549 8b3d 1a8d 7e3c c096 15bd 2180 be3c
00000190: 220a f33c 1501 a23d 6176 51bd e941 f93b
000001a0: f83f 35bd 0b70 b03c b7cc abbd 6a03 273d
000001b0: 8d19 873d a2cc 51bd bdc4 1f3d 42c1 823d
000001c0: b5ff aa3d a43a 353d 6a30 fabb 4491 88bd
000001d0: aabd a53d 3dab 603c 4d66 803d 9244 003b
000001e0: 9d0f 993d 1783 32bd c186 273d 94f6 453d
000001f0: 7c3b 733d c749 14bd bed8 363d 4f6c 8d3d
00000200: ae1b 5fbd 40dd 083c e492 fcbc 1536 8e3d
00000210: 2929 81bd 245f 96bd 03cb 263d 2922 5a3d
00000220: 229b 5fbd ce39 193d 4d7d 883d 8f98 96bd
00000230: 8f1d 09bb df43 9e3d 3327 1bbc 82c0 d2bc
00000240: 2773 8dbc 41bc 93bd 7674 a13d d636 5a3d
00000250: d4c2 57bd a775 fc3c 708e e63a 7d40 39bb
00000260: ff52 933d e330 243c ab3a 2e3d 333f af3c
00000270: 1372 533c 2536 4abd 7f23 3a3d 88bc 6bbd
00000280: 9cfb 44bc ea97 9dbd 378a 963d 5b43 933d
00000290: 1aab e2bb 76bf 38bd cd4e 1a3d 37e4 e13c
000002a0: a2c7 efbc 64bd 0bbd d033 e23c de53 2a3d
000002b0: 992f 303c 0c36 953d 0f08 92bc 2375 22bb
000002c0: ae71 4bbd d552 97bd 6cb6 903d 6114 833d
000002d0: b7b3 593d ce9d 9e3d fc2c 333c 1f56 cb3d
000002e0: 3baa 0cbb 65ed 083d 2ef8 b8bc 5f7d ca3c
000002f0: a606 afbd b02b 39bd 2d07 92bc becc a23d
00000300: 88a7 3e3d 7c0c a9bd 7ff8 933c b00d cb3c
00000310: a984 d93a 0204 6a3d f70e c83c 9577 09bb
00000320: 4751 38bd 7266 cf3c 852b c63c 073b 1abc
00000330: 95cc 2c3d a5c4 cabc b2b3 7d3d 6052 473c
00000340: e7a4 5abb db6d 663d e098 15bd 4695 30bc
00000350: 9acf 25bd 09b5 98bd 4c84 723c f63f 42bc
00000360: e8ba 88bd 2c7a 3b3d 97b3 dd3b f3bd 8e3d
00000370: a261 773c c911 2abd 5735 4b3d 6d93 78bd
00000380: 521a 4cbd 6912 4d3d 7604 9a3d e23a 4ebd
00000390: 8ec4 1d3d f9d7 9bbd e1d3 e93c f41e 24bd
000003a0: b319 86bd a493 8c3d 7c9c 11bd e481 183d
000003b0: 06e8 233b 79b8 83bd 2943 473d 9f25 9cbd
000003c0: 4f24 94bd 2eef 82bd d1eb 14bd 74d8 aabc
000003d0: 3bf0 73bd aa68 223c 2721 88bc 0c58 52bc
000003e0: ae0e e73a 0462 9c3c 48c6 94bd de3f 823c
000003f0: 3914 853c 9bc0 61bd d82a 133d bf08 afbd
0.053431913 -0.05170436 0.032978904 0.022377262 0.053193633 -0.014834524 -0.0067744395 0.049951363
-0.03039753 0.04717152 0.043803617 0.026078817 -0.0327081 0.07589641 0.07628471 0.01837464
-0.012482975 -0.009301539 0.010095476 -0.063898996 0.07030632 -0.045720525 0.02002322 0.0431382
0.04536418 0.040786263 -0.057388645 -0.0990767 -0.04334124 0.082920894 0.042907864 0.07295732
-0.03603807 0.08470425 -0.031962935 0.018363437 -0.040448293 0.046998218 -0.077430785 -0.029522123
0.01153224 -0.073799685 0.05906119 4.4954075e-05 -0.031843558 -0.06270227 0.05637267 0.043349057
0.059548847 -0.0027655908 0.04127913 -0.07922184 -0.012605567 -0.055361383 0.06272379 0.02691377
0.05400956 0.018871125 -0.013212832 0.07395662 0.04596936 -0.025004197 0.055642888 0.037425917
0.043047596 -0.0836124 -0.064782836 0.049099777 0.01323092 -0.01688677 -0.059060995 0.052796934
-0.040659305 0.0005194748 0.0059209997 -0.0138013195 0.02922933 0.013008754 -0.042867936 -0.0809294
-0.040450756 0.085387915 0.07508493 -0.08663097 0.06449181 0.06089408 -0.0077188276 0.041873183
0.0049915896 -0.071153775 -0.0024547041 0.0063774213 -0.05664196 -0.064887024 0.020094791 0.07679207
0.068012156 0.015536571 -0.03652072 0.023254456 0.029667918 0.07910363 -0.051138286 0.007606734
-0.04425046 0.021537801 -0.08388656 0.04077474 0.0659667 -0.051220544 0.039005984 0.06384517
0.083495535 0.044245377 -0.007635166 -0.06668332 0.08092816 0.013712701 0.06269512 0.001957212
0.07473681 -0.04358205 0.040899996 0.04833086 0.0593829 -0.036203172 0.044640295 0.06905424
-0.054469757 0.008353531 -0.030831762 0.06943909 -0.06306679 -0.073423654 0.04072095 0.053255234
-0.054591306 0.037408642 0.06664524 -0.07353317 -0.002092216 0.07727789 -0.009469795 -0.02572656
-0.017266823 -0.07213641 0.07883541 0.053274952 -0.052676037 0.03081782 0.0017590057 -0.0028267198
0.071935646 0.010021421 0.04253642 0.02139244 0.012905615 -0.049368042 0.045444008 -0.057552844
-0.012022879 -0.07694991 0.07350581 0.071905814 -0.0069173696 -0.045104466 0.037672807 0.027574642
-0.029269997 -0.034116164 0.027612597 0.04158389 0.010753536 0.07285699 -0.017826108 -0.0024789057
-0.04966896 -0.07388846 0.07066044 0.06400371 0.053149905 0.077449426 0.010936018 0.09928536
-0.002146377 0.033429522 -0.022579279 0.024717985 -0.0854619 -0.04520768 -0.017825687 0.07949208
0.04654649 -0.08254334 0.018062828 0.0247868 0.0016595322 0.05713273 0.024421198 -0.0020975817
-0.044999387 0.025317404 0.024190674 -0.009413487 0.042187292 -0.02475197 0.06193895 0.012165636
-0.003336245 0.05625711 -0.036522746 -0.010777777 -0.040481187 -0.07456405 0.01480205 -0.01185607
-0.066762745 0.04577081 0.0067657935 0.06969824 0.015098961 -0.041520867 0.049611416 -0.06068747
-0.04982979 0.050066385 0.07520382 -0.050349124 0.038517527 -0.07609553 0.028543415 -0.04006858
-0.065478705 0.06864098 -0.035549626 0.03723325 0.0025010123 -0.0643167 0.048648033 -0.07624363
-0.07233488 -0.06393276 -0.036357705 -0.020855166 -0.059555274 0.009912649 -0.01661737 -0.012838375
0.0017628276 0.019089706 -0.07264382 0.015899595 0.016244994 -0.055115324 0.03592953 -0.0854659

model.model.model.6.bias f4 [128]
00000000: 73a8 92bd 7b8d fb3c b4e3 7c3d 90cc 96bd
00000010: 1515 febc e87c 743d b368 a8bd 348c b9bc
00000020: 4474 6d3c b2b9 61bd b5c3 7b3d 22d3 803d
00000030: 9ff6 6dbd 8a62 323d 062c 89bc 54b8 abbd
00000040: f7f2 99bd 32bd 1e3d a5c7 a43d b62e b1bd
00000050: e817 f83c 4650 13bd dffa 7c3d 59cd a63d
00000060: 3cec 97bd e4ee a13d 027a 33bd 3cfa b6bc
00000070: 6e91 e13c ada4 a9bd 46fc a9bd 74ce 1f3d
00000080: c86b 7ebd e5a2 28bd 2183 4ebd 963d ea3b
00000090: a222 e9bc 0457 423d 9ef7 a93d 357b a43d
000000a0: 7c18 983d 6571 21bc bdbb 56bd ab89 ca3b
000000b0: 2c5d b03d 0f5a 9fbb 4d89 a73d f8a5 09bd
000000c0: 8e81 09bd cdad 78bd 32ec 123d 90c3 82bd
000000d0: ce43 803d 4cac 6cbd 479c 163d ab6a a13d
000000e0: 26d5 45bd b1fe e9bc 3044 4b3d 56f8 523c
000000f0: bda6 7b3c 1847 7cbd 3837 ebbc 5a4b 99bd
00000100: 123a 39bd b2a7 803d c0a8 8e3d 92d3 263d
00000110: f276 0c3d a7a9 093d cb00 3c3d 3d02 9ebd
00000120: 6f69 093d aa31 2cbd 40e0 6e3d 1458 49bb
00000130: 0cd3 9c3d 28f3 4c3d d72b e9bc 422e f0bc
00000140: 8fe6 29bd efe7 9c3b d2d2 243c 5008 2abd
00000150: d0f4 4abd f34a 8dbd e727 a33c a098 b2bd
00000160: 6fde 383c 59f7 753d 113e 273d 19b5 38bb
00000170: b8b7 a23c 574a 23bb 17a6 1bbd a4da 9e3d
00000180: a6f8 ab3d d8e6 3a3d f689 253d 8ab1 6a3c
00000190: 3ebf 643d 2576 8d3d 980b d13c 6294 4d3b
000001a0: f573 563d dd06 33bd d8a1 12bd 522f 77bd
000001b0: 28b0 7e3d ff40 a3bc f5f1 65bd 65cb 753a
000001c0: 20df 113d 636e 84bd 1dfb 123d e645 e1bc
000001d0: cbbf 6b3d 5728 8e3d a720 8dbd 5518 a1bd
000001e0: 84db 4c3d 83c5 94bd 18d7 bdbc f002 86bd
000001f0: 2d46 12bc af95 dcbc 5f22 7ebd e52f ef3c
-0.071610354 0.030707112 0.061740592 -0.07363236 -0.031015912 0.059689432 -0.08223095 -0.022649862
0.014493052 -0.055108733 0.061465938 0.062902704 -0.058096524 0.043551005 -0.016744625 -0.08384767
-0.07517045 0.03875465 0.08045892 -0.086514875 0.030284837 -0.035965227 0.061762687 0.08144636
-0.07418105 0.07906893 -0.043817528 -0.022336118 0.027535167 -0.082833625 -0.083000705 0.03901525
-0.062114507 -0.041170973 -0.050418023 0.007148455 -0.028458897 0.047446266 0.08299182 0.080313124
0.07426545 -0.0098536955 -0.052425135 0.006180962 0.08611521 -0.0048630307 0.08180485 -0.033605546
-0.03357082 -0.060712624 0.035869785 -0.06384957 0.06262933 -0.057781503 0.03677013 0.078816734
-0.048298977 -0.02856383 0.049625576 0.012876591 0.015359578 -0.061591238 -0.028712854 -0.07485075
-0.045221396 0.06281985 0.0696578 0.040729113 0.034293123 0.03360906 0.045899194 -0.07715271
0.033547815 -0.04203955 0.05831933 -0.0030722665 0.076574415 0.05003658 -0.028463287 -0.029318932
-0.041479643 0.004788391 0.010060029 -0.041511834 -0.049549878 -0.06899061 0.019916488 -0.08720517
0.011283501 0.060050342 0.040830676 -0.0028184114 0.019862995 -0.0024916136 -0.038000192 0.07756546
0.08397035 0.045630306 0.040414773 0.014324555 0.055846445 0.069073 0.025518224 0.003136896
0.05235668 -0.043707717 -0.035798877 -0.060347863 0.062179714 -0.019928453 -0.05613895 0.00093763164
0.03561318 -0.06466367 0.03588401 -0.02749915 0.057555955 0.06941288 -0.068909936 -0.07865969
0.050014034 -0.07264235 -0.023173854 -0.06543529 -0.008927864 -0.026926843 -0.062044498 0.029197643

model.model.model.8.weight f4 [5, 128]
00000000: 64c5 573d 5abb 06bd aa47 673d 1f83 9a3d
00000010: e82d 753d 160e 71bd cb2f a53d 7845 15bc
00000020: 4cd4 68bc 6353 8a3c 10e2 af3c 2f30 8e3d
00000030: 1203 61bd 6116 37bd d619 9dbd c2c0 753d
00000040: c22f 20bd 667d e43c dad2 0bbd 2ace 96bd
00000050: 47b3 9c3b 1af7 8f3c bb7b 81bd b796 95bd
00000060: 979c 0ebd 1065 97bc e809 093d 6b91 283d
00000070: dd21 173d 8ffd 0f3d e1a2 963d 10aa 8a3d
00000080: e54c 273d 7484 323d d389 c33c 33e6 383c
00000090: 4c3c 253d 0c7f c9bc 07f1 9cbd 5b07 f3bc
000000a0: 2936 9c3d 4838 853d f6fc afba aa99 cd3b
000000b0: faa1 9cbd 9fe1 213d c878 c8bc 868e 40bd
000000c0: 53e1 a4bc 901b f33c 7305 71bd 36ef 863d
000000d0: e702 86bd 566e e6bc fe3a 273c 5a51 ee3c
000000e0: 40e4 b63b 34a6 933d 814b 96bd b590 4fbd
000000f0: 5bce aebc edae 8f3d b733 d83c 1a90 603d
00000100: 2d36 a23c 4153 a4bd 5ca5 5dbc 0990 00bd
00000110: 3d65 84bd 73fd 16bd 955b 823c 4a43 603d
00000120: 140e d8bc 3c6f 76bd d7ba 9dbd d4ea 9fbc
00000130: a1ad 9d3d 08bb 253d cce3 423d 3cc8 b4bc
00000140: 9945 d03c d2da c7bc 271f 6ebd 919b 853d
00000150: 55ff 7a3c 7183 8ebc 24b8 813c 0169 2e3c
00000160: 9c03 fd3c 3708 dd3c 1623 133d 3c0d 303d
00000170: 57ee 61bd fe1f 8f3d f8c5 02bd 3171 703d
00000180: 7039 cc3c 4453 4e3d dc63 c53c fbec 22bd
00000190: bc3c 953d 8926 6ebc 96eb 81bd 26a6 abbb
000001a0: 76db 833d ee43 95bd 9c16 213d 9f77 643d
000001b0: 537d 70bd 66a7 483d e0b6 943d e479 9a3d
000001c0: 518a c8bb a329 3e3d a58d f93c 3ed9 2b3d
000001d0: 7f22 85bb 891d 66bd 6442 95bd b807 deba
000001e0: ab32 fbbc 37b0 8bbd 1c37 cd3c 2dbc 41bd
000001f0: ea58 e5bc cc07 c0bb 3606 6bbc 3d77 9fbd
00000200: 34bf 873c 18d6 a8bb 502f 573d 68c5 d93c
00000210: 9a5f 1fbd b527 2abd e478 a93c 7d95 c9bb
00000220: 1d51 42bd ac7a 86bc fc92 91bb 178e 50bd
00000230: 0ce4 8ebd 21f8 ac3b c622 cebc 319f ae3d
00000240: d797 8dbc 27b0 06bd 2981 28bc 6b60 183d
00000250: ee79 143d 9a06 533d 5a51 e43a f142 a1bc
00000260: a6bc 893d 4a59 573d 6ee8 4abc 680c 413d
00000270: d0e0 2b3d d2bc 9f3d 0d8e b5bd 72af d839
00000280: 82d7 cb3c b669 c9bc 07d3 adbc 528e fdbb
00000290: 06c7 043d e625 953c d3d9 bebc d8d5 4c3d
000002a0: 0269 6b3c 6d40 f5bc be0f 4ebd 23fb 52bd
000002b0: e389 743d fdd7 e3bc 4868 ddbb 5b99 843c
000002c0: 3f95 82bc d0f4 823d 778d 51bd 034f 1e3d
000002d0: 7bc8 79bd 6b7e 993c 587d ac3c 2d01 f2bc
000002e0: 1177 533d 7015 9cbc 5e26 7d3c 545d 79bd
000002f0: b9d8 48bd 9a2b ad3d f586 6c3d be95 373c
00000300: f743 2c3d 39cd e53c 612b 4ebd 28e5 34bd
00000310: 5222 ea3c 69c8 e33b 7bf1 2f3c 3e74 223d
00000320: 3b2d 083d f253 31bd 82cf 043d 31d1 0abc
00000330: cf85 49bc 4810 053c 788d 9d3d e145 4e3d
00000340: 42d2 9fba 2c70 99bc 5fdd 1d3d 369e 19bc
00000350: f496 d93d 2682 653d eab8 fa3b 953b 2fbb
00000360: 1e5e 68bd fffc e1bc 3166 e7bb 1e11 54bd
00000370: a774 b1bd 9312 433c 2e0c b43b d7fc fb3b
00000380: 1854 be3c cd72 23bd c04d 56bd 04b4 25bd
00000390: 8da2 95bc c411 733d 6647 bbbc 60cf 6d3d
000003a0: 91e9 733d ec37 2b3b 8a05 6fbd d227 8e3d
000003b0: 9d70 29bd bdc5 413d a1a7 933c 116f 633c
000003c0: 1651 283b 3ac8 163c 5348 5d3d b268 f0bb
000003d0: f9fe bdbc 17d9 863c 7f1a 803d 4131 76bd
000003e0: 8387 1b3b 479a adbc 0123 f5ba 8730 0bbc
000003f0: 3a06 683d d1fb 5b3c 64d1 a23c 3de7 623d
0.05267848 -0.032893516 0.05646483 0.075445406 0.059858233 -0.058851324 0.080657564 -0.009110801
-0.014210772 0.016885465 0.0214701 0.06942784 -0.05493457 -0.044699077 -0.076709434 0.05999828
-0.039108045 0.027891826 -0.03413663 -0.073635414 0.0047821137 0.017573882 -0.06322428 -0.07304137
-0.034817304 -0.018480808 0.033456713 0.041154306 0.03689753 0.03515392 0.073552854 0.06770718
0.040844817 0.04358335 0.02386943 0.0112853525 0.040340707 -0.024596713 -0.0766316 -0.029666593
0.07627518 0.065048754 -0.0013426829 0.0062744217 -0.07648082 0.03952181 -0.024471655 -0.04701092
-0.020126974 0.029676229 -0.058843087 0.065885946 -0.06543522 -0.028128784 0.010206936 0.029091526
0.0055814087 0.07209435 -0.0733862 -0.050675113 -0.021338632 0.07015786 0.026391847 0.054824926
0.019801224 -0.08023692 -0.013528194 -0.031387363 -0.06464622 -0.0368628 0.01591281 0.05475167
-0.0263739 -0.060164675 -0.077016525 -0.019521154 0.07699133 0.04046157 0.047580525 -0.022068135
0.025423812 -0.024396334 -0.058135178 0.065238126 0.015319665 -0.01739666 0.015834875 0.010645152
0.03088551 0.026981456 0.035922132 0.04298137 -0.05515894 0.06988524 -0.03192708 0.058701698
0.024929732 0.050372377 0.024095468 -0.039776783 0.07286975 -0.014535555 -0.063437626 -0.0052383123
0.06438343 -0.07288347 0.039328203 0.055778142 -0.05871327 0.04898777 0.07261443 0.0754278
-0.006120004 0.046426427 0.03046305 0.041955225 -0.00406295 -0.05618051 -0.07288054 -0.0016939556
-0.030663809 -0.0682072 0.025050692 -0.0472986 -0.0279965 -0.0058603045 -0.0143447425 -0.07786415
0.016570665 -0.005152475 0.052535355 0.026583388 -0.038909532 -0.041541774 0.020687528 -0.0061518536
-0.047440637 -0.016415916 -0.0044425707 -0.050916757 -0.0697709 0.0052786027 -0.025163066 0.08526457
-0.017284317 -0.032882836 -0.0102847 0.037201326 0.036249094 0.051519968 0.0017419264 -0.01968524
0.06725435 0.052575387 -0.012384517 0.047130972 0.041962445 0.077996865 -0.08864985 0.00041329447
0.024883036 -0.02458654 -0.02121879 -0.007737913 0.032416366 0.018206548 -0.023297226 0.050008625
0.0143682975 -0.029937947 -0.05030798 -0.051509034 0.05970181 -0.027812952 -0.006756816 0.016186407
-0.015940307 0.063943505 -0.051160302 0.03864957 -0.06098221 0.018737039 0.021055862 -0.029541576
0.051627222 -0.019053191 0.015451042 -0.06088002 -0.049034808 0.08455582 0.057745893 0.011205135
0.042057004 0.02805196 -0.050334338 -0.044163853 0.028580818 0.006951381 0.010738726 0.03966164
0.03324626 -0.043292947 0.032424457 -0.008472727 -0.012299969 0.0081215575 0.07692999 0.05035961
-0.0012193399 -0.018730246 0.038541194 -0.009376099 0.10624495 0.056032322 0.007651438 -0.0026738395
-0.056730382 -0.027586458 -0.0070617427 -0.051774137 -0.08664828 0.011906284 0.005494616 0.007690053
0.023233458 -0.039904404 -0.052320242 -0.04045488 -0.018265987 0.059343114 -0.022861194 0.058059096
0.05954892 0.0026125861 -0.05835489 0.06941189 -0.041367162 0.04730772 0.018024268 0.013881461
0.0025683097 0.009203011 0.054024052 -0.0073366994 -0.02319287 0.016460938 0.06255054 -0.060105566
0.0023731894 -0.02119173 -0.0018702449 -0.008495457 0.056646563 0.013426737 0.019875236 0.055396307

model.model.model.8.bias f4 [5]
00000000: 0e7c 303d 094a 743c d9e3 143d fb9a eabc
00000010: 58b6 dd3c
0.043087058 0.0149102295 0.036350105 -0.028638354 0.027064487
