VRCP_Regression/data/spread/policies/agent_2_final.pth (torch, 424330 bytes, 20 tensors)

model.model.model.0.weight f4 [128, 14]
-0.2299257 0.17135811 -0.13852872 0.17102803 0.17303336 0.21090825 0.10655534 -0.08025617
-0.045754097 0.12879586 -0.14249474 -0.043770112 0.117010415 -0.041860078 -0.16399957 -0.11486325
-0.05326695 -0.1466268 0.0969246 0.19818236 0.12611516 0.24772388 0.0061118584 -0.076313116
-0.021688912 -0.0032282863 -0.23527506 -0.17142436 -0.02412076 0.3084026 0.07413847 -0.16778105
-0.18112285 -0.07385106 0.26646462 -0.04968301 -0.2545267 -0.15976277 0.24924287 -0.018202396
-0.022414625 -0.106141716 -0.1662579 0.24085112 -0.11391373 0.21937922 -0.15276352 0.114196986
-0.16015227 0.19540752 0.09455788 -0.2890504 0.302366 0.12168336 0.27972707 0.12852246
-0.21729164 -0.23457454 0.13507596 -0.18405893 0.048686635 -0.15649453 -0.10858208 0.21686524
0.2916575 0.13971318 -0.06946677 0.03992824 0.10872211 0.06596162 0.13993785 0.04595208
0.29829115 0.071075074 0.054536786 -0.1503427 0.12964597 -0.08163317 0.18611561 0.07150322
-0.26085812 0.17138813 0.028653055 0.27458337 0.08226684 -0.14322193 -0.031158341 0.061670512
0.0027374637 -0.00096793025 0.23077273 -0.11665001 -0.15122049 0.0425966 -0.09657157 -0.14759089
-0.013894725 0.22431009 -0.13541941 0.29729083 -0.19162141 0.2292247 -0.118910976 -0.037543513
0.2280026 0.031417802 -0.046531335 -0.18217018 0.2441132 -0.2728954 -0.2507829 -0.10833581
-0.23331927 0.20593905 0.15757814 -0.11194078 -0.14151895 -0.099800624 0.32843837 0.13643394
-0.020855503 0.03194443 0.1449607 -0.18212274 0.1888472 0.03606534 -0.070488244 -0.20468727
-0.15956737 -0.04899474 0.107917406 0.05362934 -0.090604275 0.23632704 0.027092407 -0.2723967
-0.1749237 -0.17612499 0.14614145 0.20723341 0.26302764 0.12844527 0.24127507 0.07705568
-0.14283551 0.0022388622 -0.030046782 0.18086058 0.14831059 -0.04984936 -0.15425278 0.11212125
0.19119461 -0.2520245 -0.06808499 -0.09790786 -0.02483539 0.115395196 -0.22814341 0.12558301
-0.027464403 -0.07553564 0.21682672 -0.23654813 0.11546508 -0.19013987 0.08564893 0.042159114
-0.05796059 -0.17027354 -0.04985542 0.04673557 -0.122255854 0.08916505 -0.083089426 0.09345289
0.16579011 0.2522548 0.24006322 -0.106528915 0.008905924 -0.25344968 0.23232308 0.27099767
0.120586045 0.021844052 0.10131812 -0.24277243 0.058706664 -0.09121058 0.17137483 0.118348174
-0.124854304 -0.014412069 0.086452976 -0.25872096 -0.14989464 -0.14648919 -0.06836889 0.018798025
-0.10252105 -0.011729823 -0.20061968 0.23712295 0.031119954 -0.16580275 0.21591748 0.15208457
-0.06295144 0.31270343 0.20809597 0.24434127 0.039118636 0.15372492 -0.11055876 0.030905629
0.11564662 -0.25456473 -0.17648728 0.26692912 0.09034627 -0.035427894 -0.048171178 0.0017139995
-0.1323553 0.12352464 -0.15653874 0.09491967 0.19230773 -0.13184999 -0.14905822 -0.26873487
0.05825219 -0.1331561 0.23152502 0.23360237 0.10309998 0.015304445 -6.262382e-05 -0.16103587
-0.15731537 -0.10902146 0.2457363 -0.09755504 0.087569624 0.21943437 -0.074091546 0.12876405
0.10810168 0.02966522 -0.10598182 -0.03837732 -0.25143823 -0.042617798 0.022455385 -0.2549654
00000000: a571 6bbe 8078 2f3e 79da 0dbe f921 2f3e
00000010: a82f 313e 55f8 573e b039 da3d 595d a4bd
00000020: a668 3bbd 10e3 033e 24ea 11be 4a48 33bd
00000030: 28a3 ef3d 7975 2bbd 81ef 27be 6c3d ebbd
00000040: 722e 5abd 5625 16be 6880 c63d 51f0 4a3e
00000050: 5524 013e 54ab 7d3e fc45 c83b 0d4a 9cbd
00000060: f2ac b1bc a891 53bb f2eb 70be de89 2fbe
00000070: e698 c5bc f2e6 9d3e e9d5 973d ccce 2bbe
00000080: 4578 39be 393f 97bd 0d6e 883e 6980 4bbd
00000090: 5351 82be da98 23be 8639 7f3e 311d 95bc
000000a0: e09e b7bc d460 d9bd 833f 2abe ada1 763e
000000b0: 9a4b e9bd f2a4 603e 0a6e 1cbe 1ce0 e93d
000000c0: f5fe 23be e918 483e 90a7 c13d 6afe 93be
000000d0: b7cf 9a3e 2035 f93d 6338 8f3e 649b 033e
000000e0: b381 5ebe 4f34 70be 5a51 0a3e f279 3cbe
000000f0: a36b 473d 1a40 20be 4860 debd ec11 5e3e
00000100: 2254 953e f910 0f3e 9844 8ebd cb8b 233d
00000110: b3a9 de3d e316 873d de4b 0f3e 4038 3c3d
00000120: 9eb9 983e cf8f 913d f761 5f3d 70f3 19be
00000130: eac1 043e 4b2f a7bd 1795 3e3e 4870 923d
00000140: 328f 85be 5f80 2f3e d0b9 ea3c 3196 8c3e
00000150: 847b a83d c5a8 12be c73f ffbc 389a 7c3d
00000160: 0567 333b b3bc 7dba b04f 6c3e 33e6 eebd
00000170: 8bd9 1abe c679 2e3d 51c7 c5bd 1122 17be
00000180: b3a6 63bc 8bb1 653e 63ab 0abe 8136 983e
00000190: 6738 44be e1b9 6a3e 9987 f3bd 3ac7 19bd
000001a0: 8379 693e f4af 003d a497 3ebd d28a 3abe
000001b0: d0f8 793e f2b8 8bbe 9e66 80be 2adf ddbd
000001c0: 3feb 6ebe b0e1 523e 2a5c 213e 3541 e5bd
000001d0: 58ea 10be 4564 ccbd 1329 a83e 57b5 0b3e
000001e0: 29d9 aabc 2ad8 023d 9470 143e 627e 3abe
000001f0: 2961 413e 40b9 133d 245c 90bd 8a99 51be
00000200: a165 23be b5ae 48bd cd03 dd3d 70aa 5b3d
00000210: bc8e b9bd b7ff 713e e5f0 dd3c 9577 8bbe
00000220: 331f 33be 1c5a 34be 1ba6 153e ff34 543e
00000230: 8fab 863e 2887 033e d010 773e 5ecf 9d3d
00000240: 7943 12be e0b9 123b ab24 f6bc 8433 393e
00000250: bbde 173e d82e 4cbd 71f4 1dbe d39f e53d
00000260: 85c8 433e 5b09 81be 2570 8bbd eb83 c8bd
00000270: 9673 cbbc 5154 ec3d 6d9e 69be d598 003e
00000280: 07fd e0bc 6eb2 9abd d307 5e3e ac39 72be
00000290: f578 ec3d 07b4 42be b568 af3d 09af 2c3d
000002a0: 1568 6dbd 305c 2ebe 3235 4cbd cc6d 3f3d
000002b0: 4761 fabd 2a9c b63d ca2a aabd 3b64 bf3d
000002c0: e2c4 293e 8b27 813e 22d3 753e d52b dabd
000002d0: 27ea 113c 28c4 81be 1ae6 6d3e 35c0 8a3e
000002e0: d1f5 f63d 4cf2 b23c e07f cf3d 5699 78be
000002f0: 6676 703d 9dcc babd e27c 2f3e 8760 f23d
00000300: 9db3 ffbd 9920 6cbc 420e b13d 1377 84be
00000310: fb7d 19be 4301 16be fd04 8cbd 51fe 993c
00000320: 8ef6 d1bd 722e 40bc 3f6f 4dbe 5cd0 723e
00000330: 46ef fe3c 32c8 29be 7919 5d3e 0fbc 1b3e
00000340: afec 80bd aa1a a03e 1c17 553e 9934 7a3e
00000350: dd3a 203d 116a 1d3e a26c e2bd cd2d fd3c
00000360: 23d8 ec3d 4f56 82be 15b9 34be efaa 883e
00000370: 7707 b93d d71c 11bd 244f 45bd 48a8 e03a
00000380: 2688 07be 7dfa fc3d b14b 20be 3e65 c23d
00000390: 51ec 443e af03 07be b8a2 18be 9e97 89be
000003a0: d999 6e3d 135a 08be e514 6d3e 7635 6f3e
000003b0: 1526 d33d 7fbf 7a3c e854 83b8 96e6 24be
000003c0: 4817 21be a546 dfbd 4ca2 7b3e f0ca c7bd
000003d0: b457 b33d 67b3 603e 4fbd 97bd b9da 033e
000003e0: 6a64 dd3d 7a04 f33c ff0c d9bd 8931 1dbd
000003f0: 83bc 80be 0090 2ebd 5bf4 b73c d38a 82be

model.model.model.0.bias f4 [128]
-0.20727678 -0.08040185 0.18317723 0.10190754 0.0028750997 0.00946465 -0.24238281 0.20821658
-0.1544817 0.0984765 0.17187396 -0.104779474 -0.1474098 -0.19255523 0.019941611 0.122187614
0.19957563 0.09702565 -0.07475938 -0.01442769 0.050541725 0.29633486 0.2734427 -0.104481205
-0.21010387 0.23192473 -0.2456156 0.059880067 -0.22050202 0.19515495 0.090045705 0.004205173
-0.09855432 0.18937573 -0.03502079 -0.15521537 0.2517905 -0.11171473 0.09661285 -0.15144071
0.2363387 0.25292358 0.083684586 -0.12264739 -0.1814938 -0.15928224 -0.051436305 0.11897839
-0.056082185 0.10219421 -0.017288841 -0.12296103 -0.1772437 -0.04634524 -0.109233655 -0.12368302
-0.21400651 0.21565291 0.04748298 0.12097713 0.11784069 -0.22468574 -0.18711554 -0.13081312
0.17878678 0.22211939 0.0056681717 0.12467413 0.074764654 -0.13863632 0.07304773 0.029373199
0.22874948 -0.12600991 -0.176949 0.28762025 -0.22783819 0.010074405 0.15266065 -0.2678925
0.11072465 -0.09239995 -0.17665017 0.32211003 0.016837826 -0.09494495 -0.12757754 -0.12650695
-0.25692502 -0.15093182 -0.22057594 -0.15921877 -0.16015786 0.032214176 -0.07613309 0.018013764
-0.13914815 0.186622 -0.09813498 0.19564691 0.2718884 0.1426193 -0.18523555 0.00496161
0.27464238 -0.086115845 0.14135316 0.030854285 0.18392897 -0.1947843 -0.017693497 -0.2647452
-0.0042722877 -0.23126285 0.007702341 0.06761982 -0.21868551 0.1490506 -0.23071088 0.038098857
0.109001555 -0.1460026 0.15369879 0.19629681 -0.17077045 0.14085302 -0.08017843 -0.2143134
00000000: 5d40 54be baa9 a4bd d092 3b3e e6b4 d03d
00000010: 2b6c 3c3b 9f11 1b3c 3333 78be ba36 553e
00000020: 7330 1ebe 0cae c93d baff 2f3e 9f96 d6bd
00000030: 98f2 16be 332d 45be 975c a33c 803d fa3d
00000040: 8e5d 4c3e 62b5 c63d 721b 99bd 1e62 6cbc
00000050: d704 4f3d 34b9 973e ae00 8c3e 3efa d5bd
00000060: 7825 57be ad7d 6d3e a882 7bbe cd44 753d
00000070: 48cb 61be b3d6 473e e269 b83d 8ccb 893b
00000080: d9d6 c9bd b6eb 413e f671 0fbd c7f0 1ebe
00000090: afea 803e b1ca e4bd f5dc c53d 4613 1bbe
000000a0: c602 723e 337f 813e d362 ab3d 8e2e fbbd
000000b0: 83d9 39be e21a 23be e0ae 52bd f1aa f33d
000000c0: 6fb6 65bd 334b d13d 54a1 8dbc fed2 fbbd
000000d0: 5f7f 35be 82d4 3dbd e5b5 dfbd 864d fdbd
000000e0: 8624 5bbe 1ed4 5c3e 837d 423d dcc2 f73d
000000f0: 7656 f13d 0514 66be 379b 3fbe e0f3 05be
00000100: e213 373e 4473 633e 12bc b93b 2655 ff3d
00000110: 361e 993d aef6 0dbe 0c9a 953d 10a0 f03c
00000120: 4e3d 6a3e be08 01be 1e32 35be f642 933e
00000130: 6a4e 69be 1e0f 253c 1353 1c3e 3529 89be
00000140: 9bc3 e23d 2f3c bdbd c8e3 34be 9beb a43e
00000150: 7bef 893c 7f72 c2bd b0a3 02be 0a8b 01be
00000160: ad8b 83be df8d 1abe a9de 61be 3f0a 23be
00000170: 6c00 24be 03f3 033d aaeb 9bbd 9a91 933c
00000180: da7c 0ebe d619 3f3e fefa c8bd aa57 483e
00000190: f534 8b3e cb0a 123e 63ae 3dbe 0095 a23b
000001a0: ed9d 8c3e 815d b0bd e2be 103e 20c2 fc3c
000001b0: e057 3c3e 8975 47be f4f1 90bc af8c 87be
000001c0: 8cfe 8bbb 2bd0 6cbe eb63 fc3b 437c 8a3d
000001d0: 18ef 5fbe b8a0 183e 793f 6cbe 8c0d 1c3d
000001e0: 353c df3d b581 15be 3763 1d3e 0802 493e
000001f0: 73de 2ebe c63b 103e 9734 a4bd f974 5bbe

model.model.model.2.weight f4 [128, 128]
-0.000112500675 -0.030483905 0.069996275 0.08667427 -0.020174477 0.0017266413 0.022788292 -0.010951251
0.091103286 -0.036883958 0.041265324 0.015237091 0.10308175 0.09741058 0.00981007 0.121331185
0.067176 0.008978837 0.052924838 0.1049878 0.09154296 0.08661454 0.048464607 0.038513552
-0.03533121 -0.056118533 -0.0331452 -0.03476366 0.038555853 -0.040722568 0.041666996 0.04444919
-0.04302129 -0.008542684 0.04340078 0.06891277 0.10894605 -0.011062271 0.075183384 0.036404226
-0.05570229 0.05020656 0.061447248 0.0046032113 0.025682308 -0.06183213 0.05026413 0.011488929
0.011366867 0.10538974 0.061663415 -0.007435444 0.10338516 0.037200794 0.08151089 0.020763462
0.0060507576 0.0064794295 -0.050460186 0.05901267 0.024198867 0.10444093 0.0076491176 0.01711771
0.033086408 0.07538742 0.06896116 -0.016093109 -0.042503875 0.015907234 -0.043425124 -0.024205828
0.014991025 -0.013090211 0.10946348 -0.036318116 0.093771674 -0.011903503 -0.0138260145 0.09991901
-0.0057595866 0.121670894 0.070307545 0.037529442 0.08076482 0.12325464 0.025619162 0.10297575
-0.007396407 0.011379051 0.053650215 0.0947497 0.054021005 -0.026776075 -0.029714707 0.04061024
0.013086313 0.098172076 0.092248216 -0.021258686 0.12094826 0.03296479 0.06326004 -0.045593277
0.069273286 0.040002797 0.09524437 -0.024501957 -0.009711153 -0.016130473 -0.026740182 0.0883277
-0.053209856 0.03813434 0.048397012 0.013951016 -0.08131444 0.029954724 0.024718475 0.013690047
0.014389865 0.032862544 0.10158354 0.078826174 0.030345006 0.10441778 -0.00073245156 0.012385788
-0.05555134 0.05840838 0.08522643 -0.0066929692 0.097123444 0.040254783 0.034075826 0.010597659
0.03104958 0.10152183 0.103767686 0.0991773 0.06950898 0.01876005 -0.015379418 -0.03677575
0.07423302 0.017232673 0.12600917 0.0041850195 -0.03231968 -0.034942035 0.007114084 -0.01641545
-0.056316312 -0.06804342 -0.06374009 0.035487834 0.029888678 0.046166357 0.0871227 -0.018298913
0.024861237 -0.050455455 -0.048248608 0.025353778 0.09926059 0.058385447 0.07196124 0.10796401
0.063604966 0.05740443 -0.02340752 -0.039359234 -0.009750305 -0.043764193 0.12706682 -0.022201898
-0.051308393 0.078341454 -8.439828e-05 -0.049406722 0.0331517 0.047778357 0.004185251 0.08233187
0.007995435 0.04768479 -0.03949619 -0.063988365 0.08681767 0.023549026 -0.0054429825 -0.055111837
0.0119719645 -0.017776141 -0.02670801 -0.04472565 -0.0015689759 0.10667531 0.110436305 0.073607445
0.026642578 -0.066561736 0.07537689 -0.005737765 0.06661449 0.06560796 0.020233238 0.020556275
-0.016912 0.10810585 0.03246507 0.10685095 0.02360858 0.012878509 -0.030651344 -0.050362755
0.019227063 -0.036339067 0.09768093 0.009876338 0.06096886 0.04298055 0.07116219 0.05036658
-0.062472507 0.032045286 0.102547 0.0640112 0.060703184 0.021392198 0.09059437 0.080124706
0.09994132 0.074793085 -0.020634688 0.06948954 -0.008150021 -0.018697549 0.06288163 0.12781733
-0.0028176946 0.059058595 -0.036583483 0.084189326 -0.005016278 0.01752295 0.07733369 0.08582412
0.053998757 0.11738557 0.07563858 0.089687966 0.087402545 0.118790396 0.06863894 -0.036171246
00000000: 57ee ebb8 62b9 f9bc 355a 8f3d 4882 b13d
00000010: f244 a5bc 7850 e23a 83ae ba3c e06c 33bc
00000020: 5c94 ba3d a213 17bd d405 293d fea4 793c
00000030: 861c d33d 337f c73d 6aba 203c 7c7c f83d
00000040: 9293 893d f91b 133c b7c7 583d d803 d73d
00000050: e07a bb3d f762 b13d d382 463d 63c0 1d3d
00000060: 75b7 10bd 8cdc 65bd 43c3 07bd 5764 0ebd
00000070: beec 1d3d b5cc 26bd 03ab 2a3d 5b10 363d
00000080: 1837 30bd 9df6 0bbc 04c5 313d 2322 8d3d
00000090: 1b1f df3d 873e 35bc bff9 993d 991c 153d
000000a0: 1628 64bd 65a5 4d3d 1cb0 7b3d 89d6 963b
000000b0: b463 d23c b043 7dbd c3e1 4d3d 103c 3c3c
000000c0: 193c 3a3c 93d6 d73d c792 7c3d 06a5 f3bb
000000d0: 99bb d33d dc5f 183d 2eef a63d 2318 aa3c
000000e0: 6f45 c63b 6551 d43b 57af 4ebd 45b7 713d
000000f0: b43c c63c 20e5 d53d 73a5 fa3b 713a 8c3c
00000100: 9d85 073d b864 9a3d 823b 8d3d b2d5 83bc
00000110: 8b18 2ebd e34f 823c 8bde 31bd 4d4b c6bc
00000120: eb9c 753c 5378 56bc 642e e03d 4ec2 14bd
00000130: 5d0b c03d e906 43bc 8286 62bc 57a2 cc3d
00000140: eaba bcbb 972e f93d 67fd 8f3d 79b8 193d
00000150: 0768 a53d ee6c fc3d 47df d13c f3e4 d23d
00000160: 8f5d f2bb 336f 3a3c 54c0 5b3d 210c c23d
00000170: 2145 5d3d 8059 dbbc 426c f3bc ec56 263d
00000180: fa67 563c 710e c93d a2ec bc3d b226 aebc
00000190: b9b3 f73d 1606 073d 7b8e 813d 04c0 3abd
000001a0: 27df 8d3d f9d9 233d 7b0f c33d 54b8 c8bc
000001b0: 871b 1fbc 0e24 84bc 3a0e dbbc 27e5 b43d
000001c0: 94f2 59bd c132 1c3d f23b 463d cd92 643c
000001d0: 2f88 a6bd 9c63 f53c 667e ca3c 384c 603c
000001e0: 78c3 6b3c e09a 063d 080b d03d 9e6f a13d
000001f0: 1796 f83c fdd8 d53d fe01 40ba c3ed 4a3c
00000200: cd89 63bd a03d 6f3d 328b ae3d b250 dbbb
00000210: a8e8 c63d 33e2 243d 1893 0b3d cea1 2d3c
00000220: b05b fe3c adea cf3d 2784 d43d 781d cb3d
00000230: b95a 8e3d adae 993c f4f9 7bbc 2ba2 16bd
00000240: 7b07 983d 892b 8d3c 8c08 013e 7d22 893b
00000250: a461 04bd 611f 0fbd 431d e93b b279 86bc
00000260: efab 66bd 595a 8bbd 2a8a 82bd b15b 113d
00000270: 1ad9 f43c ef18 3d3d 636d b23d 9ae7 95bc
00000280: cba9 cb3c 61aa 4ebd 55a0 45bd bab2 cf3c
00000290: 2349 cb3d 9425 6f3d 6a60 933d 3c1c dd3d
000002a0: 5243 823d e820 6b3d 21c1 bfbc 2637 21bd
000002b0: bebf 1fbc 1542 33bd ce1d 023e c1e0 b5bc
000002c0: c028 52bd 7c71 a03d fbfe b0b8 b45e 4abd
000002d0: 14ca 073d 3db3 433d 6e24 893b 9d9d a83d
000002e0: 49ff 023c 2051 433d c2c6 21bd 550c 83bd
000002f0: 76cd b13d e3e9 c03c 0c5b b2bb f3bc 61bd
00000300: 0f26 443c 459f 91bc c2ca dabc 3e32 37bd
00000310: 18a6 cdba 9678 da3d 6e2c e23d 80bf 963d
00000320: 8941 da3c 8551 88bd 335f 9a3d dd03 bcbb
00000330: 2d6d 883d 775d 863d 2dc0 a53c a265 a83c
00000340: 098b 8abc 9a66 dd3d 18fa 043d acd4 da3d
00000350: c866 c13c 6200 533c 8718 fbbc 2d49 4ebd
00000360: 1382 9d3c 46d8 14bd f00c c83d 5dd0 213c
00000370: 7cba 793d 600c 303d 7bbd 913d 304d 4e3d
00000380: 2ce3 7fbd eb41 033d 2904 d23d 4e18 833d
00000390: e7a3 783d b13e af3c 8b89 b93d 6c18 a43d
000003a0: 09ae cc3d 1e2d 993d 140a a9bc 8850 8e3d
000003b0: aa87 05bc 9a2b 99bc 16c8 803d 8ce2 023e
000003c0: 12a9 38bb 6de7 713d 90d8 15bd 746b ac3d
000003d0: 975f a4bb 4a8c 8f3c 2061 9e3d 8ec4 af3d
000003e0: cd2d 5d3d d967 f03d 66e8 9a3d 53ae b73d
000003f0: 1b00 b33d 6148 f33d 9392 8c3d 4d28 14bd

model.model.model.2.bias f4 [128]
0.060326215 0.00043838003 -0.02859506 0.040837407 0.029372195 -0.03685098 0.020252507 0.034404293
0.08898945 0.108597755 0.012629189 -0.02349167 -0.080214106 -0.08245902 -0.070095435 -0.06411903
0.019451434 0.08065228 0.087531954 0.03292819 0.0454935 -0.031947102 -0.009960828 0.049503542
-0.014992752 -0.06161313 0.111335285 2.4890882e-05 0.088237055 -0.048432026 -0.013602715 -0.06623045
-0.041156206 -0.024617223 0.056183632 0.0359829 -0.046034593 0.03045253 0.073864065 0.08321334
-0.01827635 -0.032314464 0.01031891 -0.048476472 0.029629363 0.059974153 -0.09260418 0.04702535
-0.018231075 -0.013112772 -0.066101395 -0.06750182 -0.048808895 -0.017765386 -0.0048355027 -0.035476867
-0.03637067 0.03391233 0.102802284 -0.039303474 0.026086293 -0.027413143 0.00582826 0.09197314
0.09586017 0.027029455 0.103047244 -0.009152625 0.10723715 0.041029204 0.10916075 -0.05373437
0.101055205 0.0707572 0.0054206178 -0.058664825 0.015136056 0.107672416 -0.047004215 0.064000234
0.03174796 0.08936519 0.0045144963 -0.06442321 -0.012664206 0.056230687 0.08634359 0.024702305
0.019025635 0.012573335 0.0474945 -0.049100105 -0.04509833 -0.0013955308 0.05046633 0.06563959
-0.019886816 0.09737655 -0.044088166 0.094967976 0.05706326 -0.021684399 0.056818362 0.10956195
0.10897073 0.0969473 -0.063960955 0.0068720845 -0.02156719 0.08069993 0.07650435 0.05437132
-0.021744816 0.0293981 0.04390736 0.0781954 -0.00066481996 -0.02129377 0.06237081 0.06982477
-0.0061790603 -0.03188958 -0.04481629 0.0364171 0.0015670494 -0.04141205 -0.0089481175 -0.028436854
00000000: 9f18 773d 5fd6 e539 3040 eabc 2045 273d
00000010: f59d f03c 0ef1 16bd 96e8 a53c 84eb 0c3d
00000020: 1a40 b63d 8068 de3d a8ea 4e3c 9a71 c0bc
00000030: 4b47 a4bd 46e0 a8bd 328e 8fbd d750 83bd
00000040: 9d58 9f3c 062d a53d f443 b33d b6df 063d
00000050: 6457 3a3d f7da 02bd be32 23bc 3ac4 4a3d
00000060: 29a4 75bc 0d5e 7cbd c103 e43d c3cc d037
00000070: a1b5 b43d a960 46bd ecdd 5ebc d5a3 87bd
00000080: 6993 28bd 0faa c9bc cf20 663d ce62 133d
00000090: c58e 3cbd 9677 f93c 0b46 973d c16b aa3d
000000a0: 49b8 95bc 2c5c 04bd a510 293c 448f 46bd
000000b0: 47b9 f23c 75a7 753d 43a7 bdbd a79d 403d
000000c0: 5659 95bc f4d6 56bc 2b60 87bd 653e 8abd
000000d0: d6eb 47bd b788 91bc 2373 9ebb 3150 11bd
000000e0: 69f9 14bd a8e7 0a3d 018a d23d aefc 20bd
000000f0: ecb2 d53c 8791 e0bc fdfa be3b 6a5c bc3d
00000100: 5652 c43d e06c dd3c 6f0a d33d e4f4 15bc
00000110: 279f db3d 3d0e 283d ac8f df3d 9218 5cbd
00000120: 08f6 ce3d 27e9 903d 709f b13b 874a 70bd
00000130: 38fd 773c 5b83 dc3d 7e87 40bd 8e12 833d
00000140: 260a 023d 1905 b73d 57ee 933b 51f0 83bd
00000150: 887d 4fbc 2652 663d e8d4 b03d 7d5c ca3c
00000160: a6db 9b3c 6400 4e3c 9889 423d 311d 49bd
00000170: 07b9 38bd 3eea b6ba c8b5 4e3d 0d6e 863d
00000180: ade9 a2bc 5b6d c73d cb95 34bd 927e c23d
00000190: 2abb 693d 7ba3 b1bc 5fba 683d 0462 e03d
000001a0: 0c2c df3d 4e8c c63d f6fd 82bd 392f e13b
000001b0: adad b0bc 0146 a53d 50ae 9c3d 76b4 5e3d
000001c0: 2f22 b2bc 49d4 f03c 34d8 333d e924 a03d
000001d0: 5047 2eba 4670 aebc 8978 7f3d 4a00 8f3d
000001e0: b779 cabb a69e 02bd 4991 37bd 192a 153d
000001f0: 7465 cd3a af9f 29bd 209b 12bc 68f4 e8bc

model.model.model.4.weight f4 [128, 128]
0.010818472 0.101529844 0.04219203 -0.012376348 -0.047048375 0.10034666 -0.15693544 0.0679584
-0.0018573271 -0.0376425 0.10404944 0.10638879 0.105981395 0.05833769 0.032283694 0.064366125
0.08166289 0.06069774 0.10392081 0.014726239 0.006371251 -0.017924434 0.0649905 0.11897562
0.049078245 0.057387367 0.11493926 0.10884588 -0.024876535 0.12269441 0.0176068 -0.015102157
0.06946727 -0.013277589 0.02215763 0.058214657 0.09507073 0.08345789 0.078220256 -0.045643486
-0.1199046 0.061793994 -0.16039969 0.038151164 -0.025229953 0.1133952 0.049054325 0.052123837
-0.041990705 0.10855266 -0.07118742 0.098659135 -0.039855592 0.03136091 0.042528365 0.08341387
0.0914752 0.06759684 -0.045684166 0.03914352 -0.03089827 0.10561854 0.029687513 0.093731895
0.038425952 -0.027679557 0.10696211 0.1166815 0.10263732 0.046924572 0.0707073 0.06535221
0.0021508904 -0.008483705 0.01423318 -0.021379497 0.04514941 0.030751493 -0.018372681 0.113976926
0.044040233 0.039384626 -0.0413521 -0.050210338 0.10701971 -0.037245717 0.011666 0.036454402
-0.018586373 0.0062327106 0.018382305 -0.022129629 0.12626177 0.0047179013 -0.040487397 -0.12161213
-0.010764182 0.026868958 -0.026898487 0.107512824 -0.04524221 -0.0052738274 0.12933311 0.04297355
0.09758723 0.08084877 -0.18195586 0.008408654 -0.008419367 0.040532444 0.07452356 0.03749533
0.012968467 0.111713216 -0.034109727 0.094632074 0.10827085 0.021110082 0.04466874 -0.13486047
0.065673664 -0.0071066595 0.11423138 -0.026643744 0.02227066 -0.0006044832 -0.08441003 0.045120895
0.0070576984 -0.041192643 0.026129952 0.08917477 -0.03352152 0.09987099 -0.14610203 0.10038989
0.06233661 0.077491574 -0.014549156 0.10117595 -0.008123305 0.17447723 0.0992436 0.047354747
0.0030494921 -0.01646531 -0.026675694 -0.040006723 0.124695145 0.1416513 -0.021721909 0.028263282
0.106478244 0.010409931 0.10570035 0.11619879 0.061761934 0.07285208 -0.055963352 0.014228144
0.008704691 0.031510793 0.08590472 0.08818224 0.11189012 -0.045355015 0.021764865 0.10141192
-0.15635908 0.11689102 -0.12417259 0.06818674 0.043157864 -0.0064702085 0.091186844 0.046755098
-0.17933632 -0.03361391 0.030938542 0.16194221 0.033587508 0.12271969 0.040747967 -0.0019377786
-0.023405511 0.026465124 0.0016256652 -0.004198964 0.024013983 0.10789254 0.1393173 -0.016253026
-0.061237477 -0.034307886 0.0073717446 0.12330661 0.02014913 0.095366605 0.085494585 0.055833034
0.056681644 -0.044955026 -0.015012293 0.094451666 0.10056001 0.021137029 0.01222474 0.034838706
0.042123012 -0.01896728 0.06918546 -0.012543012 -0.040980656 0.08452608 -0.04437053 -0.0007716207
0.054612506 0.10103519 -0.0073201493 0.072167836 0.09579125 0.0071770446 -0.031820774 -0.1167951
0.052695557 0.074594304 -0.03633224 -0.015826903 0.04190383 0.028672837 0.08450605 0.0883271
0.06366787 0.055384133 -0.18240917 0.095614366 0.12553504 0.03980801 0.07033264 0.066304125
-0.04109176 -0.034545004 0.10861063 0.12314492 0.021261854 -0.05074738 0.10541189 -0.09868557
0.064180285 0.045659587 0.10962166 0.02788628 0.06987912 -0.063471325 -0.00063603895 -0.007226265
00000000: f63f 313c e1ee cf3d 8dd1 2c3d 2ac6 4abc
00000010: ccb5 40bd 8d82 cd3d afb3 20be c62d 8b3d
00000020: 8e71 f3ba 062f 1abd df17 d53d 5ee2 d93d
00000030: c60c d93d 80f3 6e3d e83b 043d 63d2 833d
00000040: e03e a73d 329e 783d 6fd4 d43d 5346 713c
00000050: edc5 d03b 43d6 92bc bd19 853d 7da9 f33d
00000060: 4506 493d 040f 6b3d 4665 eb3d 97ea de3d
00000070: e0c9 cbbc 3547 fb3d 233c 903c 0a6f 77bc
00000080: db44 8e3d 3f8a 59bc eb83 b53c 7e72 6e3d
00000090: 71b4 c23d f8eb aa3d f131 a03d aaf4 3abd
000000a0: 8b90 f5bd b31b 7d3d d13f 24be 6544 1c3d
000000b0: 0caf cebc be3b e83d 30ed 483d ce7f 553d
000000c0: 72fe 2bbd db50 de3d b6ca 91bd cd0d ca3d
000000d0: 9e3f 23bd 4c74 003d 3932 2e3d e4d4 aa3d
000000e0: 5a57 bb3d 3670 8a3d 521f 3bbd f554 203d
000000f0: 5e1e fdbc 884e d83d 3a33 f33c 82f6 bf3d
00000100: 8864 1d3d 3dc0 e2bc f30e db3d b6f6 ee3d
00000110: 8433 d23d fb33 403d fdce 903d 61d7 853d
00000120: f4f5 0c3b 3dff 0abc 4932 693c 0e24 afbc
00000130: 96ee 383d 8eea fb3c 4e82 96bc bc6c e93d
00000140: 8863 343d c651 213d d260 29bd 5ba9 4dbd
00000150: 262d db3d f78e 18bd c022 3f3c 3651 153d
00000160: 7342 98bc c43b cc3b 7d96 963c 3249 b5bc
00000170: c44a 013e a098 9a3b 1dd6 25bd c80f f9bd
00000180: 405c 30bc 4a1c dc3c 375a dcbc af2f dc3d
00000190: e54f 39bd 12d0 acbb e66f 043e 0805 303d
000001a0: d0db c73d 0a94 a53d a352 3abe 73c4 093c
000001b0: 62f1 09bc 5905 263d cf9f 983d b494 193d
000001c0: b179 543c e6c9 e43d a4b6 0bbd 76ce c13d
000001d0: 1bbd dd3d 0def ac3c 92f6 363d dd18 0abe
000001e0: ea7f 863d fbde e8bb 24f2 e93d fb43 dabc
000001f0: f670 b63c 2e76 1eba 2adf acbd b0d0 383d
00000200: 4444 e73b 9eb9 28bd 7b0e d63c 43a1 b63d
00000210: dd4d 09bd 2989 cc3d c59b 15be 3799 cd3d
00000220: ac54 7f3d e7b3 9e3d 955f 6ebc 5635 cf3d
00000230: 9c17 05bc 29aa 323e 3b40 cb3d 0df7 413d
00000240: fdd9 473b 42e2 86bc fc86 dabc 17de 23bd
00000250: 2b60 ff3d 0a0d 113e 25f2 b1bc 6688 e73c
00000260: 4411 da3d 6a8e 2a3c 6d79 d83d a2f9 ed3d
00000270: 15fa 7c3d 7933 953d d439 65bd 291d 693c
00000280: 1f9e 0e3c 7611 013d d0ee af3d e498 b43d
00000290: a626 e53d 2ec6 39bd 3b4c b23c 0db1 cf3d
000002a0: 981c 20be 8f64 ef3d 334e febd 7da5 8b3d
000002b0: 4dc6 303d 0b04 d4bb 2bc0 ba3d 4682 3f3d
000002c0: f1a3 37be bdae 09bd d372 fd3c 2ed4 253e
000002d0: 0e93 093d 7654 fb3d 57e7 263d 0ffd fdba
000002e0: eabc bfbc 63cd d83c 4614 d53a 7797 89bb
000002f0: f9b8 c43c c4f6 dc3d 32a9 0e3e 1125 85bc
00000300: 26d4 7abd 6d86 0cbd ad8e f13b 2d88 fc3d
00000310: ca0f a53c 914f c33d c917 af3d 2eb1 643d
00000320: 032b 683d c322 38bd 1ff6 75bc e06f c13d
00000330: 68f2 cd3d 9027 ad3c 474a 483c 08b3 0e3d
00000340: 2e89 2c3d 4561 9bbc 1bb1 8d3d 3581 4dbc
00000350: 55db 27bd 021c ad3d dfbd 35bd 9746 4aba
00000360: 5db1 5f3d 8aeb ce3d dddd efbb bbcc 933d
00000370: 342e c43d 6a2d eb3b 8056 02bd 4532 efbd
00000380: 4cd7 573d e6c4 983d 1dd1 14bd 6ca7 81bc
00000390: 5aa3 2b3d 4ce3 ea3c 8211 ad3d d7e4 b43d
000003a0: 4d64 823d 79da 623d 78c9 3abe 77d1 c33d
000003b0: 428c 003e b90d 233d 8f0a 903d 75ca 873d
000003c0: d54f 28bd 107f 0dbd 406f de3d 6733 fc3d
000003d0: 572d ae3c 7cdc 4fbd 30e2 d73d a91b cabd
000003e0: f470 833d 8c05 3b3d 5281 e03d c571 e43c
000003f0: c91c 8f3d 41fd 81bd dabb 26ba 4eca ecbb

model.model.model.4.bias f4 [128]
0.10276851 -0.0127052665 0.08646114 -0.0429663 -0.08948545 -0.04863462 0.10814558 -0.015178786
0.044505037 -0.02690815 0.0044813952 0.058655363 0.022029096 0.024099465 0.035008706 -0.0881139
0.034892213 -0.05961759 -0.058854923 0.0116869705 0.017141487 -0.04076212 0.043832246 -0.01567726
0.08261259 0.03348547 0.062924914 -0.0034073147 0.10294799 -0.061955314 0.06886823 0.071598604
-0.03765903 -0.032172386 0.07234271 0.009034232 -0.02883008 0.08692664 -0.018777516 0.0073701874
-0.08470947 -0.0070884805 -0.02439726 -0.004132851 0.043323454 0.05128381 -0.020258384 -0.033002462
0.010406442 0.058934968 0.07967785 -0.063601926 0.014030627 -0.05218754 0.07847472 -0.02145339
0.0065468433 0.06825436 -0.040635616 0.06013827 0.074771665 0.043348216 0.0848682 -0.012449473
-0.03455387 0.10052302 0.08323526 0.032485086 -0.065281525 0.08589385 -0.007858314 0.047314968
-0.02130496 0.07165707 -0.030221133 -0.07167263 -0.021462927 0.06695564 0.033740595 0.03662855
0.059908766 -0.08023009 0.03747157 0.039630532 0.019321345 -0.024405817 0.013546609 0.06280995
0.007329913 0.08325097 0.03966417 0.06536811 0.094305076 -0.007817439 0.07903385 -0.040825523
-0.057579506 0.06158448 0.010383961 0.04706941 0.017522618 -0.017070081 -0.055216208 -0.057408888
0.033184867 0.086349756 -0.03935004 0.07866333 0.07674975 0.06555065 -0.09064934 -0.06260719
0.021637706 0.06882694 0.017316628 0.06314927 0.03596735 -0.06214572 -0.0810518 -0.087445974
-0.059912935 0.07356631 -0.047671005 0.099460736 0.044873204 0.038771763 0.06782015 0.017981745
00000000: 4c78 d23d c029 50bc 8a12 b13d 6efd 2fbd
00000010: 2644 b7bd 1835 47bd 6e7b dd3d 71b0 78bc
00000020: ea4a 363d 7b6e dcbc abd8 923b 9b40 703d
00000030: 5d76 b43c 3e6c c53c 4a65 0f3d 0f75 b4bd
00000040: 23eb 0e3d 9331 74bd dc11 71bd b57a 3f3c
00000050: 4e6c 8c3c 2ef6 26bd 7189 333d 996d 80bc
00000060: ca30 a93d 0f28 093d c7de 803d 414d 5fbb
00000070: 65d6 d23d dbc4 7dbd c90a 8d3d 4aa2 923d
00000080: 5b40 1abd 31c7 03bd 6a28 943d 5104 143c
00000090: 0f2d ecbc 9806 b23d 4ed3 99bc 9d81 f13b
000000a0: 297c adbd 7c46 e8bb c3dc c7bc de6c 87bb
000000b0: ef73 313d f90e 523d e9f4 a5bc 972d 07bd
000000c0: c87f 2a3c cb65 713d 242e a33d ba41 82bd
000000d0: b7e0 653c 9ac2 55bd 5bb7 a03d 05bf afbc
000000e0: e786 d63b f1c8 8b3d 8871 26bd 8c53 763d
000000f0: e321 993d e68d 313d 61cf ad3d e0f8 4bbc
00000100: 5c88 0dbd 03df cd3d 3f77 aa3d 150f 053d
00000110: 52b2 85bd 1de9 af3d 28c0 00bc 57cd 413d
00000120: bd87 aebc f1c0 923d 4f92 f7bc 1ac9 92bd
00000130: 05d3 afbc 0a20 893d 9433 0a3d d207 163d
00000140: e562 753d ac4f a4bd ca7b 193d a053 223d
00000150: cc47 9e3c b5ee c7bc 99f2 5d3c 81a2 803d
00000160: c42f f03b 7c7f aa3d e676 223d b7df 853d
00000170: 0523 c13d b714 00bc 80dc a13d aa38 27bd
00000180: 7dd8 6bbd 0240 7c3d 7d21 2a3c dbcb 403d
00000190: 988b 8f3c 8ed6 8bbc 642a 62bd 9525 6bbd
000001a0: dbec 073d 24d8 b03d 822d 21bd 3d1a a13d
000001b0: f92e 9d3d 6b3f 863d 5ca6 b9bd 3338 80bd
000001c0: 8f41 b13c 24f5 8c3d 9adb 8d3c 6854 813d
000001d0: 8052 133d 838c 7ebd 7cfe a5bd e016 b3bd
000001e0: 4467 75bd efa9 963d ac42 43bd 12b2 cb3d
000001f0: f7cc 373d 24cf 1e3d 4ae5 8a3d 744e 933c

model.model.model.6.weight f4 [128, 128]
-0.022129219 0.03857643 -0.0026656268 -0.006855037 -0.08334336 0.02947209 0.009456659 0.049533464
-0.004695813 0.0012488005 0.039372053 -0.0073435577 -0.038992386 -0.043909576 0.09994155 0.003989673
0.07165611 0.06922863 0.014658973 0.03008801 0.03277382 -0.055885717 -0.088983506 0.07986244
-0.02198625 0.03732587 0.031542998 -0.08690746 0.00011985176 -0.0045956643 0.04227634 0.040859777
-0.020943977 0.03875637 0.09332066 0.029737156 -0.0073964754 0.09544896 0.039550234 0.044670776
-0.03702982 0.09015107 0.033694442 0.072971165 0.052540854 0.008027253 -0.06933796 0.085025474
0.097449996 -0.03546386 -0.09559068 -0.02787247 -0.026289774 0.0391411 0.038238022 0.011582246
-0.023676286 -0.08284934 0.071381256 -0.048193425 -0.009998611 0.046740875 0.05404175 0.057043947
0.0630493 0.043571375 0.07299977 0.057061806 0.028281378 -0.029532665 0.010858482 0.024640469
-0.03178088 -0.07024476 0.046432022 -0.04981828 0.04566893 -0.032662105 -0.07486945 0.06867386
-0.02451679 0.07689086 -0.034466542 -0.02067604 -0.028921839 -0.026026806 -0.04900425 -0.06651911
-0.05493976 -0.056387667 -0.0813071 0.076665 0.042940315 -0.016581772 -0.01760392 0.090213396
0.08194122 -0.0069541247 0.047792137 0.09743765 -0.033505026 -0.07520288 -0.09207663 -0.0013169488
-0.023627818 -0.054238975 0.06507661 0.024496214 0.039370965 -0.04476205 0.047446575 -0.07873328
0.0043619773 -0.00012838261 -0.07712978 0.05951454 0.017361278 -0.04124238 -0.05382763 -0.004031725
-0.031041838 -0.049210187 0.048627127 0.007082032 0.09366139 0.026379352 0.037891045 -0.008428068
-0.029504742 -0.03226625 -0.0016920643 0.06954016 -0.015392935 0.03764821 0.02866556 0.066761896
0.015048949 0.028380666 0.04274101 0.06377135 -0.003397807 -0.00699822 0.080187745 0.045865938
-0.03666594 0.08155582 0.036617067 -0.03181795 -0.011521708 0.09287909 0.07072995 0.062175926
0.054527733 0.04342725 0.040433362 0.07537487 0.06995503 0.00837423 0.009794462 0.08556802
0.08101629 0.06934345 -0.055847928 0.048207592 0.0742542 0.04543071 -0.012624372 0.030527709
0.0004227976 0.11912987 -0.0050938567 0.080539145 0.04396763 -0.0006335408 -0.0039752736 -0.013397897
0.07369964 0.08360077 0.027532842 -0.034783814 0.009441821 0.09934455 0.069142886 -0.021321082
0.029026823 -0.049045727 -0.044298884 -0.04493932 0.0004355024 -0.045817595 -0.012679598 0.04837596
0.012157469 0.10478735 -0.03478975 -0.057768326 -0.080187015 0.07489366 0.067088954 -0.081531495
0.09469233 -0.030003306 0.09864729 -0.036167096 0.09464506 0.03516622 -0.016282223 -0.0059032314
0.033908114 0.012846941 -0.024931407 0.025243664 0.03215324 0.07348757 0.022411855 -0.022690663
-0.0042226743 0.10493189 0.10547116 -0.082811706 0.047621757 0.09419401 -0.054320443 0.012940965
0.053503796 0.01744735 0.065215945 0.032564506 -0.048287172 -0.00086481293 0.10465012 0.015393771
0.033038978 -0.060480844 0.033319946 0.030978715 0.016387159 -0.04951182 -0.087453835 0.0627717
0.04990429 0.0329279 0.07926521 0.07481596 -0.01972424 -0.003567113 -0.056766976 -0.06217523
0.07366514 0.102244556 -0.061635066 0.08432974 0.069971845 -0.031405196 -0.060566798 0.06384215
00000000: 5648 b5bc 5202 1e3d ccb1 2ebb 38a0 e0bb
00000010: ecaf aabd 746f f13c 1af0 1a3c 9ae3 4a3d
00000020: 56df 99bb cbae a33a 9744 213d 3aa2 f0bb
00000030: 7bb6 1fbd 87da 33bd 28ae cc3d cebb 823b
00000040: 70c0 923d bdc7 8d3d 302c 703c 217b f63c
00000050: d73d 063d 6ce8 64bd fc3c b6bd eb8e a33d
00000060: 821c b4bc 03e3 183d 3b33 013d 8afc b1bd
00000070: ec58 fb38 3a97 96bb f529 2d3d 955c 273d
00000080: b492 abbc 00bf 1e3d e71e bf3d 569b f33c
00000090: 225e f2bb bf7a c33d 6dff 213d b4f8 363d
000000a0: 95ac 17bd 20a1 b83d 2f03 0a3d e871 953d
000000b0: 1435 573d bd84 033c 0f01 8ebd d621 ae3d
000000c0: dd93 c73d 8d42 11bd 0cc5 c3bd ce54 e4bc
000000d0: a75d d7bc 6b52 203d 799f 1c3d 76c3 3d3c
000000e0: c5f4 c1bc eaac a9bd 5630 923d 7866 45bd
000000f0: 37d1 23bc 5c73 3f3d e25a 5d3d eaa6 693d
00000100: fe1f 813d e677 323d e780 953d a4b9 693d
00000110: 59ae e73c 7dee f1bc c6e7 313c cfda c93c
00000120: ab2c 02bd 7cdc 8fbd 812f 3e3d 410e 4cbd
00000130: 580f 3b3d b3c8 05bd 2755 99bd e1a4 8c3d
00000140: 6fd7 c8bc f578 9d3d ca2c 0dbd cc60 a9bc
00000150: 7eed ecbc 2b36 d5bc aeb8 48bd 2c3b 88bd
00000160: 8408 61bd c1f6 66bd 5684 a6bd 8a02 9d3d
00000170: 2fe2 2f3d 7fd6 87bc 1936 90bc cdc1 b83d
00000180: ccd0 a73d 6ddf e3bb b0c1 433d 648d c73d
00000190: 913c 09bd f803 9abd ac92 bcbd 789d acba
000001a0: 208f c1bc b029 5ebd e346 853d 49ac c83c
000001b0: 7343 213d 6958 37bd 5757 423d ea3e a1bd
000001c0: ebee 8e3b 729e 06b9 38f6 9dbd 85c5 733d
000001d0: 3d39 8e3c c5ed 28bd 5c7a 5cbd 901c 84bb
000001e0: 744b febc 9f90 49bd 3d2d 473d 6410 e83b
000001f0: 8bd1 bf3d 8319 d83c a433 1b3d e115 0abc
00000200: eeb3 f1bc 9e29 04bd 42c8 ddba 126b 8e3d
00000210: a632 7cbc 0235 1a3d 09d4 ea3c 76ba 883d
00000220: de8f 763c 927e e83c 3311 2f3d 8e9a 823d
00000230: bead 5ebb 5351 e5bb 7939 a43d ecdd 3b3d
00000240: 062f 16bd bd06 a73d c7fb 153d 8a53 02bd
00000250: 8cc5 3cbc 6437 be3d ddda 903d 2fac 7e3d
00000260: 7958 5f3d c6e0 313d 749d 253d 245e 9a3d
00000270: 9544 8f3d 1134 093c f378 203c 493e af3d
00000280: deeb a53d f003 8e3d ccc0 64bd 5375 453d
00000290: 9612 983d 8d15 3a3d 74d6 4ebc 3f15 fa3c
000002a0: efaa dd39 5cfa f33d 5eea a6bb b5f1 a43d
000002b0: 6717 343d 3414 26ba 0343 82bb da82 5bbc
000002c0: d6ef 963d e136 ab3d 8e8c e13c 7979 0ebd
000002d0: deb1 1a3c 2875 cb3d c99a 8d3d 8da9 aebc
000002e0: a9c9 ed3c 2ce4 48bd bf72 35bd 4b12 38bd
000002f0: 2554 e439 3bab 3bbd 17be 4fbc df25 463d
00000300: 1f30 473c c09a d63d b27f 0ebd 7b9e 6cbd
00000310: 1739 a4bd d961 993d ef65 893d fcf9 a6bd
00000320: 0dee c13d 7ec9 f5bc 9707 ca3d f323 14bd
00000330: 45d5 c13d 740a 103d 4c62 85bc e56f c1bb
00000340: 3ce3 0a3d fa7b 523c f33c ccbc cdcb ce3c
00000350: 1eb3 033d a780 963d 1199 b73c c5e1 b9bc
00000360: 5c5e 8abb 88e6 d63d 4301 d83d 2f99 a9bd
00000370: 080f 433d cae8 c03d 1d7f 5ebd 5706 543c
00000380: cc26 5b3d bfed 8e3c f08f 853d 5c62 053d
00000390: c5c8 45bd 9db4 62ba cd52 d63d 2836 7c3c
000003a0: e153 073d c3ba 77bd 7f7a 083d 13c7 fd3c
000003b0: 5d3e 863c e8cc 4abd ff1a b3bd 738e 803d
000003c0: 7168 4c3d 68df 063d cc55 a23d 1c39 993d
000003d0: bb94 a1bc 3ac6 69bb 7d84 68bd 74ab 7ebd
000003e0: c0dd 963d 9865 d13d 0d75 7cbd 12b5 ac3d
000003f0: 664d 8f3d bca2 00bd e414 78bd acbf 823d

model.model.model.6.bias f4 [128]
-0.04627543 -0.010582184 0.015212371 -0.041923437 -0.07987596 -0.0668019 -0.0007426044 0.06787882
-0.026480142 0.024682198 0.073484816 -0.0012126893 -0.08142363 0.005116554 -0.0028958246 0.006685761
-0.06487144 -0.051726393 0.07723383 -0.032842126 -0.05649571 -0.020800408 0.018257556 0.007678965
0.0015350784 0.03890008 -0.017879168 -0.019458288 -0.071931325 0.043343008 -0.08006583 0.025305916
0.036466885 -0.005727404 0.034262028 -0.05293695 -0.04210919 -0.066014506 0.018058304 -0.014121284
-0.0857537 0.07190106 -0.0038161336 0.02349939 -0.03265102 -0.03755326 0.08657857 -0.082266286
-0.011538226 0.07089458 0.009740411 -0.05416056 -0.0862402 0.008281053 0.079851255 0.05043799
-0.050151136 -0.03234936 0.045192286 0.03835948 -0.0016048766 -0.07096033 0.061425358 -0.07797612
0.050028186 0.022902602 0.038348064 -0.0003719001 0.01850755 0.10366869 0.07398788 0.08333974
-0.027796097 0.058181345 -0.060783517 0.058393966 0.021055495 0.010797871 -0.013990699 -0.07363883
0.048773643 -0.073525816 -0.05388885 0.06147612 0.04082912 -0.08589358 0.015457658 -0.0013632558
-0.08420875 0.07336192 -0.04210337 0.0068017184 0.03657855 0.08330931 -0.01104247 -0.030894019
-0.052499615 0.02125129 0.061731365 -0.012325983 0.012918773 -0.00814031 0.0117513575 -0.038059648
-0.0623115 -0.026012264 0.06381591 0.022304934 0.086925186 0.015386206 0.047513347 0.015142147
0.02260894 -0.0020449718 0.031274233 -0.017396217 0.08577495 -0.0511571 -0.074434735 0.092804745
0.016755939 0.030457601 -0.004999274 -0.080631174 -0.052888248 0.090533 0.012918298 -0.015917402
00000000: 4e8b 3dbd e660 2dbc 4f3d 793c e9b7 2bbd
00000010: 0296 a3bd 6fcf 88bd 56ab 42ba 0d04 8b3d
00000020: e2ec d8bc 5232 ca3c 357f 963d 1af3 9eba
00000030: 6fc1 a6bd c4a8 a73b e0c7 3dbb 3a14 db3b
00000040: 51db 84bd 0edf 53bd c52c 9e3d 7785 06bd
00000050: 0c68 67bd 9e65 aabc df90 953c d49f fb3b
00000060: af34 c93a b155 1f3d 5577 92bc fd66 9fbc
00000070: bb50 93bd 7088 313d 8ef9 a3bd 5a4e cf3c
00000080: 4d5e 153d f2ac bbbb 5756 0c3d 6ad4 58bd
00000090: b07a 2cbd 9d32 87bd 02ef 933c f55c 67bc
000000a0: a39f afbd dd40 933d 1918 7abb cb81 c03c
000000b0: 13bd 05bd 72d1 19bd 1b50 b13d 3a7b a8bd
000000c0: d40a 3dbc 2d31 913d 3f96 1f3c 77d7 5dbd
000000d0: b49e b0bd 41ad 073c 0e89 a33d 1198 4e3d
000000e0: 476b 4dbd c380 04bd 8c1b 393d d51e 1d3d
000000f0: b95a d2ba a653 91bd 2899 7b3d f2b1 9fbd
00000100: 5bea 4c3d 3d9e bb3c dc12 1d3d 96fb c2b9
00000110: 259d 973c 4050 d43d f586 973d 07ae aa3d
00000120: a4b4 e3bc 904f 6e3d 23f8 78bd 832e 6f3d
00000130: 937c ac3c 8ee9 303c 3f39 65bc f4cf 96bd
00000140: dfc6 473d b494 96bd 8eba 5cbd 62ce 7b3d
00000150: 6f3c 273d f9e8 afbd 1e42 7d3c 46af b2ba
00000160: a375 acbd c63e 963d 9574 2cbd f3e0 de3b
00000170: 64d3 153d 129e aa3d 7aeb 34bc 7415 fdbc
00000180: d609 57bd 2f17 ae3c 07da 7c3d ebf2 49bc
00000190: 43a9 533c ef5e 05bc c488 403c 6fe4 1bbd
000001a0: 583a 7fbd ac17 d5bc eab1 823d d6b8 b63c
000001b0: d505 b23d 6d16 7c3c 5b9d 423d c516 783c
000001c0: 6236 b93c ef04 06bb 6919 003d 8382 8ebc
000001d0: c7aa af3d 1b8a 51bd 3d71 98bd 6a10 be3d
000001e0: c043 893c 3882 f93c f3d0 a3bb f521 a5bd
000001f0: 59a1 58bd 5e69 b93d 45a7 533c 3665 82bc

model.model.model.8.weight f4 [5, 128]
0.04222095 -0.035832603 -0.06812912 -0.025995765 -0.08266324 0.010419502 -0.07523396 -0.1164918
-0.032516416 -0.010614243 0.025177008 -0.03178629 -0.08577755 -0.11411164 0.07484211 -0.10946742
0.017329363 0.06817461 -0.07429656 -0.02901802 -0.021612145 0.038912226 0.027290074 0.022792187
-0.027007021 -0.058839492 0.07051728 -0.029793143 0.027510194 -0.040004354 0.055929374 -0.109249935
-0.068194196 -0.067825034 0.083991736 -0.023471253 0.04070548 -0.008435249 0.031235542 -0.016138945
-0.0738766 -0.050840475 -0.07514064 -0.039477922 -0.092978284 0.0081352405 -0.09949864 -0.043370847
-0.0864256 -0.0056138663 0.055126864 -0.063509434 0.015738707 0.06106106 -0.03712829 0.06851232
0.031017218 0.021225479 0.02364472 0.00083344337 -0.107003145 0.02614034 -0.11555723 -0.017488487
-0.05898433 -0.019386325 -0.075971596 -0.09201158 -0.115902305 -0.016729135 -0.030765103 0.035304796
0.054059684 -0.004017089 0.0015784099 -0.04332344 -0.043385867 -0.07602634 0.012073602 -0.030723145
0.04099607 0.025114084 -0.07794276 -0.0662148 0.042750705 0.060011663 0.062504195 -0.106645085
0.063848175 0.022102742 -0.008133748 0.031951584 -0.026214728 0.06045538 0.064218804 0.012665791
-0.062060695 -0.012975921 -0.07686342 0.060346067 -0.02449723 6.6350265e-05 0.04949215 -0.075625986
-0.034380764 -0.05721204 -0.015006869 0.016873404 -0.11525366 -0.057870585 -0.091197066 0.04952341
0.01821096 0.012632638 0.030076945 -0.07905263 0.04721973 -0.08414328 -0.04412711 0.051981654
-0.08159741 0.034580495 0.04665829 0.019504286 -0.024356842 -0.06539644 0.03648198 -0.0056625684
-0.048505794 -0.020304257 0.00011827873 -0.030126788 0.067956336 -0.037391536 0.03406164 -0.08355057
0.010528547 -0.071507625 0.05703531 0.0610187 0.08676014 -0.08436764 -0.03559236 -0.11510852
0.038615778 0.06299707 -0.046029847 0.036380358 -0.008215 0.04986719 -0.102592535 -0.022463275
0.0056034815 0.06327116 0.032153744 0.07409934 0.045208577 -0.03383024 -0.03018607 0.043405984
-0.022848366 0.060560603 0.080684416 -0.043929007 -0.048336238 -0.00663305 0.040860355 0.028174696
0.05233897 0.061952356 0.06531163 0.03360948 0.036864024 0.030917842 -0.05832128 0.083082154
-0.10912796 -0.08568865 0.028191399 -0.026457114 0.08688542 -0.0628202 0.002414775 0.0689667
-0.06890306 -0.07241381 0.018578598 0.047125287 -0.055160012 -0.08733063 -0.098611064 0.005039804
0.043556113 -0.10515625 0.013774905 -0.08364463 -0.06527213 -0.047233097 -0.07724816 -0.0858556
0.054190043 -0.07951653 -0.045598615 -0.015387539 -0.036454853 -0.09804688 -0.08717823 0.022377426
0.0023487075 0.010000318 0.008346602 0.021497866 0.04092641 0.05047222 0.019323813 0.001141417
0.0546999 0.04575743 -0.083819136 -0.112742625 0.03944669 -0.054212604 0.036123745 -0.0724854
-0.11152428 -0.10597525 0.023302438 0.023922803 -0.030980118 0.029861206 0.04717722 0.052427102
-0.05642185 -0.09731719 -0.049124535 0.012916324 -0.11203408 -0.005723838 -0.06483001 -0.042422026
0.05097416 0.032406986 0.016126318 -0.07203577 -0.030524084 0.06364232 0.0018706213 -0.04454638
-0.120085925 -0.05358078 0.046683952 -0.030941803 0.051773038 0.007877416 -0.09554345 -0.028413149
00000000: e0ef 2c3d 35c5 12bd 4887 8bbd 12f5 d4bc
00000010: 584b a9bd 8fb6 2a3c 4314 9abd 4193 eebd
00000020: ef2f 05bd 5de7 2dbc 0340 ce3c 5732 02bd
00000030: 24ac afbd 5db3 e9bd d246 993d 7430 e0bd
00000040: 4ff6 8d3c 219f 8b3d cb28 98bd 33b7 edbc
00000050: f40b b1bc 6d62 1f3d 6f8f df3c aeb6 ba3c
00000060: d43d ddbc ae01 71bd 5d6b 903d c010 f4bc
00000070: 0f5d e13c 9bdb 23bd 3316 653d 6ebe dfbd
00000080: 66a9 8bbd dae7 8abd dc03 ac3d c946 c0bc
00000090: caba 263d 0034 0abc aee1 ff3c d235 84bc
000000a0: 9d4c 97bd 1a3e 50bd 56e3 99bd 9ab3 21bd
000000b0: 666b bebd ac49 053c f1c5 cbbd a1a5 31bd
000000c0: e8ff b0bd 86f4 b7bb b5cc 613d 3c11 82bd
000000d0: 76ee 803c 291b 7a3d d513 18bd 3050 8c3d
000000e0: d217 fe3c 0ee1 ad3c 92b2 c13c 707b 5a3a
000000f0: 7724 dbbd 4424 d63c 45a9 ecbd 0444 8fbc
00000100: 8e99 71bd 12d0 9ebc ff96 9bbd 9170 bcbd
00000110: 305e edbd 8a0b 89bc 1907 fcbc c39b 103d
00000120: b06d 5d3d c9a1 83bb a6e2 ce3a eb73 31bd
00000130: 61b5 31bd b3b3 9bbd 5bd0 453c 1baf fbbc
00000140: 7feb 273d 0dbc cd3c 74a0 9fbd a09b 87bd
00000150: 5d1b 2f3d cace 753d 3302 803d bd68 dabd
00000160: d5c2 823d cf10 b53c 6943 05bc aadf 023d
00000170: 45c0 d6bc 0fa0 773d 2685 833d 2e84 4f3c
00000180: 5b33 7ebd f598 54bc 926a 9dbd 702d 773d
00000190: 6aae c8bc 8725 8b38 48b8 4a3d cce1 9abd
000001a0: d8d2 0cbd 2c57 6abd 5fdf 75bc 183a 8a3c
000001b0: 1c0a ecbd b509 6dbd 87c5 babd 0fd9 4a3d
000001c0: 272f 953c 20f9 4e3c ed63 f63c 58e6 a1bd
000001d0: 7a69 413d 5053 acbd a1be 34bd b7ea 543d
000001e0: 8b1c a7bd 47a4 0d3d c31c 3f3d 74c7 9f3c
000001f0: 0088 c7bc 92ee 85bd 216e 153d 118d b9bb
00000200: 03ae 46bd 1d55 a6bc 690c f838 74cc f6bc
00000210: b12c 8b3d de27 19bd 3884 0b3d 901c abbd
00000220: ed7f 2c3c 9772 92bd db9d 693d bfee 793d
00000230: 4daf b13d f1c8 acbd 4bc9 11bd 04be ebbd
00000240: 942b 1e3d 9c04 813d cb89 3cbd 9203 153d
00000250: 3598 06bc 8a41 4c3d 091c d2bd e704 b8bc
00000260: 699d b73b 4f94 813d a5b3 033d 65c1 973d
00000270: a12c 393d 9491 0abd c748 f7bc 79ca 313d
00000280: 7f2c bbbc 650e 783d df3d a53d e7ee 33bd
00000290: 38fc 45bd 0e5a d9bb 305d 273d 9fce e63c
000002a0: 6361 563d c1c1 7d3d 1bc2 853d 18aa 093d
000002b0: bbfe 163d 6a47 fd3c 4be2 6ebd fa26 aa3d
000002c0: 7b7e dfbd 887d afbd a6f1 e63c 97bc d8bc
000002d0: fcf0 b13d e1a7 80bd 3441 1e3b 6a3e 8d3d
000002e0: 0c1d 8dbd b14d 94bd 2532 983c 7206 413d
000002f0: 77ef 61bd 67da b2bd 99f4 c9bd f124 a53b
00000300: e567 323d 295c d7bd 24b0 613c e04d abbd
00000310: 65ad 85bd 7e77 41bd 4934 9ebd 10d5 afbd
00000320: 61f6 5d3d 90d9 a2bd 9dc5 3abd 041c 7cbc
00000330: af51 15bd cdcc c8bd 808a b2bd dd50 b73c
00000340: c6ec 193b 60d8 233c 30c0 083c 4b1c b03c
00000350: 74a2 273d f5bb 4e3d f94c 9e3c 999b 953a
00000360: 010d 603d 256c 3b3d 5ea9 abbd 9be5 e6bd
00000370: da92 213d 090e 5ebd 7ef6 133d 3a73 94bd
00000380: d766 e4bd 8d09 d9bd c1e4 be3c c1f9 c33c
00000390: 04ca fdbc 7d9f f43c e73c 413d cdbd 563d
000003a0: 991a 67bd 3c4e c7bd cf36 49bd fd9e 533c
000003b0: 2072 e5bd 098f bbbb 99c5 84bd b8c2 2dbd
000003c0: 48ca 503d 30bd 043d 571b 843c 7d87 93bd
000003d0: a50d fabc e856 823d a32f f53a 4476 36bd
000003e0: 9cef f5bd 8577 5bbd ac37 3f3d aa79 fdbc
000003f0: f70f 543d 4710 013c 49ac c3bd b1c2 e8bc

model.model.model.8.bias f4 [5]
0.010933566 -0.015584996 0.054395273 -0.0674488 -0.09752089
00000000: b322 333c 3658 7fbc 94cd 5e3d 9922 8abd
00000010: 08b9 c7bd
