VRCP_Regression/data/spread/policies/agent_0_final.pth (torch, 424330 bytes, 20 tensors)

model.model.model.0.weight f4 [128, 14]
000000 d7 af 2b 3c 73 46 99 be 20 44 c7 3d be 87 32 be
       0.010478935 -0.2993656 0.09729791 -0.17434594
000010 46 49 ef 3d 24 a9 71 be 80 67 e8 bd ff 0b 9a 3d
       0.11683898 -0.23599678 -0.11347866 0.07521819
000020 09 64 81 3d 04 66 8b bd 8f 5f 29 be e7 1a 8e 3e
       0.06317908 -0.06806567 -0.16540359 0.277549
000030 4e 13 62 3e 19 c0 9e 3e ee e0 22 3e 8c ea 82 3d
       0.22077677 0.31005934 0.15906116 0.063923925
000040 bd 3a 5a 3e 20 6c 98 3e df 25 58 3d ce 3c 3a 3e
       0.2131147 0.29769993 0.05277049 0.18187258
000050 0f 12 8f be fc e5 56 be ce 46 6d be e5 87 39 be
       -0.27943465 -0.2098617 -0.23171541 -0.18118246
000060 d0 f1 0f be f7 a9 9e 3d e3 a2 99 3d 5a a5 88 3e
       -0.14057088 0.07747262 0.07501771 0.26688653
000070 75 84 27 be 99 b4 84 3d e2 c8 95 be cd 21 41 be
       -0.16359122 0.06479759 -0.29254824 -0.1886055
000080 69 d6 32 bd 6a 8b f3 3d 53 ee 0b be 29 ab 89 3e
       -0.04366151 0.118918255 -0.13665132 0.26888397
000090 27 ae 97 3e 3a 65 ea 3d 5c 28 8b 39 69 eb 6c be
       0.29625055 0.11445089 0.00026542216 -0.23136677
0000a0 ec e5 34 3e 2f 51 3f be a0 69 cf 3d 81 49 27 be
       0.17665833 -0.18683313 0.10127568 -0.16336633
0000b0 02 e1 47 3e 01 6a 1a 3e ad 53 4a 3e 83 e9 70 be
       0.19519427 0.150795 0.19758482 -0.23526578
0000c0 40 11 95 be 61 88 28 bc fe 60 bd bd 97 be dd bd
       -0.29114723 -0.0102864215 -0.092470154 -0.10827368
0000d0 f5 b5 65 3d 01 ee f1 bd b1 fc 6a be 20 a7 82 bd
       0.05608173 -0.11812974 -0.22947957 -0.06379533
0000e0 41 c0 26 bd 6a d6 53 3e 63 3f 11 3e 0c 48 05 be
       -0.04071069 0.20687261 0.14184336 -0.13015765
0000f0 73 c3 37 3e fa 12 cf bd 22 88 ae bd 8e ca 21 be
       0.17945652 -0.10111041 -0.08522059 -0.15799925
000100 5a d4 8d bd ce 71 df bd 55 9c 78 3b e0 18 df 3d
       -0.069252685 -0.109103784 0.0037934978 0.108934164
000110 1a 67 4b 3e 94 9c 96 bd 14 39 b6 bd 89 7b d7 bd
       0.19863549 -0.07354084 -0.088976055 -0.10521609
000120 48 77 1c bd d1 70 ab bd dc 72 c6 3d 2f af 86 3e
       -0.038199693 -0.083711274 0.096898764 0.2630553
000130 b4 16 61 be 3d bc 9c bd 0e cc 79 bd 14 5c 66 3d
       -0.21981317 -0.07653091 -0.060985617 0.056240156
000140 dd ff 2d bd 65 f5 dc 3d f7 bd 9e 3e 3e 9a 49 3e
       -0.04248034 0.10788993 0.31004307 0.19687745
000150 6a 61 a8 3d ae 94 89 bd e0 d3 1d be c3 77 49 be
       0.08221705 -0.067178115 -0.15412855 -0.19674592
000160 34 96 8f bd 7e b9 2c 3e fb df eb bd 2f 4a 28 b8
       -0.07011071 0.16867635 -0.1151733 -4.012341e-05
000170 f6 df ca 3d 97 a1 4c 3d 01 6f a1 3d 4a be de bc
       0.099059984 0.04995879 0.078825004 -0.027190346
000180 5c 28 98 3e 6f cc 98 3c 02 fb 50 3b df 32 5d 3e
       0.29718292 0.018652169 0.0031887894 0.21601437
000190 ed 74 43 3e ab 1a 9b bd 5c e9 90 3e 94 f1 73 3e
       0.19087572 -0.07573446 0.2830304 0.23822623
0001a0 2a 68 e5 bc 34 55 b3 3d 14 c3 26 3e 11 ce 63 be
       -0.02800377 0.087564856 0.16285354 -0.22246577
0001b0 5c 86 b1 3d 4a f6 73 3d 69 83 4b 3d b5 79 3e be
       0.08668205 0.05956105 0.04968587 -0.18601115
0001c0 7f fd 29 be a6 39 0f be ac 0b 4d bd be e8 c3 bd
       -0.16600607 -0.13986835 -0.05005996 -0.095658764
0001d0 2d 3d 78 3e 1c 4d 02 3e 87 80 69 bd 03 e5 2d 3e
       0.24242087 0.12724727 -0.05700734 0.16981892
0001e0 6d d6 70 3e 4d ec 13 be 07 9d db 3d 6d 07 af 3c
       0.23519297 -0.1444561 0.1072331 0.021365846
0001f0 93 a2 f7 bd a0 2c 35 be b8 ce 90 bd a0 4b 80 3d
       -0.120915554 -0.17692804 -0.070706785 0.06264424
000200 94 e0 43 be 40 82 5b 3e f4 8f 56 be 4a c4 77 3d
       -0.19128639 0.21436405 -0.20953351 0.06048993
000210 9e 1e 3c 3e 54 19 8d 3d 91 a9 09 be 76 85 02 3e
       0.18371055 0.068895966 -0.1344359 0.12746224
000220 9c bf 97 be 8d 32 96 3e 2a 72 dd bb 14 fb 0e be
       -0.29638374 0.29335442 -0.006757994 -0.13962966
000230 8f 16 a0 3e 4a ee ce bd 2e 80 05 bd 2f f3 89 bc
       0.3126721 -0.10104044 -0.032592945 -0.016839592
000240 88 75 51 be 36 b5 7b 3e ca 06 9b be 9f 5a 67 bd
       -0.20454991 0.24580845 -0.30278617 -0.056482907
000250 64 b6 e3 bd a2 d9 19 be a3 93 3f 3e b3 37 11 3e
       -0.111187726 -0.15024427 0.18708663 0.14181404
000260 ca 2e be 3c da 79 16 be ca f8 54 bd 7b f0 7f 3e
       0.02321567 -0.1469492 -0.051995076 0.2499408
000270 9f 73 86 3e 20 7d f2 bd 00 81 59 3e 01 d2 25 be
       0.26260087 -0.11840272 0.21240616 -0.16193391
000280 67 bf 65 3d 10 c7 0e be da da 3e be 72 8d 06 be
       0.05609074 -0.13943124 -0.18638173 -0.13139895
000290 83 d9 88 3d 36 c4 1d be a9 7f 40 3d 25 cd 15 3e
       0.06682112 -0.1540688 0.046996746 0.14629038
0002a0 c6 f5 24 3e d1 c4 fa bd 91 72 99 bd 36 4c b6 3d
       0.1610938 -0.12244571 -0.07492555 0.08901255
0002b0 92 a9 3a be e6 19 b4 bd 34 89 f8 bc fa 2f 82 bd
       -0.18228748 -0.08794002 -0.030338861 -0.06356807
0002c0 ad ab bf bd ed 1b e4 bd 7f 0e 9e be 37 1c 86 3e
       -0.093589164 -0.11138139 -0.30870435 0.261934
0002d0 54 29 09 be e7 43 9b 3e ed 15 d0 3d 92 6e 1e 3e
       -0.13394672 0.30325243 0.10160432 0.15471867
0002e0 2d 39 04 be f2 30 d1 3d b6 a6 3b be c1 16 6c be
       -0.12912436 0.10214414 -0.18325314 -0.23055555
0002f0 e4 44 34 bd 5d 71 8a 3e 08 d4 39 be 7f 42 02 3d
       -0.04401101 0.27039614 -0.1814729 0.031801697
000300 39 61 16 be bf de b9 bd 2b 86 e5 3c 16 60 1d be
       -0.14685525 -0.090756886 0.028018078 -0.15368685
000310 93 de 86 bd c1 22 a5 3e db 76 19 3e 5d b7 fe 3d
       -0.065854214 0.32253078 0.14986746 0.124373175
000320 b3 5f 31 be 47 a6 14 3d 93 c6 54 3e 3a dd e5 3c
       -0.17321663 0.036291387 0.20778875 0.02805959
000330 34 61 0d 3e 7e 5e 8c bd c6 54 00 be df eb db bd
       0.13806611 -0.068539605 -0.12532339 -0.10738348
000340 b3 a3 70 be 99 a3 73 3a 15 73 87 be 9f 57 37 3e
       -0.23499946 0.00092940923 -0.26454988 0.17904519
000350 66 21 3b 3c 80 54 14 be 0b 84 78 3d db ff 48 be
       0.011421537 -0.14485359 0.0606728 -0.19628851
000360 da b7 fe bd 7b 81 ba bd f8 5c 30 bd ef ad 67 bd
       -0.12437411 -0.09106728 -0.043057412 -0.05656236
000370 ee c9 1e 3d f9 39 93 3c c6 29 43 be 0a e4 3a 3e
       0.038766794 0.01797198 -0.19058904 0.18251052
000380 e3 d0 46 3e 63 f6 da bd b1 3b 27 3e b4 43 16 be
       0.19415621 -0.10691526 0.16331364 -0.14674264
000390 06 9f de bd 60 c9 e8 3b 3b 8e 8c be a6 fd 27 3d
       -0.10870175 0.007104084 -0.27452263 0.041013382
0003a0 a9 29 09 be 5e 9e 45 be 92 b4 18 3e cb d3 97 bc
       -0.13394798 -0.19298694 0.14912632 -0.018533608
0003b0 0f 88 1f be a3 9f 08 3e ba cb 0b 3e f5 68 92 be
       -0.15579246 0.13342147 0.13651934 -0.285957
0003c0 82 25 2c bb 00 c5 05 3e 3b d1 c5 bd 5c 2e 29 3e
       -0.0026267474 0.13063431 -0.09659048 0.16521591
0003d0 c1 d5 32 3d 02 93 86 3e 73 41 36 bd bf 95 4f be
       0.043660883 0.26284033 -0.04449601 -0.20271967
0003e0 ef 13 79 be 98 9a 64 3e f6 46 92 3d 75 bb 8b be
       -0.2432401 0.22324598 0.07142441 -0.27291456
0003f0 96 6d 43 be aa ca f7 3c db aa bf bd 5a 1e a3 3d
       -0.19084772 0.030248005 -0.0935876 0.079647735

model.model.model.0.bias f4 [128]
000000 fc d3 4c 3c 08 8a 03 3e 8f 9c a6 bc b0 4c 11 bd
       0.012501713 0.12845623 -0.020338325 -0.035473526
000010 73 70 88 3c 1f 58 95 3e d2 02 16 be 6a b7 11 3e
       0.016655182 0.29168794 -0.14649513 0.14230123
000020 40 80 03 be 03 3a 4d 3e f5 61 dd 3d ed ee 61 3e
       -0.12841892 0.20041661 0.108096994 0.22063799
000030 f1 f9 ec bd 30 f7 7e 3c b6 7b 86 bd 32 53 4f be
       -0.1157111 0.015561864 -0.06566565 -0.2024658
000040 9c 05 8d 3e cb 35 72 bc 30 73 ea 3c 3f dc 15 3e
       0.27543342 -0.014783333 0.028619379 0.14634798
000050 bc be 13 bd 93 cd 8b bd cc 53 50 bd 10 f3 e7 3d
       -0.03607057 -0.068263195 -0.050861165 0.11325657
000060 a9 2b 48 3e b9 f9 53 3d 05 a6 86 3d ab d1 4a be
       0.19547905 0.051751826 0.065746345 -0.19806544
000070 f9 8a a3 3e 15 9d cf 3d 92 53 47 be 6f 74 7c be
       0.31941965 0.10137383 -0.19465473 -0.24653791
000080 a0 f3 54 bc 12 27 b0 bc e5 da c2 3c af bd 58 3e
       -0.012997538 -0.021503005 0.023786018 0.21166109
000090 63 f0 b4 3d d7 98 66 be 44 ae 54 bc 6b 35 f6 3c
       0.08834913 -0.22519241 -0.012981001 0.030054769
0000a0 a8 11 54 be 53 24 31 be 6d c9 62 3e 7b c4 2c bd
       -0.2070986 -0.17299013 0.2214715 -0.042179566
0000b0 6b 8f 76 3e 65 62 5d 3d e1 23 33 3e 5a ff a5 3d
       0.24078147 0.054048914 0.17494155 0.08105345
0000c0 c6 f2 37 be 88 86 ae 3d 46 d2 22 be 91 a3 50 3e
       -0.17963704 0.085217535 -0.15900525 0.20374896
0000d0 e7 7e 0c 3e b8 b5 8f 3c a2 f9 6d 3e c4 a2 48 3d
       0.13720284 0.017542705 0.23239759 0.04898335
0000e0 31 f1 e8 bd 25 33 dd bd e0 eb 39 be 1e 2f 3d 3e
       -0.113741286 -0.10800771 -0.18156385 0.18475005
0000f0 71 25 d9 3d 09 ea 63 3e 13 ca 5c 3e 8d 42 ab bd
       0.106028445 0.22257246 0.2156146 -0.08362303
000100 28 d1 33 3e 29 1e 10 3e f4 1e 0e be ae 40 4e 3e
       0.17560256 0.14074005 -0.13878995 0.20141861
000110 4f f2 c4 3d 2a 2c 61 bd 18 41 18 be 26 df e3 bd
       0.09616529 -0.05497376 -0.14868581 -0.111265466
000120 5e 32 97 bd 16 7f 3c be f8 73 c3 bd 59 5d 09 3e
       -0.07382654 -0.18407854 -0.09543604 0.13414516
000130 1b c7 88 bd 6b d2 d6 bb ae 34 a1 bd 99 ce 8a be
       -0.06678601 -0.0065558455 -0.07871376 -0.27110747
000140 86 a6 0f be b8 76 63 be 8b 75 c4 3c 10 ec 6e bd
       -0.14028367 -0.22213256 0.02398183 -0.058330595
000150 ad 9a 2e be 08 d4 66 be 81 a4 31 be 5f 37 65 bd
       -0.17051192 -0.22541821 -0.1734791 -0.05596101
000160 cc dd 28 be 2b f8 08 3e e1 04 7b 3e 06 83 f6 3d
       -0.16490859 0.13375919 0.2451358 0.120367095
000170 c2 90 0c bd 2f 13 2c 3e d9 b0 69 be ab f8 07 3e
       -0.03431774 0.16804193 -0.22821368 0.13278453
000180 21 d0 29 be c4 37 66 be 8d 5f ea bd 81 29 05 be
       -0.16583301 -0.2248221 -0.11444006 -0.13004114
000190 7e 59 86 be fe 59 27 be a5 43 f8 bc 85 30 21 be
       -0.26240152 -0.16342923 -0.030305693 -0.15741165
0001a0 3a 26 dc 3d 29 bc 7f 3e d0 61 62 3e d8 b9 39 be
       0.10749479 0.24974121 0.22107625 -0.181373
0001b0 58 e9 21 3d 35 9f 4b be 82 48 4d be ea 3b c3 3d
       0.039529175 -0.19884951 -0.20047191 0.09532912
0001c0 58 19 c2 3b 7c 54 f4 3d 9c 01 a9 3e 81 04 7d 3e
       0.0059234314 0.119301766 0.3300904 0.2470875
0001d0 a8 6f ab 3d 80 3c 1e be 4f 40 90 3e 14 d7 0f 3d
       0.08370906 -0.15452766 0.28174064 0.035117224
0001e0 73 36 5a be 79 c4 18 3d cf d0 cd bd 31 5a eb 3d
       -0.21309833 0.037296746 -0.10049593 0.11491812
0001f0 8f d0 17 3e d7 10 e4 3d 15 0b be bd 28 4f 55 be
       0.14825653 0.111360244 -0.092794575 -0.20830977

model.model.model.2.weight f4 [128, 128]
000000 3f 75 f4 3d a0 cb 66 bd 72 e0 29 bd 2a 45 ec bc
       0.119364254 -0.056346536 -0.041473813 -0.028841574
000010 38 5a 1e 3d 73 50 33 bc 3e 54 d0 3d f7 da 86 3d
       0.038660258 -0.010944474 0.10172318 0.06584733
000020 fb c3 58 3d 6b 0c 13 bd 52 32 1f 3d f7 67 e9 3c
       0.052921277 -0.035900515 0.03886635 0.028491957
000030 7f 5b cb 3d a2 37 98 bc 73 90 11 3d 89 55 18 bd
       0.09929561 -0.018581215 0.035538148 -0.037190948
000040 0b 4c a6 3d 9b ee f7 3d 50 6b c1 3d 9e c7 b3 3d
       0.08119973 0.12106057 0.09444296 0.08778308
000050 3d e0 41 3b e4 65 b7 3d d0 1d 7c bd 68 91 d2 3d
       0.002958312 0.08954981 -0.06155187 0.1028164
000060 a7 06 3f bd c5 ea 66 bc 4e f5 df bc 2a 1f 88 bd
       -0.046637204 -0.014094059 -0.02733865 -0.06646569
000070 55 59 a3 ba f1 c5 74 3c e0 2e 11 bd 57 7d 1c 3d
       -0.0012462536 0.014939771 -0.035445094 0.03820547
000080 c5 42 12 3d 59 7d 7f bd 82 c0 c2 3d 1a f1 14 bb
       0.035708208 -0.0623754 0.09509374 -0.0022726716
000090 ef 6e ea 3d 13 05 08 3d 1b d6 06 bd d9 3f ec 3d
       0.1144694 0.033207964 -0.03291903 0.115356155
0000a0 ae ea 1f 3d fd a8 69 3d 82 78 ae 3c c4 e3 e6 3d
       0.039042167 0.057045925 0.021297697 0.112739116
0000b0 c6 4c b4 3d 49 0c 39 3d fd 38 56 3d 70 2c df bc
       0.08803706 0.04517773 0.052300442 -0.02724287
0000c0 90 01 a9 3c 60 69 53 3d cb 13 09 bc ab 30 dc 3d
       0.020630628 0.051614165 -0.008366535 0.1075147
0000d0 6e a3 69 3d e8 00 bc 3d b3 2f 1c bd be 70 f5 3d
       0.057040624 0.0917986 -0.038131427 0.119843945
0000e0 c1 95 74 3d 47 77 ce bc 4b 1a d2 3c 1e 70 4a bc
       0.05971313 -0.02520336 0.025647303 -0.012355832
0000f0 d2 f3 f0 3d 23 ed f3 3d fb 6c 0c bb 1b 94 fd 3d
       0.11765255 0.119104646 -0.0021427262 0.123817645
000100 bf f3 ac bc e7 e3 a4 bd aa cd 49 bd 76 12 a4 bc
       -0.021112321 -0.080512814 -0.049268402 -0.020028334
000110 df ae 01 3d 3b dc 7d 3d f9 d6 72 3d d8 91 1b 3c
       0.03166091 0.061977606 0.059287045 0.009495221
000120 80 95 9e 3d 7b b3 75 3c 83 bb 82 bd 05 90 de bc
       0.077433586 0.014996405 -0.06383421 -0.027168283
000130 33 9a c4 bc 97 77 ee 3b 94 db a3 bc 4c 51 c8 3a
       -0.02399931 0.00727744 -0.020002164 0.0015283017
000140 91 6d 75 bd 25 a2 c3 3d 88 37 61 3d a4 43 c2 3d
       -0.059918944 0.09552411 0.0549846 0.09485558
000150 07 84 64 bd 73 66 6f bd 6c 46 54 3d 22 53 32 3d
       -0.055789974 -0.058447313 0.051824972 0.043536313
000160 8d eb 3a bc 3f ad ab 3d a6 b9 2c bd f3 91 9d 3c
       -0.011408699 0.083826534 -0.042169236 0.019234633
000170 67 51 1c 3d 93 06 e8 3d 19 8a 43 bd ba 22 dd bc
       0.03816357 0.11329379 -0.047739122 -0.026994098
000180 e1 6a b7 3c a0 c2 e8 3c 57 26 e8 3d d4 f9 07 3e
       0.022389831 0.028413117 0.11335438 0.13278896
000190 ad ee a7 3d 69 ae 76 bd 1b 36 a3 bd 1a 66 ef bc
       0.08199821 -0.060224924 -0.07969304 -0.02922349
0001a0 4d bd 8a 3c bc 5e 87 b9 52 61 a3 3d 3f 60 21 3d
       0.016935969 -0.0002581979 0.07977547 0.039398428
0001b0 88 6b 98 3d 41 73 9f 3d 57 56 04 bd e6 76 64 3d
       0.07442385 0.07785655 -0.032308903 0.055777453
0001c0 39 8c a0 3d 69 d2 19 bc b3 cf 39 3b f5 9e 9b bc
       0.07839245 -0.009388545 0.0028352558 -0.018996695
0001d0 a4 2e 07 bb c2 68 91 bd 23 bb 2d bd 21 04 2a 3d
       -0.0020627165 -0.07100059 -0.042414796 0.041507844
0001e0 52 17 a8 3d 8d 2b c7 bc 8f e8 d0 3b 0b 26 e2 3d
       0.08207573 -0.024312759 0.0063753794 0.11042412
0001f0 f8 62 83 bd 7f 7e a5 3c 75 6b 93 3c 38 24 20 3c
       -0.06415361 0.02020192 0.017995575 0.00977426
000200 f9 6b 85 3c 42 f4 f0 3c 1b 4a 33 bd f8 4e 64 bd
       0.016286837 0.029413346 -0.043771844 -0.055739373
000210 d1 e0 1c 3d 0a 08 3f 3d 5e 1a 60 3d fb 13 a6 bc
       0.03830034 0.046638526 0.054712646 -0.0202732
000220 df b6 30 3b 1c 1a 51 bd f2 96 87 3d ec 2c 80 bc
       0.0026964468 -0.05105029 0.066205874 -0.01564642
000230 fd 29 37 3c b4 f3 8a 3c c3 d0 8b bd c9 4f cc bd
       0.011179444 0.01696191 -0.068269275 -0.09976155
000240 73 e5 d5 bc b5 aa 98 3d 52 c2 66 bd ec 0a b5 3d
       -0.026110386 0.07454435 -0.056337662 0.08839974
000250 cf a4 29 bc d2 09 d2 3d 53 9a 7f 3d 9a 87 bd 3d
       -0.010354235 0.10255779 0.062403034 0.092543796
000260 ba 5e 8b bd ef 85 4a bd e5 1b 2e bc b9 d9 84 3d
       -0.06805177 -0.049444135 -0.010626768 0.0648684
000270 f4 15 16 3d 57 6d 9b 3d f0 5b bc 3d 55 b7 81 3d
       0.03664203 0.07589214 0.09197223 0.06333796
000280 a1 e0 a6 3d 95 39 97 bd ed a3 45 bd f5 2d 7f 3d
       0.08148313 -0.0738403 -0.048252035 0.062299687
000290 56 90 1d 3d ac 9c 58 3d 76 a0 86 3c 83 2d b3 3d
       0.038467728 0.05288379 0.016433936 0.08748915
0002a0 4e dd ba bc 26 a3 dd 3d 6d b2 98 3d bc 88 80 3d
       -0.022810604 0.10822134 0.07455907 0.0627608
0002b0 4c d0 96 3d ae ef 8b 3c e4 3a c4 3c c0 cc 22 bd
       0.07363948 0.017082062 0.023953862 -0.039746046
0002c0 92 fb 2e bd a3 32 1f bd e2 76 85 bc 53 6b 92 3d
       -0.042720385 -0.03886665 -0.01629204 0.07149377
0002d0 be b5 14 3b 88 ad ae 3b e3 63 79 bd f6 5d 00 3d
       0.0022691335 0.005330745 -0.060886275 0.031339608
0002e0 1e 55 7d 3d f6 11 42 bd 14 ee bc 3d 4b 22 08 bb
       0.061848752 -0.04738041 0.09225097 -0.0020772393
0002f0 90 f4 a7 3d 05 ca 9f bd 42 9d 6d 3d 09 64 60 3d
       0.082009435 -0.07802204 0.0580113 0.0547829
000300 9c 77 10 bd 0b f0 92 ba 21 f9 ee 3c dc f8 4c bd
       -0.03527032 -0.0011210454 0.029171528 -0.05004202
000310 aa ba 1d 3d c4 2f f8 bc 36 9d 90 3d 98 ae 55 bd
       0.038508095 -0.030296214 0.070612356 -0.05216846
000320 a1 a2 33 3d d6 80 9b 3d 4c 33 3c 3d 1b 19 96 3c
       0.043856267 0.07592933 0.045947358 0.018322518
000330 3c e5 e5 bd 1a 0d 2c bd c6 28 bd 3d 3d a8 dd 3b
       -0.112253636 -0.042004682 0.092362925 0.0067644403
000340 49 7d 61 3d 6e 1c 2c 3c 25 e8 8f 3d e1 ce 1f bd
       0.05505112 0.010504825 0.070267 -0.039015654
000350 3b f7 51 bd 93 59 cc 3b 7f 32 b0 3d 78 34 ad 3d
       -0.051261168 0.006236264 0.08603381 0.08457273
000360 88 03 40 bd ae 14 f8 3c 07 81 de bc 2e ab e7 3d
       -0.046878368 0.030283298 -0.027161134 0.11311947
000370 df d5 03 3c cc 3c 47 bc 0f 40 b8 bc 79 55 a1 3d
       0.008046596 -0.012160491 -0.022491483 0.07877631
000380 0e b0 46 bd b9 6b 11 bd 12 1f 6a 3d 3c 60 e0 3d
       -0.048507743 -0.035503123 0.057158537 0.10955855
000390 14 7b e2 bb 13 ee 56 3c e2 a8 11 3d 2a a4 8d 3d
       -0.0069116447 0.013118285 0.03556145 0.069160774
0003a0 23 19 12 3c 0f 52 9c bc bf 07 62 bd b5 11 d1 3d
       0.008917126 -0.019082097 -0.05518317 0.102084555
0003b0 51 28 9b bd 94 8b 58 3d 4e 2a e0 3b b8 68 cb bc
       -0.07576049 0.052867487 0.0068409806 -0.024830207
0003c0 f0 24 a3 3d 50 f8 d9 3d f7 ca 2b 3d e1 5e 20 3c
       0.0796603 0.10643065 0.04194161 0.009788246
0003d0 97 70 ff 3c 62 02 49 3d 0e 72 23 3d 2c 91 a4 3c
       0.031181617 0.049074538 0.039903693 0.020088755
0003e0 58 2c ae 3d 17 5e 14 bc ae da 99 3d e0 c9 eb bc
       0.08504552 -0.009055636 0.07512413 -0.028782785
0003f0 70 ce 79 bd 38 62 b3 3d 80 4b 0e be 62 1d 70 bc
       -0.06098789 0.08758968 -0.13895988 -0.014655443

model.model.model.2.bias f4 [128]
000000 7e 1e 70 bd 8d 84 c4 3c 6f bc c9 3b 5f b0 3a 3b
       -0.05862283 0.023988986 0.0061564962 0.0028486473
000010 0f 5f 2e 3c ba 3c 8b 3c e5 23 80 bd fc da 47 bd
       0.010642781 0.01699673 -0.06256846 -0.048792824
000020 9f 58 24 bd 0c 78 55 3c 22 ae cd 3d 01 19 15 bd
       -0.04012358 0.01302911 0.10042979 -0.0364008
000030 52 02 3c bd 57 80 c6 3d 67 f1 47 bd 95 20 c7 3d
       -0.04590065 0.09692448 -0.048814204 0.097230114
000040 53 dc 82 3d 98 65 79 bd 8a 49 c8 3c fd 6a 85 bc
       0.0638968 -0.060887903 0.024449129 -0.016286368
000050 83 15 2e 3d dd c4 d0 3d 07 34 bf bc 60 88 63 3c
       0.042500984 0.10193799 -0.023340238 0.013887495
000060 25 a8 d7 3c e5 4c 39 3d bb 32 ad 3d 0f 26 a2 3d
       0.026325295 0.045239348 0.08456942 0.07917415
000070 d4 96 36 bd c6 28 ab 3d 8e ea 8f 3c 50 3c 17 bd
       -0.044577435 0.08357386 0.0175679 -0.036922753
000080 e8 1b 8a 3d c4 0c 02 3d 1f df 16 3d 0a 6b 08 bd
       0.06743604 0.031750455 0.03683388 -0.033305205
000090 ae 23 a6 bd 31 cb 96 bc 3c 8b 0c bd fa 84 b8 3d
       -0.08112274 -0.018407436 -0.03431247 0.09009738
0000a0 d6 f0 f2 bc 0d 7a d7 ba e6 de 66 3c 08 99 48 3d
       -0.029655855 -0.0016439572 0.014091229 0.048974067
0000b0 cd 3e 2b 3c 13 95 01 3d 0c 0b 3f bd 41 46 fd 3b
       0.010451985 0.03163631 -0.046641394 0.007729322
0000c0 82 43 4a bd 8a f4 8b bd e6 4b c4 bd b9 87 68 bd
       -0.049380787 -0.068337515 -0.09584789 -0.05677006
0000d0 3b 7f 1a bc 3e f2 18 bd eb 67 39 3d 51 33 95 bc
       -0.009429748 -0.037340395 0.04526512 -0.018212946
0000e0 9c 57 ba 3a 9c ff 90 bb e3 8b 8c 3d c6 4c 42 bd
       0.0014216783 -0.0044250023 0.06862619 -0.047436498
0000f0 43 e4 97 bc df ec 85 bc 84 e5 dd 3c 8d 5d d9 bc
       -0.01854146 -0.0163483 0.02708698 -0.026533866
000100 f5 99 9d bd e7 5f 4f bd 18 ca 95 3d 7a f7 14 3d
       -0.076953806 -0.05062857 0.07313937 0.036368825
000110 fd 9e 33 bd 3d 0b 93 3c a7 f5 5d bd cb 9d 93 3d
       -0.043852795 0.017949695 -0.05418935 0.07207831
000120 1f 22 8d 3d c6 42 bc 3d 7b dd 9a bd cd e6 89 bd
       0.06891274 0.091924235 -0.07561775 -0.06733475
000130 fe 7f e6 3c f7 6b eb bc 68 8d 5c 3d 38 4d fb bc
       0.028137203 -0.028738005 0.053845793 -0.03067647
000140 cc 5e 7b 3d b0 11 7f bd 3d 0a fc 3c ec 81 3c bd
       0.061369702 -0.062272727 0.0307666 -0.04602234
000150 29 7e a0 bc fd 0a 19 3b 56 3f ac 3d 21 32 d6 3c
       -0.019591408 0.0023352497 0.08410518 0.02614695
000160 b3 6a 1c bd 19 4f 61 bd cd 1f 04 bd c3 32 ad 3d
       -0.038187694 -0.055007074 -0.03225689 0.08456948
000170 63 f1 34 bc 2c f3 c9 3c 20 4d af 3d 2c 5c 28 bc
       -0.011043879 0.024652086 0.08559632 -0.010275882
000180 de 00 c3 3c da ee 7a bd e3 fb 22 bd 01 ad 65 bd
       0.023804124 -0.061262943 -0.039791 -0.056073193
000190 36 ce 14 bd 05 15 d8 3c 07 35 5e 3d 02 8c b7 3d
       -0.03632947 0.02637721 0.05424979 0.08962251
0001a0 4a 57 17 bd 2e 5e c3 3c 67 40 43 3d 84 d7 56 3d
       -0.03694848 0.02384862 0.04766884 0.052451625
0001b0 10 9f ae bd f0 32 bd 3d f0 1b a4 bb 62 f7 9e bd
       -0.085264325 0.09238231 -0.005008213 -0.07762028
0001c0 60 03 9c 3d 3f ae 9d 3d 4f 28 3f bd 79 1e b0 3c
       0.07617831 0.076992504 -0.0466693 0.021498905
0001d0 cd b4 87 3d 1b 36 0e bd 85 eb 29 bd f2 88 7e 3d
       0.06626282 -0.034719568 -0.041484375 0.06214232
0001e0 c9 7a 66 bd 5b c3 7f 3c 34 d5 68 bd 26 b5 85 bd
       -0.05626944 0.015610541 -0.05684395 -0.06528692
0001f0 35 6d 82 bc af 80 94 3d 37 9e ac bd 88 73 37 bd
       -0.015921215 0.07251107 -0.084286146 -0.044787914

model.model.model.4.weight f4 [128, 128]
000000 4f 48 c6 3d d2 09 c8 3d 7c 17 08 bc 48 5c bd bc
       0.096817605 0.09767498 -0.00830638 -0.023115292
000010 38 74 29 3d b7 39 bf 3d 81 5f 87 3d 5e 99 97 bb
       0.0413706 0.0933718 0.06610013 -0.004626437
000020 d0 88 14 3d 58 19 d6 3d 66 e0 0c 3d 1e 20 ea 3c
       0.036263287 0.10454053 0.03439369 0.028579768
000030 39 37 7e bd 03 03 d8 3d 65 e5 79 3e 94 33 b4 3c
       -0.062064383 0.105474494 0.24403913 0.02199725
000040 ed 58 7f 3d 18 21 90 bc 35 0f bb 3d f0 48 c4 3d
       0.062340666 -0.017593905 0.0913376 0.09584224
000050 6c b0 c8 3d 88 56 c9 3d 32 02 06 bd 8c 7c d5 bc
       0.09799275 0.09830958 -0.032716937 -0.026060365
000060 56 75 ef 3c f3 0b 96 3d ce 04 0e bd ad 24 e1 3c
       0.029230755 0.07326498 -0.03467255 0.027483309
000070 60 9a a3 3d a6 22 f1 3c 73 e4 c2 3d 29 34 f3 3d
       0.07988429 0.029435467 0.095162295 0.11875183
000080 76 03 44 bd a9 57 73 3d 62 e1 a4 3d 3e 70 46 bd
       -0.047854863 0.05940977 0.08050801 -0.048446886
000090 92 fd a2 3d a1 d5 b7 3d 97 4b 3b be f3 8a dc bb
       0.07958521 0.08976293 -0.18290554 -0.006730431
0000a0 df 29 54 bd 2e 30 b0 3d 7a e7 00 bd 89 2e db bc
       -0.051797744 0.086029395 -0.031470753 -0.026755588
0000b0 94 22 de bc e7 c2 d5 3c 4e ca bb 3d 42 f8 d5 3b
       -0.027116098 0.026093913 0.09169446 0.006529839
0000c0 b6 3d d0 bc 76 fb 8c bc 85 33 bf 3c 2a ec b5 3c
       -0.025420051 -0.01720975 0.023339996 0.022207338
0000d0 53 60 2c 3d bc a8 82 bc 3c 8e 43 3d 81 6e 53 3d
       0.04208405 -0.0159496 0.047743067 0.051619057
0000e0 17 3b c1 3d ad 84 e7 bc 19 8d 7c 3c a8 5a 4e be
       0.094350986 -0.028261507 0.0154145 -0.2015177
0000f0 6f 52 b9 3c ea f3 5c bd 1b e5 d7 3d 6a 77 20 bd
       0.022622315 -0.053943552 0.10541745 -0.039176382
000100 ab 0c fa bc aa cc ad 3d d7 cb c8 3d bd 6c 59 3d
       -0.030523619 0.08486302 0.09804504 0.053082217
000110 6d 0d 57 3c 04 f4 87 3d 7c 16 1f bd 7b dc 11 3d
       0.01312576 0.06638339 -0.038839802 0.035610657
000120 11 2e a3 3d cb 4e c4 bc 2b d5 a0 3d c4 eb f5 3b
       0.07967771 -0.023963353 0.078531586 0.007504912
000130 a9 7d 04 3e d7 43 d4 3d 37 e4 d1 3d 41 6a 1c 3d
       0.1293856 0.10364502 0.10248607 0.03818727
000140 b6 da 95 bc ab 5a e0 3c a3 36 ad 3d 30 50 05 3d
       -0.018292766 0.027386984 0.08457687 0.032547176
000150 64 48 76 bd f8 9c 32 3d 85 cb e4 bc a5 58 08 3b
       -0.06012763 0.04360673 -0.027929077 0.002080479
000160 d0 b5 e4 3b bb 44 ee bc 20 84 98 bc 1c bf 40 3d
       0.0069796816 -0.029085508 -0.01861769 0.047057256
000170 d1 1e f5 3d 77 55 1d 3c e6 2d 9a 3d c0 66 38 be
       0.119687684 0.009602896 0.07528286 -0.18007946
000180 2e 9f 33 bd cc 02 a4 ba ec d7 08 3e 7a 71 e2 3d
       -0.043852977 -0.001251304 0.13363618 0.110568
000190 05 cd 16 3d 8f 41 36 bb 2a 3b 0c bc 23 7e a1 bc
       0.036816616 -0.0027810072 -0.008559028 -0.019713467
0001a0 4e 6e ce 3d 5b 7d 4e 3d 2f 92 50 3d f1 a3 a8 3d
       0.10079633 0.050412517 0.05092066 0.08234394
0001b0 9a 3a cf 3d de 2c 58 3d 6a 02 a9 3d 96 53 30 3d
       0.10118599 0.052777164 0.082524136 0.043048464
0001c0 5b d1 cb 3c 59 fe de 3d 54 c4 26 ba f9 dd 82 bb
       0.024880102 0.10888357 -0.00063616526 -0.0039937464
0001d0 07 f6 d6 3d f5 5c 8c 3c b1 df 86 be d8 6b 57 bd
       0.10496145 0.01713417 -0.26342538 -0.052593082
0001e0 b2 8e 69 be 16 c3 fb 3b 12 11 de 3d 3c 72 fe 3c
       -0.2280834 0.007683168 0.108431 0.03106033
0001f0 c2 15 dc 3b 1b 27 88 bc 0a 80 9c bd 6f ee 60 bc
       0.006716461 -0.01662021 -0.07641609 -0.013728722
000200 dc 68 5b bc 0f c8 d7 3d 53 66 80 3c 3c fd c6 3c
       -0.0133917 0.10536205 0.015673792 0.024290673
000210 c3 69 ec 3c b8 ba c1 3d 08 20 20 bc 01 fd 90 3d
       0.028859025 0.09459442 -0.009773262 0.07079507
000220 be 1d 18 bd ec e6 0b 3d a9 92 97 3d 4a f4 b8 3c
       -0.03713774 0.03415577 0.0740102 0.022577424
000230 0e 4f 8d bc b7 0a 67 3d e9 74 26 3e 0f 48 20 bd
       -0.01724961 0.056406703 0.16255535 -0.03913122
000240 02 78 3d 3d 69 de 39 bd af d9 18 bd d3 3d be 3d
       0.046257026 -0.045378122 -0.037316974 0.09289136
000250 cb 13 f3 3c 23 f1 93 3c fd 9a d7 3d 14 6d 66 bd
       0.029672524 0.018059319 0.105276085 -0.05625637
000260 72 d0 ad 3d c7 e2 c8 bc 08 b8 27 3e 6a d0 c5 bc
       0.084870234 -0.024522198 0.16378796 -0.024147231
000270 42 05 c8 3d ee 47 dd 3d 45 48 be bc 0e a9 c7 3d
       0.09766628 0.10804735 -0.02322782 0.097490415
000280 63 ec 9c 3c 91 45 e8 3c 7a 14 a1 bd d5 6a a9 3d
       0.019155687 0.028353484 -0.07865234 0.0827233
000290 97 05 de 3d 3e dc cb 3c f3 47 0b be 55 30 83 3c
       0.1084091 0.024885293 -0.13601665 0.016014257
0002a0 7a e6 f5 3d 25 42 8c bd 75 f0 1a bc 59 c7 10 3c
       0.120068505 -0.068485536 -0.0094567435 0.008836591
0002b0 b9 22 a1 3d 71 f9 51 3d 57 6c 52 bd ec d6 9b bd
       0.07867951 0.051263276 -0.051372852 -0.076093525
0002c0 3c 5a 16 bd ab dd 40 bd 21 55 da 3d e8 30 cc 3c
       -0.036707148 -0.0470864 0.10660768 0.024925664
0002d0 2a 9f 34 bd ad c0 88 bd 99 ba 98 bd 45 68 d4 3d
       -0.044097103 -0.06677375 -0.07457466 0.1037145
0002e0 3e ca b7 3c 2a 42 5d 3c b4 4b 07 3d 96 b2 1c be
       0.022435304 0.013504544 0.03303118 -0.153025
0002f0 7f 7a ca bc b7 a0 29 bd 9b 55 ad 3d 3a 2a 84 bc
       -0.024716614 -0.041413035 0.084635936 -0.016133416
000300 4b 7a db 3c c4 bc d2 3c ba a2 a0 3d 56 81 9d bb
       0.026791712 0.025724776 0.07843538 -0.004806678
000310 bb 13 e0 bc bf 58 fa 3c cc 23 b0 3d 28 46 16 bd
       -0.027353158 0.030559896 0.08600578 -0.036688
000320 d8 ce b3 3d 46 9e c5 bc 88 08 19 3d 85 24 55 3d
       0.08779687 -0.024123322 0.03736165 0.05203678
000330 bd d7 c8 3d 06 08 c5 3c e5 c8 0b 3e ac f8 9b bd
       0.09806774 0.024051677 0.13650854 -0.0761579
000340 99 e2 a1 3c 38 96 13 3d f7 3d d7 ba 3d 4b 11 3d
       0.01976137 0.03603193 -0.0016421665 0.035472143
000350 28 ed d5 3d 43 d3 2c bd 54 c7 58 3d 76 03 01 3d
       0.104456246 -0.042193662 0.05292447 0.03149744
000360 e2 fb b3 3d 3f 40 d1 bc 57 36 f3 3d 5b 38 8f 3c
       0.08788277 -0.02554333 0.11875599 0.017482927
000370 1f 81 da 3c fe f0 8d bd a3 e5 23 bd 0e be 2a bd
       0.026672898 -0.06930731 -0.04001392 -0.041685157
000380 4f de 1f 3c 12 7b 8b bd 4a 80 52 3e a0 b4 39 3d
       0.009757592 -0.06810583 0.20556751 0.045338273
000390 c4 b1 fb 3c c6 b8 4a bd 6a 03 83 3c f5 1d 70 bd
       0.030724414 -0.04949262 0.015992839 -0.05862232
0003a0 35 50 72 3e 75 49 3b 3e 2d 9f d8 bc 3f 15 4d bd
       0.23663409 0.1828974 -0.026443088 -0.05006909
0003b0 ff 9b 1c 3e 2e 93 b0 3c bb 3c 54 bd 77 08 ab 3c
       0.15293883 0.021554556 -0.05181573 0.02087806
0003c0 f7 0f 9f 3d c4 4f 13 3d ff 92 7b 3d f5 51 4c bc
       0.07766717 0.035964742 0.061419483 -0.012470712
0003d0 08 06 5e bd 18 d5 c0 3d a7 cd 26 be 61 db d5 3c
       -0.05420497 0.094156444 -0.16289388 0.026105585
0003e0 9e d0 15 be 3b b7 02 3d b9 19 a1 3d 88 82 7b 3d
       -0.14630362 0.031913023 0.07866234 0.06140378
0003f0 2d 8e 98 3c d7 3d a5 3d de f3 90 3c ea 92 42 3c
       0.018622482 0.08068436 0.01769441 0.011875847

model.model.model.4.bias f4 [128]
000000 08 46 e4 bc 4e 7c e7 3c 86 20 62 bd 75 eb 88 3d
       -0.027865425 0.028257515 -0.055206798 0.06685535
000010 c9 ba 0f 3d 1a 1a 7b bc bc 7c 9c 3b e9 5a 4c 3d
       0.03509024 -0.015326047 0.0047756117 0.049891386
000020 c1 a0 0f bd ba 76 54 3d 97 b5 a9 bc 0e 0f 4d 3c
       -0.035065416 0.05187104 -0.020716472 0.012515796
000030 5c d3 9d 3d 26 ff e0 bc 86 f7 25 3c 02 e0 a7 3d
       0.07706329 -0.027465414 0.010129815 0.08197023
000040 4f 01 80 3d da 4e 91 3d 76 35 5c bd 4c eb f1 bc
       0.062502496 0.07095118 -0.05376192 -0.029531144
000050 1c c1 b6 bc 0a a0 74 3d 9a 92 29 bd 85 ef fa bc
       -0.022308879 0.059722938 -0.041399576 -0.03063179
000060 d8 33 ec 3c fc 2e 82 3d 53 c4 2e bc b9 70 69 3c
       0.028833315 0.06356618 -0.0106669245 0.014248067
000070 ea a2 87 3c b3 de c9 3d 11 93 63 3b 44 da e3 3c
       0.016557176 0.0985693 0.003472511 0.027814038
000080 84 4a 19 bc 4d 16 5f 3d 1f 6d fa 3c 01 82 67 bc
       -0.009356145 0.054464627 0.030569611 -0.014130116
000090 57 57 3a bd a4 94 3e bd 92 fa ac bc 45 20 ff 3c
       -0.04549345 -0.046528473 -0.021115575 0.031143317
0000a0 08 14 72 3d c5 7d bb 3c fb 2a 35 3d 39 9f 0f 39
       0.059101135 0.02288712 0.044230442 0.00013696858
0000b0 0b 34 70 3d ba f9 93 3d c5 17 50 3d 29 c2 3a bd
       0.058643382 0.07225366 0.05080392 -0.04559532
0000c0 d5 24 aa bc 50 2c 3e 3d f5 e7 d4 bb b2 32 b5 3c
       -0.020769516 0.04642898 -0.006497378 0.0221189
0000d0 27 48 8f bd 9e 9a 9e bd 07 68 0e 3d 26 06 5b 3d
       -0.06996184 -0.07744335 0.034767177 0.05347266
0000e0 f5 73 92 3c 8f d7 21 3d b5 95 52 3d 70 7d 7e bd
       0.017877558 0.039512213 0.051412303 -0.062131345
0000f0 b9 7e 82 bc 81 03 0b bd dc 81 37 3d 30 53 90 bd
       -0.015929567 -0.03393889 0.044801578 -0.07047117
000100 bd a1 13 bd 2b 36 60 bd c8 97 66 bd 38 b6 bc bd
       -0.036042918 -0.05473916 -0.056297094 -0.09214443
000110 a9 a7 49 bd bb d5 80 3c cc 84 83 3d 37 76 06 3d
       -0.04923216 0.015726915 0.06421813 0.032827582
000120 62 80 ac bd 61 5b 96 bd 15 55 91 bd cd a3 80 3d
       -0.084229246 -0.07341648 -0.07096306 0.062812425
000130 a6 55 85 3c 58 b8 60 3d 1d 6f 9f 3d 22 7f 94 bc
       0.016276192 0.054863304 0.07784865 -0.018127028
000140 9d 6c 28 3d 05 72 23 bd 8f 17 3d 3c 10 1b b1 3d
       0.041119207 -0.03990366 0.011541261 0.0864774
000150 bc c3 ae 3d ea cd 04 bd 7b 66 74 bc 5d 54 34 bd
       0.08533427 -0.032422937 -0.014917011 -0.044025768
000160 57 2b e6 bc 7f 9b 96 bd 29 b7 82 3d ab e8 31 bd
       -0.028096838 -0.07353877 0.06382591 -0.04343478
000170 39 5b 8b bd e7 94 a6 3d 0b 0a fa bb 5a e7 a5 3d
       -0.06804509 0.081338696 -0.0076305917 0.081007674
000180 97 e0 4b 3c 6f 1f 8d 3d e4 d9 bc bc 95 bb bb 3d
       0.012443683 0.06890761 -0.023053117 0.09166638
000190 c3 6f 1d bc fb ef 42 bd d8 00 2b 3d 18 26 8b bc
       -0.009609166 -0.047592144 0.04174885 -0.016985938
0001a0 a6 37 b5 3c 9b 9e 2c bd 66 1e 94 bc a1 9b ec bc
       0.022121262 -0.042143445 -0.018080901 -0.028882803
0001b0 09 04 77 3b ab ce 9b 3d ba 5e 38 3d eb 01 8d bd
       0.0037691614 0.07607778 0.045012213 -0.068851314
0001c0 99 2a 0e bd dd 74 e9 bc 1a 0e c2 bc c6 a9 76 bd
       -0.034708593 -0.028498108 -0.023688365 -0.060220502
0001d0 35 51 ab 3d 23 59 74 3d 27 9f 2d bd c4 22 ad bd
       0.083650984 0.05965532 -0.042388108 -0.08453897
0001e0 36 aa 31 bd 39 6e 58 bd 22 ed e7 bc 2f 1c 10 3d
       -0.043375216 -0.05283949 -0.028311316 0.035183128
0001f0 91 79 21 3b 8d 5f 41 3d c4 16 da 3c a5 ec 94 3d
       0.002463911 0.047210265 0.026622184 0.07271699

model.model.model.6.weight f4 [128, 128]
000000 f0 bb b0 bd 84 58 a1 3d 83 86 32 3c f1 6e bf 3d
       -0.08629596 0.07878211 0.010896328 0.09347332
000010 f8 af a6 bd 85 4c d7 3c ea 26 b1 3d c6 30 89 bd
       -0.08139032 0.026281605 0.086500004 -0.06698756
000020 0c e1 53 bd 4a 0b 80 bd 84 20 cc 3c c9 76 2a bd
       -0.051728293 -0.06252153 0.024917848 -0.04161719
000030 63 d7 9b bd 79 4c 3e 3d 04 63 0c bd 05 65 bd 3d
       -0.07609441 0.04645965 -0.034274116 0.092477836
000040 2c 39 8d 3d 1b b1 2c 3d 0a 44 33 3d ed 29 3b 3d
       0.0689567 0.04216109 0.04376606 0.04569428
000050 73 4b a8 3d fb 8b 8c 3d 9f c3 49 3d 01 5b 53 bd
       0.08217516 0.06862637 0.049258824 -0.05160046
000060 0c 22 16 3d b3 c2 5f 3d df c9 9c bd f9 5e 18 bd
       0.036653563 0.05462904 -0.07655691 -0.037199948
000070 b6 bd 53 3c c6 58 ae bd 5a cd 48 bd f9 fd c5 3c
       0.012923649 -0.08513026 -0.049023964 0.024168955
000080 2f 52 82 3b b8 18 99 bd 4f 22 cb ba d7 00 86 3c
       0.003977082 -0.07475418 -0.0015497896 0.016357822
000090 6e 51 83 bd 72 6e 28 bc 5b 32 b8 3d f1 32 9b 3b
       -0.06412016 -0.010280238 0.089939795 0.0047362973
0000a0 5f 2d b3 bd e2 cf 20 3d 86 40 a0 3d a5 dc b1 3d
       -0.08748888 0.039260752 0.07824807 0.08684663
0000b0 72 40 7b bd 4b ad b7 3b b8 f7 91 bd ba dc 38 bd
       -0.061340757 0.005605375 -0.07127327 -0.045132376
0000c0 6a 91 20 3d e7 37 43 3d fb 2c a3 bd 8e d5 5a 3d
       0.039201178 0.047660735 -0.07967564 0.053426318
0000d0 c3 28 4f bd ee c6 c1 3b 39 14 03 bd c1 75 47 bd
       -0.050575983 0.005913607 -0.032001708 -0.048696283
0000e0 66 e8 32 3d 0a 5f 1a bd 6e ae 9d bd f4 c7 cf bc
       0.043678664 -0.037688293 -0.076992854 -0.0253639
0000f0 ef da 9b bd 5f 98 91 3d e7 5c 05 bd bf 5b 1c bd
       -0.07610118 0.071091406 -0.0325593 -0.038173433
000100 b3 6f ca 3c 29 0a 26 3d e0 da 47 bd 93 4a 7c 3b
       0.024711465 0.040537033 -0.04879272 0.0038496598
000110 08 d7 ee 3b 46 a6 8e bd ad 0e 8a bb 96 0b b4 3d
       0.0072888173 -0.06965308 -0.0042131753 0.08791272
000120 26 b7 64 3d 1b ca a5 bc 3b 4c 73 bd d5 b0 00 bd
       0.055838726 -0.020237973 -0.05939887 -0.03141864
000130 99 4b aa bb eb 37 1b 3d 88 6a d2 bc eb 15 83 3c
       -0.005197 0.037895124 -0.025685564 0.016001662
000140 8b 5a 1d 3d 3f 6c 84 bd bf d2 85 bd ce 39 a5 bd
       0.038416427 -0.06465959 -0.06534337 -0.08067666
000150 d5 2c b1 3d 4e 51 ab 3d 63 39 13 3d 93 89 96 3d
       0.08651129 0.08365117 0.0359434 0.07350459
000160 dd 4b ed 3c 42 9f d0 bc 9b 6e 9c 3c 5c 97 b1 3d
       0.028966838 -0.025466565 0.01909571 0.08671448
000170 8f e9 80 bb 34 de e0 3b 5a 03 07 bd 42 ae 75 bd
       -0.0039340924 0.006862426 -0.03296218 -0.05998064
000180 7d 84 a5 3c 69 17 bb 3c 0e 6c 8d bd cc 42 8a 3d
       0.020204777 0.022838311 -0.069053754 0.06751022
000190 fc 65 8f 3d 9f 37 22 3c 37 79 2b bd a1 e5 7f bd
       0.07001874 0.009900956 -0.041863646 -0.06247485
0001a0 c2 2f ad 3d b8 40 02 bd 37 83 4d bd 3c 07 71 3d
       0.08456375 -0.0318 -0.050173964 0.05884479
0001b0 47 1a 69 3d f0 79 01 bd 1a 90 86 bd 50 3b 9c 3d
       0.056909826 -0.03161043 -0.06570454 0.076285005
0001c0 40 9b aa bc 1d 25 70 3d d4 72 54 bb ab 2d 74 bd
       -0.020825982 0.058629144 -0.0032417076 -0.059613865
0001d0 7c 5d 82 3d a2 5b 5a 3d b1 26 83 bd d2 f4 c4 3c
       0.06365487 0.053310044 -0.06403864 0.02404252
0001e0 1d 18 b0 3d 97 78 75 bd 1d 59 c0 3c 51 57 26 3c
       0.08598349 -0.059929457 0.023479993 0.010152654
0001f0 52 f4 fd bc 05 03 b6 3c e0 fe 27 bd 96 e0 d1 3b
       -0.03100029 0.022218237 -0.041014552 0.0064049466
000200 6e ff 92 bc 09 aa 1b bd b1 e7 82 3d 7b 56 66 3c
       -0.017944064 -0.038003955 0.06391848 0.0140587045
000210 99 62 a2 bd 39 a6 85 3c 35 7a a5 bd 16 f1 d9 bc
       -0.07928962 0.016314613 -0.0807995 -0.026604217
000220 81 ad a5 bc 1d 02 a5 3c c5 c5 35 bc 2d b4 a4 bd
       -0.020224335 0.02014261 -0.011094515 -0.08042178
000230 f4 ab ab bb cc 14 3b 3d b4 14 63 3d 1d c7 e1 3d
       -0.0052390043 0.04567413 0.055439666 0.11024306
000240 18 9b 46 3d 2c f6 90 bd 82 cf 09 bc 07 90 95 3d
       0.048487753 -0.070782036 -0.00841129 0.07302862
000250 fc 1c e6 3d 81 12 09 bd 1c 0d 7b bd 07 95 2b 3d
       0.11235997 -0.033464912 -0.0612918 0.04189017
000260 eb de d1 3d 2f 1d 5e bd da c5 14 3d 16 f7 05 3e
       0.10247596 -0.05422705 0.0363215 0.13082537
000270 bc 85 0d 3e bb fa 88 3d 79 e7 b5 3d 85 15 cd bc
       0.13820547 0.06688448 0.088820405 -0.025034675
000280 6e 8d 94 3c ef 3c 87 bd 5d 85 a0 3d da cc 51 3d
       0.018133845 -0.06603419 0.07837937 0.051220752
000290 5a ea e0 3d fd e2 b9 3d 7c 42 e6 b9 61 02 f0 3d
       0.10982199 0.09076498 -0.00043918553 0.11719204
0002a0 a8 a3 93 3d c7 28 f9 3d ad 6c 80 bd 53 e8 75 bc
       0.07208949 0.12165981 -0.06270728 -0.015009004
0002b0 1b 62 ce 3d 0e 2c 36 3d dc 58 b5 3c 3c 07 c0 3c
       0.10077306 0.044475608 0.022137098 0.02344095
0002c0 9f f8 d9 3d f6 05 10 bd a3 4a 01 3e fe ee 9f 3d
       0.10643124 -0.035161935 0.12626128 0.07809256
0002d0 29 3c de 3d b1 5d b6 3d ee ff 88 3d 26 ac 5f 3c
       0.108513184 0.08904589 0.0668944 0.013651883
0002e0 e3 b9 59 3d 1a b6 9b 3d 0f a7 a7 3d b4 e8 b0 3d
       0.05315579 0.076030925 0.08186161 0.086381346
0002f0 8b c6 41 3d 4c a1 52 bd f8 41 03 bd 44 94 48 3d
       0.047308486 -0.051423356 -0.032045335 0.048969522
000300 a6 af 98 3d e8 be 79 bc 53 e0 c8 bc 8f b9 6d bd
       0.07455377 -0.0152432695 -0.024521029 -0.05803829
000310 16 2f 5a 3d 11 4f 8c 3d f1 7b 03 3e 51 0e 17 3d
       0.05326756 0.06851018 0.12840249 0.036878888
000320 9d 0f 13 3e 67 65 8c 3d ac 1a cc 3d 75 8c 92 bd
       0.14361425 0.068552785 0.09966025 -0.07155696
000330 81 be e6 3d a2 8b c0 3d 4b 44 1d bc 74 50 66 3d
       0.112668045 0.09401633 -0.009598802 0.05622907
000340 a0 fe d8 bb b2 2e 96 3a a4 1a 8f 3d b7 fe d8 3d
       -0.0066221505 0.0011458008 0.06987503 0.10595458
000350 32 ab 95 bd 47 5f 88 bb 9c e9 1e 3d b7 f2 a9 3d
       -0.073080435 -0.0041617486 0.038797006 0.08298247
000360 5a 5c 37 3d d0 f3 bf bc 02 8e 6c 3d 5b bd 57 bc
       0.044765808 -0.023431689 0.057752617 -0.013167704
000370 81 9d 86 3d 21 69 00 3e 89 ff 88 3d a3 4c e0 3d
       0.0657301 0.12540103 0.066893645 0.10952117
000380 ec b7 43 3d b2 4b d0 3d 04 b5 01 3e b9 5d 42 3d
       0.047782823 0.10170688 0.12666708 0.047452662
000390 df 0e 80 3d 52 9f 9a 3c 6b 5c 40 bc 0c cc 6b bd
       0.062528364 0.018874798 -0.011740784 -0.05756764
0003a0 9e 98 31 3d ce 5c 6a 3d a8 b4 9b 3d 79 53 eb 3c
       0.043358438 0.05721741 0.07602817 0.028726326
0003b0 45 98 da 3d d1 ec 8c 3d c7 39 52 3d 39 c5 e2 3c
       0.10673574 0.06881107 0.051324632 0.027681934
0003c0 8b ea b4 3d 00 c5 03 3e 1b 85 15 bd 28 3d 95 3d
       0.08833798 0.12868118 -0.036503892 0.07287055
0003d0 7d a7 a8 3d 20 c2 6b 3c fe fb 2f bd 0d 22 e0 3c
       0.08235071 0.014389545 -0.042964928 0.027359987
0003e0 29 5b ab 3c 1a 65 66 3c 4b 3e d1 3d 0d 11 cc bc
       0.020917492 0.01406219 0.102169596 -0.024910474
0003f0 77 f9 9d 3c d1 e7 e1 3d 22 65 c6 3c f5 d9 d5 3d
       0.019283993 0.110305436 0.024218146 0.10441963

model.model.model.6.bias f4 [128]
000000 71 e6 bc 3c 03 23 8e 3c 44 85 b1 bd 50 bd b4 3b
       0.023059102 0.01735068 -0.086679965 0.005515732
000010 04 dd 23 bd 82 4e b8 bd 41 6c 92 3c cb 69 c2 3d
       -0.0400057 -0.08999349 0.017873885 0.09492835
000020 60 2f 4d bd 35 78 78 3d c0 22 54 bd d2 96 91 bd
       -0.05009401 0.060661513 -0.051790953 -0.07108845
000030 94 ac 78 bd a7 dc 75 bd ec 19 b7 3b 8d 02 98 bd
       -0.06071146 -0.060024884 0.005587807 -0.074223615
000040 75 72 af 3c e9 ca 1c bd 00 a5 76 bd 30 19 05 3d
       0.021416882 -0.038279448 -0.06021595 0.032494724
000050 c2 dc 85 bd 3b 09 78 3d 8b d2 99 bd b1 b2 f3 bc
       -0.06536247 0.060555678 -0.07510861 -0.029748293
000060 6b 3b 5d 3d e7 4a 11 3d 27 97 56 3d b4 18 87 3c
       0.054011744 0.035471823 0.052390244 0.016491272
000070 d6 0b 00 bd 40 a2 96 bd 94 e9 36 bc 5e ad 96 3d
       -0.031261288 -0.073551655 -0.011164088 0.07357286
000080 47 f2 64 bd 38 51 08 3d d4 c9 31 3c 1f 0b ae 3c
       -0.055895116 0.03328058 0.010851342 0.021245537
000090 3c 2d 74 bd 12 0f 75 bd 12 47 a4 3d c9 08 a7 bb
       -0.05961345 -0.059828825 0.08021368 -0.005097483
0000a0 88 a2 44 3b 29 aa 4c 3d 97 93 39 3d b2 fe 4c 3d
       0.0030004103 0.049966965 0.04530677 0.050047584
0000b0 81 82 07 bd 77 bd 2e bd ef ff e4 bc bf a2 37 bd
       -0.033083443 -0.042661157 -0.02795407 -0.04483294
0000c0 91 fb 85 3d a1 c3 89 3d 66 b7 aa bd a7 bc e3 3c
       0.06542123 0.067267664 -0.08335762 0.027799917
0000d0 b1 e4 38 bc 63 ee 56 bd 02 7e ef 3c 4a fd 86 3d
       -0.011284993 -0.052473437 0.02923489 0.0659128
0000e0 6a 1e 6a 3d 01 a0 e2 bd e8 5b 9e bd 42 41 90 bd
       0.05715791 -0.110656746 -0.077323735 -0.07043697
0000f0 82 d9 68 bd 7f f9 b3 3d 70 92 44 bd ae 6a 9b 3d
       -0.056848057 0.08787822 -0.047991216 0.07588707
000100 4f 21 a6 3d 3d 88 83 bd 18 95 52 3d d6 28 78 3d
       0.08111822 -0.0642247 0.051411718 0.06058582
000110 ae 66 ef 3b 59 c3 66 bd 7a 7d 80 3d 86 18 55 3d
       0.0073059415 -0.05633864 0.06273933 0.05202534
000120 33 f6 93 bd 00 ba 39 3c 84 ac 4b bd 4d e0 16 3d
       -0.07224693 0.01133585 -0.04972507 0.036835004
000130 17 42 5c 3b b9 11 71 bc 89 ee 53 bd d7 1c 8d 3d
       0.0033608729 -0.014713698 -0.051741157 0.068902664
000140 50 e1 1e 3d 0b a9 d7 3c e0 b5 84 3d a5 1a 97 bd
       0.038789093 0.026325723 0.064800024 -0.07378129
000150 fe 00 72 3d b9 94 09 bd 93 ec 9d bd 5a df 3c 3d
       0.059082977 -0.0335891 -0.077111386 0.046111442
000160 2e 48 aa bd 1f d2 a7 3c e7 3b 90 3d 2d 61 4b bd
       -0.083145484 0.020485936 0.070426755 -0.04965322
000170 95 74 38 3d ac 9c 83 3d 9d 4e 02 bd 0d ed 67 3d
       0.045033056 0.06426367 -0.031813253 0.056622554
000180 7d 7e ee 3c 29 f2 8e bc 8d e2 84 3d 4d 2f a9 3d
       0.029113049 -0.017449455 0.06488524 0.08260975
000190 e6 da 0a bd 48 35 07 3d 80 f7 36 bd 05 ea 69 bb
       -0.033900164 0.033009797 -0.04466963 -0.0035692465
0001a0 6f 52 42 bd 17 f0 45 bd 71 e5 af bc c9 18 43 bd
       -0.047441896 -0.04832467 -0.02147171 -0.04763106
0001b0 23 62 7e bd 40 0c 76 3d 92 45 60 bd 26 ca aa 3d
       -0.06210531 0.060070276 -0.054753847 0.08339338
0001c0 19 b8 38 bd e2 d4 74 bd 03 09 0f bd 53 5c 6f bc
       -0.045097444 -0.059773333 -0.034920704 -0.014609414
0001d0 68 3e b1 3d b8 20 29 bc c1 8f 90 bd b8 56 1f 3d
       0.08654481 -0.010322742 -0.07058669 0.03890106
0001e0 30 64 4a 3d 30 41 5c 3d 2c dc 8c bd 39 e7 4e bd
       0.049411952 0.053773105 -0.06877932 -0.05051348
0001f0 c7 01 99 3d 77 18 ef bc 61 f3 b2 bd 01 1a 56 bd
       0.07471042 -0.02918647 -0.08737827 -0.052270893

model.model.model.8.weight f4 [5, 128]
000000 7e ae 98 3d 1c 1f a1 bd 9c 4c 98 bd 72 ba bf bd
       0.07455157 -0.07867262 -0.07436487 -0.093617335
000010 92 d5 52 bd bf 25 2e bc d1 92 f6 bb 4c 9d cb bd
       -0.051473208 -0.010629117 -0.007524826 -0.099421114
000020 8c 98 d9 bd d9 4e d7 3c c6 01 51 3d 8b 3a 62 3d
       -0.10624799 0.026282715 0.051027082 0.055231612
000030 c0 67 a4 bd 4e 7a bd 3c 9f f1 e1 bc 4e a8 ca bd
       -0.08027601 0.023129608 -0.027581034 -0.09895383
000040 07 1f b7 bd 97 69 18 ba 94 e5 95 3d b8 df a4 bd
       -0.08941465 -0.0005814074 0.07319179 -0.080504835
000050 9f 37 8a 39 a4 7f ad bd b1 00 66 bc c9 4d da bd
       0.00026362852 -0.08471611 -0.014038251 -0.106593676
000060 91 b9 4b bd 59 57 d8 bc 36 ee ef bd e1 d0 66 bc
       -0.049737517 -0.026408838 -0.11715357 -0.014087887
000070 19 55 94 bd 05 be cf bd 49 4e 68 bd 6f 59 8f 3d
       -0.072427936 -0.10143665 -0.056715284 0.0699948
000080 6b 75 92 bd a1 ce 43 3c ca 35 77 3c cd 35 90 3d
       -0.07151302 0.01195112 0.015088508 0.07041512
000090 3a 67 a4 bd 82 8e e9 bd f6 64 9b bd d9 4d 28 bd
       -0.080275014 -0.11404134 -0.07587616 -0.041089866
0000a0 39 25 1f 3b b8 95 4e 3d 18 ee 66 3d fc 7e 0a 3d
       0.002428366 0.05043575 0.056379408 0.033812508
0000b0 7d 8f 04 bd 6f fb 78 bd a6 29 9d bd dd 7c 21 3d
       -0.032363404 -0.06078666 -0.076739594 0.03942572
0000c0 ac 80 36 bc 16 95 f0 bd 2b 26 81 3d 71 53 9b 3b
       -0.011139076 -0.11747186 0.06306108 0.0047401716
0000d0 2b 7b 9b bd 8d 62 4b 3d af 9b af bb ba ea 5d bc
       -0.07591852 0.049654532 -0.005359135 -0.013544733
0000e0 9d 25 a3 bc 57 ef e5 bc 29 12 8a 3d cd e0 d1 38
       -0.019915396 -0.028068228 0.06741745 0.00010007769
0000f0 6d 51 f0 bc 76 17 d5 3c 0c 5b 78 3d fb 9e fe 3b
       -0.029335702 0.026012164 0.060633704 0.007770417
000100 c4 30 53 bc 1e dc fb 3c a7 80 9b bc 89 f7 97 bc
       -0.012890045 0.030744608 -0.018982245 -0.018550651
000110 37 18 b2 bd 65 a6 f9 bc 31 6b de 3c be 3a 7d bd
       -0.08696025 -0.03047485 0.027150722 -0.0618236
000120 46 94 c6 bc 00 48 d2 3c 79 61 9c 3d c0 22 5a 3d
       -0.024240624 0.025669098 0.07635779 0.053255796
000130 12 d2 a5 3d 30 15 64 bd ad 0b 4f bd c9 d1 83 bd
       0.08096708 -0.05568427 -0.050548244 -0.06436498
000140 7c 7a ce bc 1e 5c 81 bd ff 69 87 3b 3c 40 f0 bc
       -0.02520489 -0.06316398 0.0041325088 -0.029327504
000150 82 0f 80 bd fa 43 9b bc 87 fc 17 3c c4 29 80 bd
       -0.06252958 -0.018953312 0.009276516 -0.06257966
000160 9c 4d 0a 3d f0 26 51 bd 9e d8 d7 bd a6 c5 8d 3c
       0.03376542 -0.051062524 -0.10539363 0.01730616
000170 19 0e bd 3b 7c d3 e4 3c 14 94 b3 bd 39 7f 3f bd
       0.005769503 0.027932875 -0.08768478 -0.04675219
000180 ba 3c 2b 3d 5b 8c 38 bd dc 37 0f bd a4 2f f8 3c
       0.04180596 -0.04505573 -0.03496538 0.030296154
000190 6d 61 46 bd 18 7a 02 bd 42 0e ed 3b f4 0e c3 bd
       -0.048432756 -0.03185472 0.0072343657 -0.095243365
0001a0 0d 9b a4 bd 27 27 e1 bd 79 6f ae 3b 76 b8 34 bd
       -0.08037386 -0.10993796 0.005323347 -0.04412123
0001b0 a9 6c 35 bd 82 1b e8 bb f0 39 1a 3d aa 0c e3 bd
       -0.04429308 -0.0070833573 0.03765291 -0.110864
0001c0 50 9a 79 bd 3f 9c 53 bd 33 ac e4 bd 62 9a 4b bd
       -0.06093818 -0.05166268 -0.11165657 -0.049707778
0001d0 c9 cb 91 3c 02 b8 23 bd a9 06 02 3d 90 0a 04 3b
       0.017797368 -0.039970405 0.031744633 0.0020147897
0001e0 a8 3f 6f 3d 1a 1d 28 3d f5 20 71 3d e6 2a 2d bd
       0.058410317 0.04104338 0.05886932 -0.04227724
0001f0 51 67 85 bd d8 9f 1b 3d 37 57 ec 3c a0 59 29 3d
       -0.06513847 0.037994236 0.028850181 0.04134524
000200 5c 97 db 3b a7 b9 ef bd 0f 63 6a 3d 8c cc 0e 3b
       0.006701393 -0.11705332 0.057223376 0.00217894
000210 25 22 a4 3d a2 5b d3 bd 20 54 2b bd 7d c7 cb bd
       0.08014325 -0.10320212 -0.041828275 -0.09950159
000220 3d 99 4f 3d 2a e7 aa bd 76 a4 58 3d d2 22 93 3c
       0.05068325 -0.08344872 0.052891217 0.01796094
000230 65 4e 9f 3d 63 ca ab bd 93 f5 ea bc 0e a1 b6 bd
       0.077786244 -0.083882116 -0.028681552 -0.089174375
000240 86 24 b1 bb 23 d5 6c bd 41 e1 10 3d b1 17 f3 bd
       -0.0054059653 -0.05782045 0.03537107 -0.11869753
000250 11 aa a9 bd 70 f1 25 bd 94 a2 d5 bd e5 ab 83 bc
       -0.08284391 -0.040513456 -0.104314 -0.016073177
000260 5b c5 de 3c a5 6a 95 bd e2 53 cc bc f7 74 41 bd
       0.027193716 -0.072957315 -0.024942342 -0.047230687
000270 a1 5c c9 bc b7 43 e6 bd 05 d6 82 bd 6f 22 d5 3c
       -0.024580302 -0.11243384 -0.06388477 0.026017396
000280 bf 00 90 bd 5f 3c 8d 3d c1 b1 8d ba a3 51 a6 bb
       -0.07031392 0.068962805 -0.0010810421 -0.00507565
000290 f3 19 90 bd 54 84 f6 bc dc b4 79 bc 01 85 b4 3c
       -0.070361994 -0.030092396 -0.015240874 0.022036077
0002a0 e5 dd bd bd a2 62 63 3d 9f 58 8c bc c0 e6 3b 3c
       -0.09270839 0.055513985 -0.017132102 0.011468589
0002b0 87 3e b6 3c c0 3f 22 bd 2c ec 67 bd fd 78 3d 3b
       0.022246612 -0.039611578 -0.056621715 0.0028911226
0002c0 f6 4a 7d bd e1 4f 57 bd 1e 09 37 3d d5 a2 a0 3d
       -0.061839066 -0.052566413 0.04468643 0.07843558
0002d0 ae df 24 bd 9d 88 42 3d ea 0a e1 bd af 5f 1b bd
       -0.04025238 0.047493566 -0.1098841 -0.037933048
0002e0 6a ad 98 3b 3e 86 9c bb 05 9f 48 3c ad 88 a2 bd
       0.0046593444 -0.004776745 0.012244944 -0.07936225
0002f0 38 dd 7a 3d e8 26 3a bd a2 69 3c bd 1a 55 32 bd
       0.061246127 -0.04544726 -0.045999177 -0.04353819
000300 95 51 0b 3c 46 48 43 3b 2a 63 29 bd c1 5a 85 bd
       0.008503337 0.0029797717 -0.041354336 -0.065114506
000310 3a 35 12 3d 97 16 af bb 2f 29 d0 bd 01 1e a9 3c
       0.035695292 -0.005343269 -0.10164105 0.02064419
000320 87 a9 64 3d c9 a2 b5 bd c8 b2 5e 3d 15 bb 89 3b
       0.055825736 -0.088689394 0.054369718 0.00420321
000330 1f 45 98 bd 99 40 35 bd fc a0 23 bd 7a f0 b2 bc
       -0.07435059 -0.04425106 -0.03994845 -0.021843184
000340 6e 3c a4 bd cd 37 82 3c 5d f2 9e bd ab 0c 17 bc
       -0.080193385 0.015895749 -0.07761071 -0.009219329
000350 df b9 f6 3b 7d b8 60 3d 69 70 ac 3b 91 02 3d bc
       0.007529482 0.05486344 0.005262424 -0.011536256
000360 33 bf 85 3d 8e d0 32 bd cd d3 49 bd f2 47 14 bd
       0.06530609 -0.043655924 -0.049274255 -0.036201425
000370 07 04 3c 3d 90 91 87 bd ac 9d 44 3d 38 3e 6f 3d
       0.04590228 -0.06619561 0.04800193 0.058408946
000380 28 a8 66 3d 96 5e cc ba 4a ba a1 3c 8c 59 d4 3c
       0.05631271 -0.0015592154 0.01974215 0.025921606
000390 a0 b9 67 3d 02 6d 8c 3d 8e 34 f1 bd f7 7c 9b bd
       0.05657351 0.06856729 -0.11777602 -0.075921945
0003a0 60 f2 b6 bb 31 82 12 bc e5 96 3a bd 42 7d b3 bd
       -0.0055830926 -0.008942173 -0.04555406 -0.087641254
0003b0 8c 16 7f bd 7e 2f 9f 3c 95 8f 23 bd a2 be 90 bd
       -0.06227736 0.019431826 -0.039931852 -0.0706761
0003c0 07 05 cc bb 58 e9 53 bd 05 b8 46 bd d2 63 52 3d
       -0.0062261852 -0.051736206 -0.04851534 0.051364727
0003d0 ea 4f a3 3b 8b f5 12 ba 35 21 24 3d 30 bf 20 bd
       0.0049838917 -0.0005606047 0.04007073 -0.03924483
0003e0 93 25 a0 bd f0 81 f7 3c 4d a2 b4 bd 87 84 09 bd
       -0.07819667 0.030213326 -0.08820019 -0.033573654
0003f0 30 91 74 bd af ed d9 3c 8b 3a 3d 3d d3 35 9e bc
       -0.059708774 0.026602594 0.04619841 -0.019312775

model.model.model.8.bias f4 [5]
000000 54 a3 8b bc 0c 32 be bd ec 6c 9e bc 31 5e e9 bc
       -0.017045654 -0.092868894 -0.019339047 -0.028487297
000010 da c8 40 bd
       -0.047066547
