VRCP_Regression/data/spread/policies/agent_1_final.pth (torch, 424330 bytes, 20 tensors)

model.model.model.0.weight f4 [128, 14]
00000000: 967b f23d 4dff 31be 15e1 a03d 2f46 2a3c
00000010: 2f11 56bd e783 063b 6d6e 80be 3abd 26be
00000020: 2dd5 9e3e 0329 943d 9017 f7bc 1b66 2dbe
00000030: 2055 20be 81c9 09be 6955 663d 3e4f 273e
00000040: 6e13 00bd 3c2a 54be 980b 68be 9fd3 80bd
00000050: 2aaf 00be cb74 74bd 78ed 983e 2255 c7bd
00000060: 5a6e 683e 26cc a4bd ea23 463d a244 a43e
00000070: fd48 97bd a5ae 00be aefe ca3c 2b36 1cbc
00000080: f903 7e3c 998e acbd 0671 8ebe 9ad9 293e
00000090: 5a1f f23d e96b 0e3c 42ec 6d3e 16e6 4b3e
000000a0: c647 563e 27b2 07bd dc6e 793e 4d41 153e
000000b0: af16 5abc e42d 233e a6b4 59be c297 c8bd
000000c0: f2a8 9abe e603 c0bd c49d 903e c273 0cbe
000000d0: ab6e 8ebd c7d7 833e 12f7 3f3e 2ab3 2dbe
000000e0: 15fd 443e 4a46 82be cc33 21be 5877 75be
000000f0: 3086 7fbc a2a2 233d d0dc 40be 6ed1 913d
00000100: 17b4 203d 45bc e9bd f13d 43bd 7b64 30bd
00000110: f043 f23c cbac 673e 9b1d 17be 47e4 7fbb
00000120: dd3e 9fbe 4864 ba3d 1058 49be 2374 dfbd
00000130: a867 8b3d 30c2 fbba 40d2 933e 51bd c1bc
00000140: 40db be3c d0d0 ae38 26be 9d3e c058 75be
00000150: a62f 0bbe 93b4 0a3d 8fe3 70bd f7e1 b9bc
00000160: 4ce8 68be 2867 d3bc fcd8 02be f489 fbbd
00000170: 734a 7f3e 6e8d c63d 3b86 0f3e 51d1 723d
00000180: aca1 de3d b19d 0cbe f42e 93bd d7b6 1e3e
00000190: 55f1 c7bd 3273 103e ef94 02be 7c54 973d
000001a0: 3d71 703d 6909 a23d 5bf0 1a3c cc1b 933e
000001b0: 8d51 b1bd 8364 83be 7ce1 6e3c 28af e4bd
000001c0: 122c 2abd 2c00 883e 328c 4d3e 7a47 963d
000001d0: c5d1 2fbe 790b 5f3e c584 fd3d 0561 7b3b
000001e0: 3dad 363e 9b9f acbe 9148 dc3c eab2 43be
000001f0: 58a5 cfbd f2d4 253e b23b 62be 4081 94be
00000200: bc45 3d3e d99b 49be 53b5 2bbe 676b 523e
00000210: e35e 72bd 3079 33be 000b e03d 354b 72be
00000220: 8624 71be 26fe 313e bf81 733e e885 87bd
00000230: 19f4 24be 2c97 5ebe 6cac 48be c038 04be
00000240: 318c 85bd 56b1 95bd 0306 bebd 0942 863e
00000250: 98e6 b6bb c6f6 9b3d b118 e73d ae19 373e
00000260: 693c 09bc 69be 593e 8e88 263e 94dc c93a
00000270: 2453 113e 06dc 43be 6471 d0bd 3044 a43d
00000280: 6a4d 0dbe 3f94 3c3e f571 e1bd 3f16 15be
00000290: 2dcb 313e 979d 4e3e 2041 17bd 40f6 36be
000002a0: f8f0 d43d bcc7 5bbe 568a 46be 5a4c 4c3e
000002b0: eccf ac3d 095e b2bc 2e55 d33d 0f12 ff3d
000002c0: 78e8 04be 2d60 3ebe 57e7 5fbe 8f38 1b3e
000002d0: 3baf 88be ac65 3a3e 5b81 3c3d a985 72be
000002e0: 3d2a 423e 886a 183e 1eaf 9c39 6b14 4c3e
000002f0: 83b0 5d3e 99e1 90bc 660f 95be e588 0a3e
00000300: c4d2 463e 4f96 1dbe 4f61 3b3e 7a04 3bbe
00000310: 86ae 1d3d 7739 62bd 8909 e4bc 5556 cd3d
00000320: f3ba 573e 6421 91be 1920 fdbd 2172 903e
00000330: 3aea be3d 94be 013e 68c6 dbbd 2c61 0c3e
00000340: 2142 b03c 45e6 77be 5e58 8b3d 77ea 12be
00000350: 379d 2fbe 9f12 6c3e 14c8 c0bd 8d12 dfbd
00000360: 98e9 1abe 1069 413e 31d3 59be 9446 5cbe
00000370: a399 a73d c672 9dbe 7ce2 25be 5be7 1dbd
00000380: 5639 e43d d69a bf3d 06c6 233e 0ff3 343e
00000390: d895 cf3d 23c9 85be a28a 85be e22e 6fbe
000003a0: fc3c 9abd 6e2b 7a3e 66df c23d e732 4b3e
000003b0: 115c 1d3d f86a 583e f46d 1cbd d22c a3bc
000003c0: eaa5 94be ca60 3b3d a49e 933b 8d2f 92be
000003d0: 4104 8dbe c0b5 a73d b1b8 2bbb 6dbd 80be
000003e0: da32 c53c aa8c 60be 483d 533c 65a8 133e
000003f0: 3307 49be 3b9f 223e f28b cebb 45d1 94bd
0.118399784 -0.17382546 0.07855431 0.01039271 -0.05226248 0.0020525397 -0.25084248 -0.16283122
0.31022015 0.07234385 -0.030162603 -0.16933481 -0.15657473 -0.13455774 0.056233797 0.16338822
-0.03126853 -0.20719236 -0.22660673 -0.062903635 -0.1256682 -0.059681695 0.29868674 -0.09733035
0.22698346 -0.08046751 0.048374094 0.32083613 -0.07386968 -0.12566622 0.024779644 -0.009534399
0.015503877 -0.08425636 -0.27820605 0.16586915 0.11822386 0.00869272 0.23234656 0.1991199
0.20925817 -0.033128884 0.24358696 0.14575692 -0.013311072 0.15935475 -0.21260318 -0.097945705
-0.3020702 -0.093757436 0.28245366 -0.13716033 -0.06954702 0.25750563 0.18746594 -0.16962877
0.19237168 -0.2544425 -0.15742415 -0.23971307 -0.015595958 0.03995002 -0.18834233 0.07120024
0.039234247 -0.11412863 -0.047666494 -0.043064576 0.02957341 0.22624509 -0.14757387 -0.0039045976
-0.31102648 0.091011584 -0.196625 -0.10910823 0.0680688 -0.0019207653 0.28871346 -0.023649843
0.023297906 8.335861e-05 0.30809134 -0.23959637 -0.13592395 0.033863615 -0.058810767 -0.022690756
-0.22744864 -0.025806025 -0.12778085 -0.12282172 0.24930744 0.09694944 0.14016049 0.05928165
0.1087068 -0.1373203 -0.0718669 0.15499435 -0.09762827 0.14106444 -0.12752126 0.07389161
0.058701742 0.07911951 0.009456719 0.28732145 -0.08658133 -0.25662622 0.014580127 -0.11166221
-0.041545935 0.2656263 0.20073012 0.07337852 -0.17169864 0.2178172 0.123788394 0.0038357389
0.17839523 -0.3371552 0.026890071 -0.19111219 -0.10138959 0.16194513 -0.22093084 -0.2900486
0.18483633 -0.19688357 -0.16768388 0.20548783 -0.059172522 -0.17526698 0.10939598 -0.23661502
-0.23549089 0.17382106 0.23779963 -0.066173375 -0.16108741 -0.21737355 -0.19597024 -0.12912273
-0.0652088 -0.07309215 -0.092784904 0.26222256 -0.005581688 0.07615428 0.112840064 0.1788089
-0.008376219 0.21264042 0.16263029 0.001540082 0.14191872 -0.19126901 -0.101778775 0.08020818
-0.13799062 0.18415926 -0.11008064 -0.14559267 0.17362662 0.20177303 -0.036927342 -0.17867374
0.10397524 -0.21462911 -0.19388708 0.19951001 0.084380955 -0.021773355 0.10318981 0.12454616
-0.12979305 -0.18591376 -0.21865593 0.15158294 -0.2669619 0.18202847 0.0460218 -0.236838
0.18961425 0.14884388 0.0002988511 0.19929664 0.21649365 -0.017685698 -0.2911331 0.13528784
0.19416338 -0.1538937 0.18298839 -0.18263426 0.038496517 -0.055230584 -0.027836578 0.10026232
0.21067409 -0.28345788 -0.12359638 0.28212073 0.09322019 0.12670356 -0.10731202 0.13708943
0.021515908 -0.24208935 0.06803964 -0.14347254 -0.17149816 0.23053978 -0.09413162 -0.1089221
-0.15128171 0.18887734 -0.2127197 -0.21511298 0.08183601 -0.30751628 -0.16199678 -0.038550716
0.111437485 0.093557045 0.15993509 0.17670844 0.10136002 -0.26130018 -0.2608233 -0.23357728
-0.07531163 0.2443063 0.09515266 0.19843636 0.03841788 0.21134555 -0.038190797 -0.019918833
-0.29032832 0.045746602 0.0045049954 -0.28551903 -0.27542308 0.08188963 -0.0026202614 -0.2514452
0.0240721 -0.21928659 0.012893029 0.14419706 -0.19631653 0.15881054 -0.006303304 -0.072664775

model.model.model.0.bias f4 [128]
00000000: f904 993e cbde 353d 2f11 243e 4a6a 4bbe
00000010: 7d58 86bd c30a 223e 079f 09bd ae7d 873e
00000020: e4ae bebc 4e68 42be 76f9 e0bd ba24 823e
00000030: 759e 5dbc 54e3 bebc 6015 293e dd4c 03bd
00000040: 6d0a 79bb 95ab d5bd d887 073e 57e0 0f3e
00000050: 2fdf 2ebe 3eef 803e 3597 37be 0f91 c23b
00000060: 8da8 543e 5d9c 67be a04f 153d a820 5bbe
00000070: 67c9 863e 90df 353e dba3 6cbe a1a8 8c3e
00000080: 56fe 4bbe 2702 1ebd 23ff b5bc 87fd 7e3e
00000090: ec27 a8bd f1cb fbbd 37b6 003d 57ad ae3d
000000a0: 2359 173e 4ea6 5f3d b053 123e c719 3b3e
000000b0: d0ff 0cbe dd69 86bd 32b7 883e 84cd 893d
000000c0: e103 8d3d b5be 713e 2c30 713d 13c9 3c3e
000000d0: 3fef 033e a0fe 82bc d2ec 5cbe 0e15 6ebe
000000e0: 0979 653e 1a3a d43c e02d 173e e863 8e3e
000000f0: b303 cd3d 6974 443e d160 42be 31b7 883e
00000100: 4644 4cbc 5585 3dbe 52b6 8d3e 8544 04bd
00000110: b618 acbd 8a75 873d 5382 0e3e 9d01 1abd
00000120: 5bb5 243e 75b9 1b3d 8d78 1e3d 2ae3 18be
00000130: 492b 3fbe 4ae5 e23c 7052 3cbd d097 68be
00000140: 2db7 bd3d 7844 693d e4da 3f3e 7383 13be
00000150: 73f8 35bd 83f2 0cbe cd6e 08be 29a4 fc3c
00000160: d2b7 59be c9a9 3f3e 91e3 613e d53f 25bd
00000170: 569a 0bbd b3be e63d c7a1 6dbc 4309 7b3e
00000180: 56f0 8dbe 3fb2 24bd 4a01 97bd 7a70 8bbc
00000190: 6cb8 783e 896d 123e 6dd9 2c3d 0221 6f3e
000001a0: 9108 ab3d 285f e43d 68f4 23be a8f5 38be
000001b0: 1fb1 e7bd e356 663e c901 e43d 9b5c 52be
000001c0: 4594 6d3d ba50 4cbe da58 b6bd 455b 23bd
000001d0: 162c 763e 40fe 943b 56ef 5bbe 125b 94bc
000001e0: ece3 1dbe 35ba b73d 91f9 24bd 9383 8c3e
000001f0: 0101 42be aaaf 273e 6d91 77be 2fc3 bfbd
0.29886606 0.044401925 0.1602218 -0.19864765 -0.065598466 0.15824418 -0.033598926 0.26463073
-0.023276754 -0.18985102 -0.10985081 0.25418645 -0.013526549 -0.023301758 0.1651206 -0.032055724
-0.00380006 -0.10433117 0.13235414 0.14050423 -0.17077325 0.25182527 -0.17928775 0.0059377025
0.20767422 -0.22618242 0.03645289 -0.21399176 0.26325533 0.17761064 -0.23109381 0.27472404
-0.1992124 -0.03857627 -0.022216385 0.249014 -0.082107395 -0.12294758 0.031423774 0.08529156
0.14780097 0.05460196 0.14289737 0.18271552 -0.1376946 -0.065631606 0.26702267 0.06728652
0.068855055 0.23607905 0.05888383 0.18436079 0.12884234 -0.015990555 -0.21574715 -0.23250219
0.22409452 0.025906611 0.14763594 0.27810597 0.10010471 0.19185032 -0.18982245 0.26702264
-0.0124674495 -0.18507893 0.27678162 -0.032291908 -0.08403151 0.06614216 0.13916902 -0.037599195
0.16084807 0.038018662 0.038689185 -0.14930406 -0.18668856 0.027697224 -0.045977056 -0.22714162
0.09263454 0.056950063 0.18735844 -0.14405613 -0.044426393 -0.13764386 -0.13323517 0.030839996
-0.21261528 0.18717112 0.22059466 -0.040344078 -0.034082733 0.11266842 -0.014503903 0.24515252
-0.27722424 -0.04020905 -0.07373293 -0.017021406 0.24289101 0.14299597 0.04219954 0.23352435
0.08351243 0.11150962 -0.16011202 -0.1806246 -0.1131308 0.22494082 0.11133153 -0.20543139
0.05800273 -0.1995267 -0.08903666 -0.039881963 0.24040255 0.0045469105 -0.21478018 -0.018109832
-0.15418977 0.08971063 -0.040277068 0.27444133 -0.18945695 0.16375604 -0.2417657 -0.093634

model.model.model.2.weight f4 [128, 128]
00000000: e0d8 933d aa8c d03d 198b a2bc 7991 f93c
00000010: c913 f3bc 5373 5f3c c14a 063e bf28 ca3d
00000020: ca97 00bd cacc dc3d 147e 2e3c a683 a93d
00000030: 88d4 60bd 302d 543d 9991 5ebd b5a7 453d
00000040: 36ad 9c3c eaf8 bdbc d3de f43c dacc 8d3c
00000050: a7e8 0ebd 405f a3bc 9071 cd3c 33d6 e7bb
00000060: 1dad 8e3d 8d8d 93bb e081 fa3c e16f b33d
00000070: 4fd1 723d 0fa7 e5bc 9eb1 c83d d17f ec3b
00000080: 9713 98bc 00fd a73d 0ede ef3b 6762 85bd
00000090: bef0 823d c4bc 943d cae4 d3ba aed0 a43c
000000a0: 253d 4f3d e511 713d ec7f 863d bb5f dd3d
000000b0: 15d9 933d 2246 f33d 1b66 a23c 3df3 88bd
000000c0: 41cc 11bd 4e52 62bd d8aa 04bd aa61 d43d
000000d0: 7b9f 25bd d5d5 113d 5c23 233d b5a5 843d
000000e0: 1fcc b63c b5e7 a1bc 6a35 17bd 3885 ab3a
000000f0: 55ef 02bd 914a 5f3d 2f97 e33d 2fcd 013d
00000100: 10b4 9a3c 2aaa 333d c459 6b3d 3281 9a3d
00000110: 4ce3 923c 70d8 013e 4ba8 b7bb 74ad df3d
00000120: b003 c43d 7c95 c13d bddd 183d 1631 8f3d
00000130: ba42 4b3d d5de 08bd f585 8c3d cd8d a5bd
00000140: dbf2 853d ca5a bf3c d4da 673c f9c7 083d
00000150: 196a 0e3c d3cd 053d ddce 94bc e3b2 c33d
00000160: 5243 68bd c8fb ab3d 7c1e 9e3c 6c85 d73d
00000170: d306 83bc 8bf6 d43d bd62 90bb 303f 873d
00000180: 9f2b d0bc 6f5a 843c 9d94 733d 2f84 f53d
00000190: 5eb1 66bd adff cdbc 4061 48bc a344 573d
000001a0: 46b1 d53d 4434 443d 734d 853d f8bf a1bc
000001b0: 7e5b c63d 5922 be3d 068c e6bc aac0 a93d
000001c0: 79b0 f33d 20f2 afbc 5895 d73d 3805 b8bc
000001d0: b184 86bd 1411 d8bc ba44 543d 49b6 703c
000001e0: 51aa b13d 2414 1fbd 841e 393d 958f a3bb
000001f0: 9d10 143d 4265 9b3c 9f25 083e cfd3 483d
00000200: 9486 173c d0b8 b63d 7f69 383c f97b 42bd
00000210: 1464 4e3d f252 d3bc b5a5 923d 64dd 8e3d
00000220: 0ecf 043e 0689 033d 71b6 ea3d c228 443c
00000230: d04d a83d 3913 e3bc 0448 2e3d b8d8 89bd
00000240: 4d70 09bd cb82 d03d dbaf 923d 2782 ce3d
00000250: 6c6e 583d fc18 993d bf44 e63d 8db4 86bc
00000260: 1a16 c73d 6b3f 8b3d bf7e bb3d 9133 343d
00000270: 1c2c bbbc c9b0 aabc 2d46 6cbd e930 6ebc
00000280: a824 3e3d f2fc ab3d 8455 833d 5f79 9a3d
00000290: d52b a63c 6ff6 e93c 058d 453a bbda 353b
000002a0: 660d 093e cf01 8c3c 9032 fbbc 83a1 803d
000002b0: 4fe4 9f3d 3c31 bd3d f347 25bd 670a 1d3d
000002c0: f32a a13d 01b8 d5bc e780 f63c 5e49 50bd
000002d0: 168e da3d d087 853c 8e10 173d 3a99 fa3c
000002e0: 09a7 8a3d 66af d63d 701e 0ebb b3ae 803c
000002f0: 64c1 be3d fe2f f43c 5315 6e3c 61d8 743d
00000300: a744 183d d0a0 0f3c 15a6 ba3d 8937 dc3d
00000310: 3f58 853d 33b8 2bbd e009 b7bc 26f0 b33d
00000320: dee5 d93c 8d26 cd3d 1dcb ab3c 9520 fe3c
00000330: e91c 7e3d 797a d43c f72e 24bd 41de 02bd
00000340: 37ff 6f3d 2d6f d33d 4773 6c3d 2ac0 463d
00000350: 1869 4fbd 31cc ddbc 1cd2 393c 966d 243d
00000360: a3d5 cc3d 30d2 8b3d 2225 ac3d 0bda 7dbd
00000370: b1ef ba3a 5a95 d53d a59f 323c f598 2ebd
00000380: d1ef cd3c 7ab5 6e3d 8e3c 393d c3f3 b63d
00000390: ca52 713c ba25 3a3c e30f 813d 5bbe e23d
000003a0: 4d9c 543d 22bf 9dbd 464b 09bc d628 8fbc
000003b0: 41f5 18bd 7c2f 843c 4a3c 43bd 62ae b43d
000003c0: 7d4b cdbc 4e06 823d c0e4 313c fde5 833b
000003d0: df66 61bd 5dad 623d 8322 9b3c 5c19 78bc
000003e0: 76c5 4a3d fb5c db3d a7e9 143d e268 8c3d
000003f0: 8f66 31bd 9aa7 813c 2362 d73d 410c 26bd
0.072191 0.101830795 -0.019841718 0.030464875 -0.02967252 0.013638335 0.13114454 0.09871053
-0.031394757 0.10781248 0.010650177 0.08277063 -0.054890186 0.051800907 -0.05433807 0.04825564
0.019125562 -0.02318998 0.029891407 0.017309595 -0.034889843 -0.01994288 0.025078565 -0.007075095
0.069666125 -0.004502958 0.030579507 0.087615736 0.059281643 -0.028033761 0.09799503 0.0072173853
-0.018564029 0.08202553 0.007320172 -0.065129094 0.06393574 0.07262567 -0.0016166207 0.020119037
0.05059542 0.058854956 0.06567368 0.10809275 0.072191395 0.11878611 0.019824078 -0.06687019
-0.035595182 -0.055254273 -0.03238949 0.103701904 -0.040435296 0.035604317 0.039828643 0.064769186
0.02231413 -0.019763807 -0.036916174 0.0013085967 -0.031966526 0.05451447 0.1111282 0.03168982
0.018884689 0.043863453 0.057458654 0.07544173 0.01793065 0.1268022 -0.005604779 0.109217554
0.09571016 0.0945234 0.03732084 0.06991784 0.049624182 -0.033415634 0.06861488 -0.08083687
0.06540462 0.023358721 0.014151294 0.033393834 0.008692288 0.032666992 -0.018165046 0.09555604
-0.056704827 0.08397633 0.019301645 0.10523495 -0.015994465 0.10398587 -0.004406302 0.06603849
-0.025411425 0.016156403 0.0594679 0.11988103 -0.056321494 -0.02514633 -0.012230217 0.05255569
0.10434203 0.047901407 0.06508913 -0.019744858 0.096854195 0.09283895 -0.02814294 0.08288701
0.11898894 -0.021477759 0.10526532 -0.022463426 -0.065682776 -0.026375331 0.051823355 0.014691898
0.086750634 -0.038837567 0.045195118 -0.0049914815 0.036148656 0.018969182 0.13295601 0.04903012
0.0092483945 0.08921969 0.011255621 -0.04748151 0.05038841 -0.025796387 0.07160512 0.06975821
0.1296961 0.032113098 0.11460579 0.011972608 0.082179666 -0.027719127 0.04254915 -0.06730789
-0.033554364 0.10181197 0.07162448 0.10083418 0.05283968 0.074754685 0.11243581 -0.016443515
0.097210124 0.067992054 0.09155034 0.04399449 -0.022848181 -0.02083625 -0.057684112 -0.014538028
0.046421677 0.08397855 0.06412795 0.07542681 0.020284573 0.028559892 0.0007535967 0.0027748782
0.13384017 0.017090706 -0.030663759 0.06280806 0.07807218 0.09237906 -0.04035182 0.03834
0.0786952 -0.026088716 0.030090762 -0.05085122 0.10671632 0.016300112 0.036881022 0.030590642
0.06770141 0.10482673 -0.0021685623 0.015708303 0.0931423 0.02980804 0.014531451 0.059776668
0.037174847 0.008766368 0.09113709 0.1075278 0.06510972 -0.041923713 -0.022343576 0.08786039
0.026598867 0.100171186 0.020970875 0.031021396 0.06203929 0.025937306 -0.04008385 -0.03195024
0.058593 0.103239395 0.057727125 0.048523106 -0.050637335 -0.027074905 0.011341598 0.04014357
0.100016855 0.068271995 0.0840552 -0.06197552 0.0014262107 0.10428877 0.01090232 -0.04262634
0.025138767 0.05827854 0.045223765 0.089332126 0.014729211 0.011361534 0.06301858 0.11071464
0.051906873 -0.07702471 -0.008379763 -0.017475527 -0.037343267 0.016135924 -0.047664918 0.088223234
-0.02506041 0.06348859 0.010857761 0.0040252195 -0.055029746 0.055341113 0.018937355 -0.015142765
0.04950472 0.10711094 0.03635564 0.06855942 -0.043310698 0.015826989 0.10516765 -0.04053903

model.model.model.2.bias f4 [128]
00000000: 9ac6 a53d 9e58 3bbd 65c8 bf3c c893 353d
00000010: ceb4 4f3d 5939 9fbb cd5d 96bc 7491 90bb
00000020: 77f8 683d 51ed 68bd 8022 8f3d bd0e 42bd
00000030: d080 9fbd d290 7d3b 0009 f73c 46ea 49bd
00000040: ad0f 03bd a7fc 8f3d 416b 89bd ea87 4a3c
00000050: 5c38 4abb 9a10 5a3c 337b bf3d c105 693d
00000060: 126b 683d 8425 9f3d df3e 86bc ef18 78bd
00000070: faa7 81bc db64 2a3d 55fd 8f3d 36ba 893d
00000080: 34db cc3d 02a9 ae3c 20b1 33bd 101d 933d
00000090: 819d 8dbd c8fa 183d 61a8 47bd ca68 9dbc
000000a0: 6ea0 833c f672 003c 2adc b1bc fe76 963d
000000b0: 631f 5a3c eda4 56bd 4b88 9b3d 09c2 d93d
000000c0: a5c5 62bd 4349 df3d dc10 a23d 72df 143a
000000d0: 55d2 8bbc ba5c 86bd 98b9 853d 95cc 523d
000000e0: 57f5 f9bc bdfb 9d3c 654d 7b3d 219a 3e3d
000000f0: eb0a 9ebb 84f2 33bd fbe1 013d 22d5 063d
00000100: 16f1 b63c 3f2f d53c 9d0a 973b 790d 4dbd
00000110: 6ab6 6a3d 872a aa3b 76bb 8dba 10dd 3d3d
00000120: 6690 c03c 3d1a 383d ec27 b3bb acd9 083d
00000130: 8dd0 903d 4abc 7ebd b62e 893d 70c3 543d
00000140: 80a4 04bd 055a 343d e8f4 c1bb d43e 58bc
00000150: 77cd 4b3d 63ce adbc 2c06 ea3c 74e2 caba
00000160: bad1 9f3d ea0b 3b3d c8ec 1f3d 044b b5bc
00000170: 9ad6 973c fe78 cd3c 6e3e 4ebd 9ab7 84bb
00000180: b65d 003a ed37 81bd f0c0 2abd 01ec 603a
00000190: 138a c8bc 8468 69bc 8ae3 f03c dbd7 2abd
000001a0: d9d4 b83d e483 1e3d 9de1 843d c714 55bb
000001b0: 21b6 18bd 6da7 c03d d65e 3f3d 1aa1 f1ba
000001c0: 7c1b 6fbd 0b73 5e3d 0003 37bc 9094 233d
000001d0: f737 913d a10b 90bd 94ee 8a3d bbb3 d33c
000001e0: eeb7 123d c9ae 4abd d30a cabc a65c 943c
000001f0: eed8 773d d7cd 113c ec1e 6c3d 6159 853b
0.08094521 -0.04573881 0.023410985 0.04433039 0.05070954 -0.0048591313 -0.018355275 -0.0044118706
0.05687758 -0.056866948 0.06989002 -0.047377337 -0.07788241 0.0038691056 0.030155659 -0.049295686
-0.03199737 0.070306115 -0.0670991 0.012361506 -0.0030856347 0.013309622 0.0934967 0.056890253
0.056742735 0.077708274 -0.016387401 -0.060570654 -0.015827168 0.04160009 0.07030741 0.0672497
0.10002747 0.021320824 -0.04387009 0.071832776 -0.06914807 0.03734854 -0.048744563 -0.019215006
0.01606771 0.007839909 -0.021711428 0.07346915 0.013313147 -0.05240338 0.07594355 0.106327124
-0.05536427 0.109026454 0.07913372 0.0005679048 -0.017068068 -0.06560655 0.0652954 0.051464636
-0.030512495 0.019285077 0.061353106 0.046533708 -0.004823079 -0.043932453 0.031709652 0.032918103
0.022331756 0.026023505 0.0046094195 -0.050061677 0.05730287 0.005193058 -0.0010813314 0.0463534
0.023506355 0.044946898 -0.0054674055 0.033410713 0.07071028 -0.062191285 0.066983625 0.051944196
-0.032383442 0.04403116 -0.0059190877 -0.013198573 0.049756493 -0.021216577 0.028567396 -0.0015478865
0.07803674 0.04566566 0.03904417 -0.022130497 0.018534947 0.025082108 -0.050352506 -0.0040502073
0.00048967765 -0.06309495 -0.041687906 0.0008580089 -0.024479901 -0.01424611 0.029405374 -0.041709762
0.090249725 0.0387 0.06488345 -0.0032513605 -0.037283067 0.09406934 0.046721302 -0.0018434853
-0.05837582 0.054308932 -0.011170149 0.039936602 0.070907526 -0.07033468 0.067837864 0.025842538
0.03581994 -0.049483094 -0.024663365 0.018110584 0.060509615 0.008899174 0.057646677 0.0040694927

model.model.model.4.weight f4 [128, 128]
00000000: 7de1 683d 1c08 a53d 81a5 a33c edbb 043d
00000010: 940d f1bc 9ff3 9f3d 23b6 df3d e96a 393d
00000020: 08be 4fbd 53ab 43bb 6968 99bc 96e6 d3bc
00000030: 3079 663d 31ed 343e e8c7 ab3b 4fba 0cbb
00000040: 8522 e73d fbc4 b73c f13a b33d abe5 be3d
00000050: 86ef af3d 037c e03d b4b4 de3d b937 80be
00000060: 9063 aebc 7729 01bd 8f21 6ebd 3ddf b03b
00000070: e424 843d 917b c23c 9f06 b0bc fd94 ab3c
00000080: dd87 313d 5836 8ebd 52e5 ff3d 22fc 343c
00000090: 770d 9d3d 2d21 0c3d c2d6 84bd fb0d d0bb
000000a0: ab84 8f3d b74a 89bd cdd4 793d 7f64 c63d
000000b0: f9e0 a03d 2dea c93d 0880 b53d ce29 b63d
000000c0: b740 e83c 21e5 17be b3f3 953d 1af9 fa3c
000000d0: 6c17 2ebd 8e03 b2bd aa95 f13b 13cc e8bc
000000e0: dfec ed3b bb79 5f3d f5da b1b9 f178 2bbd
000000f0: 50e9 a5bc 5ded fc3d 6413 1c3d 07b4 a4bc
00000100: 3779 a93d 9c23 09bd 2450 e13d 1e51 5f3d
00000110: 94fc 32bc 4083 c43d 1973 bebd 7bee c73d
00000120: 2173 ec3d 0988 d23d 5789 7a3c 0adf 4a3d
00000130: 4421 bc3d 913a 833d 2515 a13d a163 06bb
00000140: fa83 9e3d 181e 17bc 869f 883d 5267 923c
00000150: 0298 a13d f9fe 0d3e 7005 263d a55e 3abd
00000160: cca3 5bbd 1b85 813d 168e ef3d 956a 5dbd
00000170: e697 053d 200c 853d 75b0 173d a9ea 473d
00000180: 6e4a 653b 76f7 823d 5379 8fbc 0a8d 053e
00000190: 0420 3e3c 0724 7abc 0c38 693d 6e96 5a3d
000001a0: 6a0d 293c 7554 053e bed7 2f3c 4b9d 9b3c
000001b0: 79d1 6b3d 95db 0ebe bde0 983d 9b1e 8e3d
000001c0: df67 8a3d 18d3 373d 3a60 e73b 4bcd 623d
000001d0: acd1 2bbd 5576 49bd 9cbe a03c d9bc babc
000001e0: 1820 003e db0a 043d 5d23 d23d 97b9 943d
000001f0: 4ae9 32be 210d e53d 7b63 dc3d b410 ba3d
00000200: 2285 e33d da3b 17ba 1305 fb3c b8eb ae3d
00000210: 8cfd 923d f9df f3bc 3210 333d a624 e43d
00000220: c999 f53d 292c 573d f8a4 8fbc 5183 bc3b
00000230: 4335 2abc e695 e93d dbc7 0bbd ce5c 23bd
00000240: 4177 4ebd a48a ac3d 225e e03d 8095 433d
00000250: 3cca 893c a8e5 2ebd 87db b9bc 5084 ecbd
00000260: 4918 bd3d cb47 d33d 01ff 6b3b 47c1 3b3d
00000270: 3725 1e3d 7197 d43c f7d5 ce3c f7c6 673d
00000280: d0ff c4bc f801 a33d b6e0 c93d 9ce4 f63d
00000290: 02be 8cbc 9079 983d c9f0 c0bd 38b6 073d
000002a0: 8d5e 513d a651 f53d de65 1c3d aff3 4dbd
000002b0: 117c ce3c afbf 333d 5018 983d 7c73 6b3d
000002c0: 9f88 0ebd 84fe 3ebe 434a c03d 35ea 5a3d
000002d0: 109e 30be 9eb6 03be 61b6 f53c 3b03 e6bc
000002e0: 2cef 5d3d a9a0 af3d a7f3 8b39 08d6 013e
000002f0: 1909 743c a471 af3a 87af e03d 5e2a ab3d
00000300: 988a e53d 93a6 ca3c 0e72 c83d 4b56 273e
00000310: ee68 84bc 7197 8e3d 6c97 f8bc 4dee 53bd
00000320: e392 91bb 0c5e febc 588e 563d 8359 08bd
00000330: 65c7 113e 8355 d03d 4551 37bc e521 de3d
00000340: aafe 483d fd0e c93d 8b23 993d f2b7 f73c
00000350: d52c 8b3c 5f1e 023d 9253 af3d 0ebc 833d
00000360: 19cd 49bd 4f35 a63d 6443 203d 0503 e53c
00000370: d1ae 0a3d 6b84 943d 0888 dd3d 82b3 d83c
00000380: bf8b 623d 9804 29bd 6ec4 e4bc b998 453d
00000390: 5200 953d 5db2 103d a894 603d 59e3 89bc
000003a0: b69d cfbc d332 033d 2a7c c63b 362a ae3d
000003b0: 48c5 9c3d 4e49 83be 9285 503d ea35 d7bc
000003c0: ce78 043c d045 0a3d 44a2 ef3d a6cc 0ebc
000003d0: e739 8b3d 7080 f13d 3507 fcbc 5c7f ae3d
000003e0: 456e 633d 06aa f83d decd c8bc 9f75 373d
000003f0: b3c8 38be 303b 993d 14d3 ff3d 9adf 293c
0.056855667 0.08058187 0.01997638 0.032405782 -0.02942542 0.07810139 0.10923412 0.045267973
-0.050718337 -0.0029856756 -0.018726544 -0.025866788 0.056267917 0.17668606 0.0052423365 -0.0021473353
0.11285881 0.022432795 0.087514766 0.093211494 0.08590607 0.10961153 0.1087431 -0.25042513
-0.02128771 -0.031533685 -0.058137473 0.005397706 0.06452349 0.023740562 -0.021487532 0.020945067
0.04334246 -0.06943959 0.12494911 0.011046441 0.07668584 0.034211326 -0.06486274 -0.006349323
0.07007726 -0.06703704 0.06099396 0.09687137 0.0785541 0.098591186 0.08862311 0.08894692
0.028351171 -0.148335 0.073218726 0.030636359 -0.042502806 -0.08692084 0.0073725777 -0.028417623
0.0072609033 0.05455945 -0.00033923207 -0.041863386 -0.020252854 0.12349961 0.03810443 -0.020105375
0.08275073 -0.033481225 0.11001614 0.05452072 -0.010924477 0.095953465 -0.09299297 0.097622834
0.115453966 0.10279853 0.015291533 0.049529113 0.091860324 0.06407655 0.07865361 -0.002050616
0.07740016 -0.0092234835 0.06671052 0.017871533 0.07890321 0.13866796 0.04053253 -0.045500416
-0.053623006 0.06324216 0.116970226 -0.054056723 0.032615565 0.06496453 0.037033517 0.048807774
0.003498699 0.06394856 -0.017513907 0.13042083 0.011604313 -0.015267379 0.056938216 0.053366117
0.01031814 0.13020499 0.010732589 0.018995902 0.057572816 -0.13950951 0.074647404 0.06939431
0.06758093 0.04487905 0.0070610316 0.055371564 -0.041948006 -0.049185116 0.01962214 -0.022795128
0.12512243 0.032236915 0.10260651 0.07261961 -0.17471805 0.11184145 0.10761162 0.09085217
0.111093774 -0.00057691114 0.030642068 0.085410535 0.071772665 -0.029769884 0.043716617 0.11139803
0.11992223 0.05253235 -0.017534718 0.005752959 -0.010388675 0.11405544 -0.034126144 -0.039883427
-0.0504067 0.08424881 0.109554544 0.047749996 0.016820066 -0.042699486 -0.022687687 -0.11548674
0.09233148 0.10316428 0.0036010148 0.04583862 0.03860971 0.02595112 0.02524851 0.056586232
-0.024047762 0.0795936 0.09857313 0.120553225 -0.017180447 0.07445061 -0.09420926 0.03313276
0.05111556 0.11978464 0.038183086 -0.050281223 0.025205644 0.043883976 0.07426512 0.05748318
-0.03479826 -0.18651778 0.09389164 0.053446013 -0.17247796 -0.12862632 0.029994192 -0.028077712
0.05418317 0.08575565 0.0002669368 0.12679303 0.014894747 0.0013385308 0.10970979 0.0835769
0.11208075 0.024737632 0.09787379 0.16341512 -0.016163316 0.06962479 -0.030345641 -0.051740933
-0.004442559 -0.031050704 0.052381843 -0.03328849 0.14236219 0.1017256 -0.01118881 0.108463086
0.04907099 0.09817312 0.074774824 0.03023908 0.016989151 0.031767245 0.08560862 0.06432353
-0.049267862 0.081156366 0.03912677 0.027955541 0.033858124 0.07251819 0.108169615 0.026452783
0.055309054 -0.041264147 -0.027925696 0.04824135 0.07275452 0.03532635 0.05482927 -0.01683204
-0.025343757 0.03203089 0.006057282 0.08504145 0.07654816 -0.25641865 0.050908633 -0.026270825
0.008085443 0.033757985 0.117008716 -0.008715784 0.06798153 0.11792076 -0.030765155 0.085203856
0.055525083 0.121418044 -0.024512228 0.044789907 -0.1804531 0.07481992 0.12491432 0.010368252

model.model.model.4.bias f4 [128]
00000000: 7d9b 0bbd a364 55bd 355a 353c a9fd a9bd
00000010: 925a 22bd 09aa 653d 6194 08bd 53b6 56bd
00000020: 57d5 633c 0943 c63c eacc 6a3d b7a5 183d
00000030: c4ba 8fbc e791 b0bc 44d0 babc 6fb3 7cbc
00000040: 4565 af3d 414f 7cbd 5959 1c3d 3c91 c13c
00000050: 436b a23c 2112 7c3c 21f7 c7bb 06ee c13d
00000060: 3443 77bd 5bec 5d3c ec9a 87bc 14de 4dbb
00000070: cd75 26bb 72f0 633c 216f 823c 4e75 45bd
00000080: e6fe 173d a3fc 37bd 6538 483d c8f4 91bd
00000090: 6b69 8bbd d5cd b6bd 969d 47bc 1aa8 76bd
000000a0: 67a0 a33d b94e 1f3d 2f24 8d3d 0b0d 463d
000000b0: be4b bdbd a9e7 a9ba 9b5c a9bd 7ff2 073c
000000c0: 6151 d83c d119 3cbd 760e 30bc 8db8 33bc
000000d0: bfb1 653b f703 dfbc edba 933d ae5a a2bd
000000e0: c854 a43c cc61 543d 1d65 1bbd b9ac 933d
000000f0: c54e 51bd 03ce 873d 5826 bc3d 6313 a6bd
00000100: cc99 ef3c 0a7c 7a3d dd6e 24bc 9155 683d
00000110: 85a0 a73d f696 723a 1f2c 893c a09a cd3a
00000120: 728d 53bd 51ae 1bbc 5bca 073d a73b 85bc
00000130: fe05 0ebd 0578 a83d a93e 86bd 471f 87bd
00000140: 75d1 a23d 5d6e aaba 144a c13d 74fd 793d
00000150: 8fb8 d0bc 8486 81bb 64ac a83d f043 82bd
00000160: 4cc6 15bd 7dbc 82bd e608 aebc 325c 463d
00000170: 3bf3 9ebb 4dcf 163d c99e 6e3d 38b8 be3b
00000180: d114 7d3d cf5f 9cbd c0ad 91bd f833 a7bd
00000190: ba70 9f3c 8f9c 7cbc 6d96 9cbb 40e8 df3c
000001a0: fa06 6f3d 1663 1d3c 1bf3 8c3d c471 883c
000001b0: 4aee b23b e18a a43d 5a5c 873d 3346 29bd
000001c0: 213c 4c3d f73d 03bd fd6d 8d3c 2bc9 cb3c
000001d0: 4497 bb3c b35f 0cbb e76b 9dbd 8a9f 29bd
000001e0: 9e98 fe3c d038 6ebd 6729 4fbd 79da 553d
000001f0: 49e5 22bd c578 153d 00bd d1bc 1baa d43d
-0.034083832 -0.052097928 0.01106887 -0.08300335 -0.039637156 0.05607036 -0.03334463 -0.05241997
0.013905845 0.024201887 0.057324328 0.037267413 -0.017545111 -0.021553947 -0.022804387 -0.01542364
0.085642375 -0.06159902 0.038171146 0.023628823 0.019826537 0.015385182 -0.006102458 0.094692275
-0.060366824 0.013545121 -0.016553365 -0.0031412886 -0.0025399805 0.013912307 0.015922131 -0.048207574
0.037108324 -0.044918668 0.048881907 -0.071267664 -0.06807216 -0.08925978 -0.0121835675 -0.060218908
0.07989579 0.038893435 0.06891667 0.048352282 -0.09242962 -0.0012962717 -0.08269616 0.008297562
0.026405992 -0.045923058 -0.010745635 -0.010969293 0.0035048572 -0.02722357 0.07213388 -0.07927452
0.020059958 0.05185108 -0.037938226 0.072106786 -0.05110051 0.066310905 0.09187001 -0.081091665
0.02924814 0.06115345 -0.0100361975 0.056722227 0.081849135 0.00092540623 0.016744671 0.0015686341
-0.051648565 -0.0095020095 0.033151966 -0.016263796 -0.034673683 0.08226017 -0.0655492 -0.065977626
0.07950107 -0.0013002862 0.094379574 0.061032727 -0.02547863 -0.003952803 0.08236006 -0.06360614
-0.036566064 -0.063836075 -0.021244477 0.048427768 -0.0048507727 0.03681879 0.058256898 0.0058203004
0.06178743 -0.076354615 -0.07113218 -0.08164209 0.019462932 -0.015418186 -0.0047786743 0.027332425
0.058356263 0.009606143 0.06882306 0.01665581 0.005460535 0.080343015 0.066094115 -0.041326713
0.04986203 -0.032041516 0.01726436 0.024876198 0.022899278 -0.0021419346 -0.07686596 -0.041411914
0.031078633 -0.05815965 -0.050576594 0.052210305 -0.039769445 0.036492128 -0.025602818 0.103840075

model.model.model.6.weight f4 [128, 128]
00000000: 43a1 f93d 0e9c 283d 3d47 343d 14c7 10bd
00000010: 85ac e23d 26f9 71bd 3e32 b43d 30ee dc3c
00000020: e84a b93c e7c5 8abc d317 1b3c 48ff 023d
00000030: 3919 b33c a4b7 50ba 33fb 0bbd 55a3 09bd
00000040: 647b c03d e0b8 88bd 19a5 283b 9471 083e
00000050: 45ec f43d 9097 2a3d 4aa6 9e3b b0e9 21bd
00000060: 9c43 1cbc a213 a43d 8159 973d 7b89 d73d
00000070: f28f 3f3d 9b8a ba3d 27c2 bcbc 51f4 aa3d
00000080: fabf 923c 7465 813d c0f6 743d 1f0b e33d
00000090: f8e4 ff3d 3b9b b43d eec6 07bd 500c ab3b
000000a0: 6a12 053e bcd8 553b 26b8 043e 4e14 3b3d
000000b0: 4048 81bc fdc6 75bd 7be1 6b3d 50a0 073d
000000c0: 68b3 b23d 9021 f2bc d212 653d d4f4 303d
000000d0: 67e8 373c aa87 973c 0bea 95bd 9b5a ad3d
000000e0: 09ee 083c 561e 88bd 8cf6 363c 0a18 dd3d
000000f0: 83a4 0ebc 0aea 85bc 5f56 873d 6704 49bd
00000100: 50f4 503d 5097 423d 9669 803d 27eb 703d
00000110: 6186 0a3e 3549 aabc 318f 94bd e314 cbbc
00000120: a988 b7ba ac4b 283c 5f12 a93d 46f1 923d
00000130: 84f9 f13d ac8a 9a3c b70f e73c bda2 c33d
00000140: 20f8 f93d 289b adbd 5284 e83d 8153 de3d
00000150: 4fa5 7b3d 7926 a2bc 0536 cd3c c2be e5bb
00000160: a9be a33d da7e ce3d 6791 80bc 384f 303d
00000170: 9ef7 2bbd 8b4d a33d fc1c a13d 6fc1 2dbc
00000180: 358e 083e 20c7 b1bd 15b1 40bd a3e4 7fbd
00000190: 70c8 233d 2ab9 983d fe53 9f3d ef48 e53d
000001a0: c97a 4a3d b27f 8abc 7438 353d 1920 d23d
000001b0: 8778 cdbd a221 933d 332b 9bbd c4c7 253d
000001c0: 0a82 a7bd 4371 f93d 8921 d43c 3842 fc3c
000001d0: 1dab bf3c 5ceb e03d 3cff 943d e7aa 95bd
000001e0: 05d5 c83d fdd6 403d 17a1 0cbd e2c1 ad3d
000001f0: 13dc 28bd cf79 873d 77b0 80bc d1b9 f03c
00000200: e774 a73d 7fc1 3bbd 23b0 76bd f45c 5fbd
00000210: e248 a43d b2ba a43d 5f67 38bc a0d1 c7bc
00000220: e8b8 923c 33f9 a4bd a148 ab3d 7275 89bd
00000230: 60b5 ab3d c867 683c 5537 7c3d 8e07 2f3c
00000240: 6863 6b3d d030 0fbc 9a1a ae3d cdc3 bf3d
00000250: 1282 ac3d 51ef be3c 5f97 ae3d 82a5 d3bc
00000260: a21f bcbc a0f1 123d 378a db3a 7014 0bbd
00000270: 3a10 a33d 404c c63d f659 5c3d 1a06 813d
00000280: b2da 91bd d113 19bd 65ec 833c 38b0 a2bc
00000290: dfa8 863d 5423 85bd 5401 c93c fa0b a33d
000002a0: ae8c 42bd d099 1cbc 949e 00bd 9864 c83c
000002b0: 05c0 13bd 89a5 5b3d 5e87 a6bd 1f8a abbd
000002c0: a1fd 08bd 5f72 a53d 3e20 2b3c f6c8 47bd
000002d0: a6bb 3d3d dbc2 023e 97d8 50bd c4de b2bd
000002e0: 4686 483d 8992 82bc ffa6 a43d 04c9 0cbd
000002f0: 5ce4 f13c 8947 c83d 56fa 673c 85c6 afbd
00000300: a104 9a3c e8af 9a3d 8835 973d 1cc1 87bd
00000310: b7cf 0dbd 16f9 ce3d 4393 a2bd fb97 bcbc
00000320: e9df 4cbd 299d 59bd dd84 a33d 885c f03d
00000330: 890b f83c bb88 ed3d ab78 573d e80a 763d
00000340: 4d64 dc3d 9a76 81bd 9a87 bf3d 96d7 47bc
00000350: bb5a 143d 2727 b43d 3531 4dbd b4e0 a4bd
00000360: dcbf 903d 652d c73d 14ec 43bc c759 92bc
00000370: 6a07 9fbb 77bf b4bc a67f 8c3d 6977 55bd
00000380: 23f7 733d 75fe 8e3c 91a1 14bd 84ed 9d3d
00000390: cb62 eb3d eb1d 77bc c207 b33d 2eea 403c
000003a0: a3f3 d63d f6ec 0b3d 2892 aebd b6c9 e53c
000003b0: 0b9b e7bd 1dfa 443d 13de 04bd 4f17 4b3c
000003c0: ec91 f63c 7382 00bd 9258 b4bc a057 c73d
000003d0: a790 9cbd 7a3b 5fbc a0c0 003e 61b0 353d
000003e0: 2e80 a8bc e8a4 27bd ab04 df3c 209f 6f3d
000003f0: 10a3 a63d 9ec5 91bd 8f2d 2bbd 27ad 3a3c
0.12188961 0.04116445 0.04401325 -0.035346106 0.11068062 -0.059075497 0.087986454 0.026969045
0.022618726 -0.01694007 0.009466129 0.031981736 0.021862613 -0.0007961935 -0.03417511 -0.03360303
0.09398535 -0.06675887 0.0025733171 0.13324577 0.11959127 0.041648448 0.0048416005 -0.039529502
-0.009537604 0.08011557 0.073901184 0.10524269 0.046768136 0.09108468 -0.023041798 0.08347381
0.017913807 0.06318179 0.05980563 0.110861056 0.12494844 0.0881867 -0.0331487 0.0052199736
0.12995306 0.0032630404 0.12960872 0.04567366 -0.015781522 -0.060004223 0.05758808 0.03311187
0.08725625 -0.02955702 0.05592615 0.043202236 0.011224843 0.018497307 -0.07320031 0.08464547
0.008357533 -0.06646411 0.01116718 0.10795601 -0.008706215 -0.01634695 0.06608271 -0.049076464
0.051014245 0.047507584 0.06270139 0.05881801 0.13527824 -0.020786861 -0.07253874 -0.024790233
-0.001400252 0.010271948 0.08255457 0.071749255 0.118151695 0.018864952 0.028205736 0.09552524
0.12205529 -0.08476859 0.11353363 0.10855771 0.061436947 -0.019793736 0.025050173 -0.0070112655
0.0799535 0.10082789 -0.015694333 0.0430443 -0.041984193 0.079737745 0.078668565 -0.0106052
0.13335498 -0.08680558 -0.04704388 -0.062473904 0.039986074 0.07457192 0.07779692 0.111955516
0.049433503 -0.016906593 0.04424329 0.102600284 -0.100327544 0.07184149 -0.07576599 0.040473714
-0.081791 0.12179806 0.025894897 0.030793294 0.023397023 0.10982391 0.072752446 -0.07307988
0.09806255 0.04708003 -0.034333315 0.08484246 -0.041225504 0.0661503 -0.015709145 0.02938548
0.08176594 -0.04583883 -0.06022657 -0.054532006 0.08021714 0.08043422 -0.011255114 -0.02439195
0.017910436 -0.080553435 0.08363462 -0.06711854 0.08384204 0.0141849 0.061576206 0.0106829535
0.057467848 -0.008739665 0.085011676 0.09363518 0.084232464 0.023307474 0.085249655 -0.025835756
-0.022964302 0.035874963 0.0016749565 -0.033955038 0.07962079 0.09682512 0.05379673 0.06299992
-0.07121791 -0.037372414 0.016103933 -0.019859418 0.06575178 -0.06500879 0.024536766 0.07961269
-0.047497444 -0.009558156 -0.031401232 0.02446203 -0.036071796 0.053624664 -0.08131288 -0.08375954
-0.033445004 0.08078455 0.010444699 -0.048775636 0.046321534 0.12769644 -0.050987806 -0.087338954
0.048956178 -0.015939014 0.080396645 -0.03437139 0.029527836 0.09779269 0.014158806 -0.085827865
0.018801035 0.07553083 0.07383257 -0.066286296 -0.03462192 0.10106103 -0.07938244 -0.023021689
-0.050018225 -0.053128395 0.07984326 0.11736399 0.030278938 0.11598345 0.052605312 0.060068995
0.10761318 -0.063214496 0.09352036 -0.012197396 0.03621934 0.0879653 -0.050095756 -0.08050671
0.07067844 0.09725455 -0.011958141 -0.017865075 -0.0048531787 -0.022063954 0.068602845 -0.05211583
0.05956186 0.017455319 -0.036286894 0.07711318 0.11493453 -0.015082817 0.08741714 0.011774583
0.10495689 0.03416153 -0.08523971 0.028050285 -0.11308869 0.04809009 -0.03243835 0.012395694
0.030098878 -0.031374406 -0.02201489 0.0973351 -0.07644778 -0.01362502 0.1257348 0.04435766
-0.020568933 -0.04092875 0.027223906 0.058501363 0.081365705 -0.071177706 -0.041791495 0.011393822

model.model.model.6.bias f4 [128]
00000000: a35a 5c3d 6ed9 3d3d 9822 18bd c427 ae3c
00000010: 2c2e 25bc 5655 2b3d 21a0 143d 5fad 78bd
00000020: fe28 a8bd e1e1 b83d b2f3 05bb 07c7 3bbb
00000030: d54b 6cbc 6ef4 1e3d e368 ab3c b859 a33d
00000040: 8c69 afbc 2c21 e0bb 3e95 4cbd ac9a d33d
00000050: 7023 8a3d 4270 9d3d c1a5 2a3d 3c59 963d
00000060: 50c3 27bc 199f 99bd c35f fcbc 4910 a13d
00000070: b118 503d a63d 64bb 6b0c b83d e7c7 30bc
00000080: 649b 1bbd 5817 993d 0a5c 6b3d de17 3d3d
00000090: 80dc 973c 6589 9f3d 16be 2bbd 5d7e 1fbc
000000a0: 3281 c33c 07b6 b33c 5fb2 3e3b 97ec 86bd
000000b0: 760f 493d 13f0 a43b 74d3 7f3d da99 89bd
000000c0: 5e76 ba3c d782 f8bb a84f 98bc de91 acbd
000000d0: 0423 25bd 74ee 323d 2761 8abd a7a0 9b3d
000000e0: 22d0 65bc 006e 8e3d c285 a63d fcd1 183d
000000f0: 468c 8b3c 5a9a a2bd 83c3 123d 4487 9a3d
00000100: 1353 353c 4db8 a5bd 6fd2 7ebd 61bf 103d
00000110: 29d5 0a3c 1a29 f2bc 5010 df3b fb69 8fbc
00000120: 6431 2cbb 4cdb bf3d f73a b5bc 3aae a73d
00000130: c7f6 bcbc 79c9 f9bb cbaf b8bc 65f4 a1bb
00000140: dab1 ddbc e610 2c3d 2f30 1fbd 4d43 a93d
00000150: 4d4d b2bd 558a b43c b137 1c3c b2ad a7bd
00000160: 9ee8 8bbd ef9e 973d 7b0f e23c 04fe b1bd
00000170: 9105 523c 1ff8 673d 3698 db3c e963 273d
00000180: 0b44 ab3d 6662 593d 9c18 a93b 552f 71bd
00000190: 988a acbc 0f40 88bd 50ee cc3c a49f c4bd
000001a0: 639f adbd 6621 873b 248a 0fbd 238c 40bd
000001b0: a163 a6bd bb2c f23c d1ae 963d e6a3 21bd
000001c0: a1b9 8dbd b092 9bbd eddf 01bc d772 39bd
000001d0: f38f 703d fb48 793d ccc4 a1bc bef9 40bd
000001e0: b4ed bc3d 323e 9a3c f07f 19bb 2a73 893d
000001f0: 1df6 053d d26a a83d b778 e2bc 11ca 44bd
0.053797375 0.046349935 -0.037142366 0.021259196 -0.010081809 0.04182943 0.036285523 -0.060712215
-0.08210944 0.09027458 -0.0020439443 -0.0028652565 -0.014422377 0.038807325 0.020924037 0.07976097
-0.021412633 -0.006839892 -0.049947016 0.10332236 0.067450404 0.07687427 0.04166198 0.07341239
-0.010239437 -0.075010486 -0.030807381 0.07864434 0.050804798 -0.0034826784 0.089867435 -0.010789848
-0.03798999 0.074751556 0.057460822 0.04616534 0.01853776 0.07789878 -0.041929327 -0.009734717
0.023865316 0.021937383 0.0029098017 -0.06588095 0.04908701 0.005033502 0.062457517 -0.06718798
0.02276152 -0.0075839567 -0.01859267 -0.084262595 -0.040316597 0.043684438 -0.067568116 0.075990014
-0.0140266735 0.069545746 0.08130981 0.03730963 0.017034661 -0.079395965 0.035830986 0.07545331
0.01106717 -0.08091793 -0.062212404 0.035338763 0.008473673 -0.029560614 0.0068073645 -0.01750659
-0.0026274556 0.093679994 -0.022122843 0.08187528 -0.023066891 -0.0076228944 -0.022544762 -0.004942464
-0.027062345 0.042008303 -0.03886431 0.0826479 -0.0870615 0.022038618 0.009534762 -0.081874266
-0.068314776 0.07403361 0.027595272 -0.08691028 0.01281871 0.05663311 0.026805978 0.040866766
0.083625875 0.053072356 0.0051604044 -0.05888303 -0.02106218 -0.06652843 0.02501598 -0.096007615
-0.08477666 0.0041238545 -0.03504385 -0.047008645 -0.081244715 0.029562345 0.07357562 -0.039462946
-0.069201715 -0.07596338 -0.007926923 -0.045275535 0.05873103 0.060860615 -0.01974716 -0.047113173
0.09225026 0.018828485 -0.0023422204 0.06711419 0.032705415 0.08223499 -0.027645452 -0.048044268

model.model.model.8.weight f4 [5, 128]
00000000: cad8 cbbd 17b5 d6bd 54d2 95bd 9ea6 9ebc
00000010: faf7 8e3c 7f41 0a3c b914 2bbd 37d8 913b
00000020: faed 653d 35dc eebc 5e16 babd 304e bbbd
00000030: 05a6 81bd df55 8cbd f6bc 953d 9ef4 adba
00000040: 167b 8abd d5cd 36bd 755c acbc 10cf d5bb
00000050: b630 9dbd e49a 03bd a16f 463d 3dce 633c
00000060: 169a c53c 31ce 34bd 6f84 59bd 14a8 b2bd
00000070: 5fa2 733d e2bc 96bd ee0d 9f3d 28d8 263d
00000080: efba 083d 352c 4bbd 348f 083d 4d95 523d
00000090: a246 88bd 1b71 06bc d9b0 4f3d 6c7a 8d3c
000000a0: 347e 4fbd bfbc bebd 82d7 2bbd 38a2 34bd
000000b0: 0e47 a23d 91bf 313d 5674 febd a103 6fbc
000000c0: 79f0 23bd 367f 68bd 4e86 d4bc 2091 503d
000000d0: 4f8e 82bd 9bcf 1ebc 8f27 b13d a11b dabc
000000e0: f604 af3d 75f3 763d ed15 2bba a8b4 9a3d
000000f0: 5edb 9a3c cd8f 16bd 4229 4d3d 48c6 c33c
00000100: 5fce 18bd 2a27 05bd ebdc 083d 0a32 15bd
00000110: 0fa8 db3b adf3 0e3d ccc2 61bd dd8f c13c
00000120: d653 f438 903b 92bc dbdf a1bd 5676 a13c
00000130: db8b a7bc ab0d 463d 2476 aebd 5af6 b1bd
00000140: f799 b1bd dcd4 edbc b12a 9f3d 32c8 9cbd
00000150: d257 953d 6e83 09bd b229 82bd 4041 1c3d
00000160: 76fd d5bc 3fc5 e63a 84c9 84bd 4fe7 853d
00000170: 7f66 afbd c17e 97bd 4d70 fdbd b990 9f3d
00000180: 4293 223d f227 a3bc ee55 58bc b51b 3e3d
00000190: 4b62 f7bc 25b0 63bd 66e0 0fbd ac31 013d
000001a0: 3958 fabb 0783 943c 2250 50bd ee0f 35bd
000001b0: fbd1 00bd 0494 183d 7460 52bb ec43 a53d
000001c0: 1a52 263d 1b2e 9cbd ea1f 2bbc bed8 a23d
000001d0: 1eed da3c 6c8e 2b3d 787d 1cbd 56cc cdbd
000001e0: 013a c6bd eaa9 2ebc c38f f7bd a29e 713c
000001f0: a31f 3dbd a070 36bc bb4f 97bd 8407 363d
00000200: 4277 dbbc 0b8b c3bb e515 803d c31d 6e3c
00000210: ea9c 4b3d 32ed 96ba f2d3 bf3c f006 eb3c
00000220: 1262 ae3d 4753 d1bc 3648 aebd 4d50 c4bc
00000230: 9656 a4bd 03f3 1bbd 3f41 afbb fabf 5ebd
00000240: 396c 02bd 5bf5 e1bd c4a8 443b bf9b 61bd
00000250: 9fa2 53bc 7710 6dbd 1a57 bdbd 4344 8ebc
00000260: 50b7 253d efb0 94bd 11a7 a3bd 4bba dcbc
00000270: f343 413d 8f88 6a3d 22d5 3abd 63e1 c93c
00000280: 5144 0cbd e69c abbd 5134 a1bd 080d 5d3d
00000290: 18b7 8e3d e5cb 96bd 06ff 153d 29e4 063c
000002a0: 0a8c a2bd 33e0 7cbd bd29 1cbd bd88 af3d
000002b0: a4cf b1bd 566e 17bc 6c2e 203b 8318 513d
000002c0: 8315 36bd c93b 52bd a117 9bbd 9df5 863c
000002d0: 5e23 5e3b 199e 023d 8b00 d0bc ac42 6dbd
000002e0: 72d4 183d 345b fdbc dcf1 963d 624f 91bd
000002f0: 443e ecbc 2298 863d 68e7 073d 7e2b 5fbc
00000300: 8bee ffbc 2833 82bd e48d 8a3d d457 b73c
00000310: 26d2 ccbc d0d0 a8bd 2fa2 833d bfc9 8ebd
00000320: 631b 9b3d 2aca a5bd a601 fabd 5be4 e1bc
00000330: 2279 0bbd e984 d1bd 40b4 50bd 3eab acbd
00000340: d20a 0ebd 08d3 cfbd 3273 b4bb 6440 dbbd
00000350: a24b 803d 2d39 c5bd 1e2c 0fbd 568a 27bd
00000360: 1963 af3d 30de 8ebd ff24 a6bd 3968 65bc
00000370: 6f59 8ebd 7202 f5bd cbfe 89bd d4c0 e63c
00000380: 1f04 c8bd 05f9 063d ce96 953c d131 1ebd
00000390: cb98 1fbd b883 8dbc a93f 9abd 9ef0 c93c
000003a0: 225c d6bd 12f0 5c3d 9d3d ddbd 5d42 9fba
000003b0: c4f5 833d 88bd 94bd 089e 2f3d 92d5 a83d
000003c0: 44a5 5c3c 3083 8abd 20ca 303d d217 08bd
000003d0: 8b37 9abd bf49 143c 98ea 0cbd be6b 863a
000003e0: 4697 de39 1349 293d 2f85 123d 37d0 e03c
000003f0: 6662 8a3d 85c9 79bd 4c0f e9bd 0e88 d2bd
-0.099534586 -0.10483759 -0.073155075 -0.019366559 0.017452229 0.008438467 -0.04176781 0.0044508236
0.056135155 -0.029157737 -0.090862975 -0.091457725 -0.06330494 -0.06852316 0.07311432 -0.0013271754
-0.06761758 -0.04462989 -0.02104018 -0.006524928 -0.076753065 -0.032130137 0.0484463 0.0139041515
0.024121325 -0.044141952 -0.053104814 -0.087234646 0.05948102 -0.07360245 0.07766329 0.040733486
0.0333814 -0.049602706 0.033339694 0.051411916 -0.06654097 -0.008205677 0.050705764 0.01727029
-0.050657466 -0.09313344 -0.04195357 -0.044100016 0.07923709 0.043395583 -0.12424533 -0.014588268
-0.040024254 -0.056761943 -0.025942948 0.050919652 -0.063747995 -0.009693052 0.08650123 -0.026624503
0.08545868 0.060290772 -0.00065263995 0.07553989 0.01890343 -0.036758233 0.050088175 0.023898259
-0.037306186 -0.032508053 0.03341381 -0.036424674 0.0067033838 0.034900356 -0.055117413 0.02362817
0.00011650442 -0.017850667 -0.07904025 0.019709747 -0.02045243 0.04835288 -0.08518627 -0.08689566
-0.086719446 -0.029032163 0.077718146 -0.07655372 0.07292141 -0.033572607 -0.06355609 0.038148165
-0.026121836 0.0017606391 -0.064837486 0.06538259 -0.085644715 -0.07397223 -0.12374935 0.077912755
0.039691217 -0.019916508 -0.013204081 0.046413142 -0.030198237 -0.055587906 -0.035126112 0.03154151
-0.0076399115 0.018128885 -0.05085767 -0.044204645 -0.031450253 0.037250534 -0.0032100948 0.08069596
0.040605642 -0.076259814 -0.010444621 0.079514965 0.026724394 0.04188387 -0.038205594 -0.100487396
-0.09679032 -0.010660628 -0.12087967 0.014747294 -0.04617275 -0.01113525 -0.07388254 0.04444076
-0.026790265 -0.005967503 0.06254176 0.014533463 0.04971019 -0.0011514782 0.023416493 0.028689831
0.08514799 -0.025552405 -0.08509867 -0.023964072 -0.080243275 -0.03807355 -0.005348354 -0.054382302
-0.03184149 -0.11033126 0.0030007819 -0.05508017 -0.01291719 -0.05787703 -0.09245129 -0.017366534
0.040458024 -0.0726031 -0.0799085 -0.0269443 0.047183942 0.05725914 -0.045613416 0.024643606
-0.03424484 -0.083795354 -0.07871307 0.053967506 0.06968516 -0.073631085 0.036620162 0.008233109
-0.079368666 -0.06173725 -0.038125742 0.08571003 -0.086821824 -0.009242615 0.0024441732 0.051048767
-0.04445411 -0.051326547 -0.07572866 0.01647454 0.0033895592 0.031889055 -0.025390884 -0.05792491
0.03731198 -0.030927278 0.0737035 -0.07095219 -0.028838284 0.06571986 0.03317967 -0.013621209
-0.031241676 -0.063574135 0.06765345 0.022380747 -0.02500255 -0.08242953 0.064274184 -0.06972074
0.07573583 -0.080952 -0.12207346 -0.027574709 -0.034051068 -0.10230429 -0.05095315 -0.08431099
-0.034678288 -0.10147673 -0.0055068964 -0.10705641 0.06264426 -0.09630046 -0.034954183 -0.04090341
0.08563823 -0.06975973 -0.08112525 -0.014001899 -0.06950652 -0.11963357 -0.06738051 0.02816812
-0.09766411 0.032952327 0.018260386 -0.038621727 -0.038964074 -0.017274722 -0.075316735 0.024650868
-0.10466792 0.053939886 -0.108027674 -0.0012150515 0.064433604 -0.07262713 0.04287532 0.0824386
0.013467137 -0.06763303 0.04316151 -0.03322584 -0.07530125 0.009050786 -0.034403414 0.0010255498
0.00042455847 0.041329455 0.035771545 0.027443035 0.06757049 -0.0609832 -0.11379871 -0.102798566

model.model.model.8.bias f4 [5]
00000000: 5f04 eabc f95a 39bd 6bde 3c3d f1c7 eebd
00000010: 3cd2 8e3c
-0.028566537 -0.045252774 0.04611055 -0.116592295 0.017434232
