VRCP_Regression/data/push/models/qr_model_example.pth (torch, 22916 bytes, 6 tensors)

base_model.0.weight f4 [64, 10]
0	0xbd5e07a2	-0.054206498
1	0xbe192fe1	-0.1495967
2	0x3d0f2455	0.03494676
3	0xbe065546	-0.13118467
4	0x3da62001	0.08111573
5	0x3d9da9cf	0.07698404
6	0xbea4e9e8	-0.32209706
7	0x3d2f584e	0.042808823
8	0x3d8dfd77	0.0693311
9	0x3db7e9b6	0.08980124
10	0x3d15bbda	0.036556102
11	0x3ca3383b	0.019924274
12	0x3e1bae36	0.15203175
13	0x3c69c619	0.014268422
14	0x3c7e5a74	0.015524495
15	0xbd3d5953	-0.046227764
16	0x3d266dd1	0.040632073
17	0x3e047deb	0.12938659
18	0xbda88d08	-0.082300246
19	0xbda8d9af	-0.08244645
20	0xbe3b7a41	-0.18308355
21	0xbde53221	-0.11191202
22	0xbcf17be1	-0.029478015
23	0x3e4587d4	0.19290096
24	0xbe7241a3	-0.23657851
25	0x3e772090	0.24133515
26	0xbe321c54	-0.17393619
27	0x3c3823bb	0.011238988
28	0x3dbbb216	0.091648266
29	0x3cba6079	0.02275108
30	0x3c7cbb58	0.015425526
31	0x3da13659	0.07871694
32	0x3d5a806d	0.053345133
33	0xbd5982d8	-0.053103298
34	0xbe841f92	-0.25805336
35	0x3d6b5799	0.057456587
36	0xbcff8b57	-0.031194372
37	0x3dcf3c05	0.1011887
38	0x3c7ca9e7	0.015421367
39	0xbe433572	-0.19063357
40	0x3df77b92	0.12084116
41	0x3e15d4d9	0.14631976
42	0xbe3452d1	-0.17609717
43	0x3e0dc410	0.13844323
44	0xbcbc9283	-0.023019081
45	0xbbd999ee	-0.0066406643
46	0x3d2bc214	0.041933134
47	0x3e44bc9a	0.19212571
48	0x3e4cb3b4	0.19990426
49	0x3d10123a	0.035173632
50	0xbe8a808e	-0.27051204
51	0xbd9b35b5	-0.07578603
52	0x3e18412c	0.14868611
53	0x3d547c98	0.051876634
54	0xbc9dd8ec	-0.019268475
55	0x3bd95f99	0.0066337106
56	0x3d1759cb	0.036950868
57	0xbe05d210	-0.13068414
58	0x3e2c724e	0.16840479
59	0x3d294d4c	0.04133348
60	0xb7b6dafc	-2.1798063e-05
61	0xbb9f048c	-0.004852837
62	0xb6672323	-3.4442135e-06
63	0x26b089c6	1.2249797e-15
64	0xb2b7a06e	-2.1376959e-08
65	0xbd981922	-0.07426669
66	0xbd808d94	-0.06277004
67	0x2e03017b	2.9787266e-11
68	0x2588ea8f	2.3751182e-16
69	0x35862c10	9.996602e-07
70	0x3cac8039	0.021057235
71	0x3a4457d7	0.0007489896
72	0xbe867c84	-0.26266873
73	0x3dc3a2d5	0.09552542
74	0xbe7167de	-0.23574778
75	0x3ea6697b	0.3250235
76	0x3e15fd0c	0.14647311
77	0xbe0a3001	-0.13494875
78	0x3e0abba2	0.13548139
79	0xbc11b6f0	-0.008893713
80	0xbba9c9b8	-0.0051815175
81	0x3d30d839	0.043174956
82	0xbe115df3	-0.14195995
83	0x3e401a69	0.18760075
84	0x3e6c0e7f	0.23052405
85	0x3dd0f359	0.10202665
86	0xbe85b6da	-0.26116067
87	0xbe1900f4	-0.1494177
88	0xbdaf33f6	-0.08554833
89	0x3d4b1b48	0.049586564
90	0xbda6f126	-0.08151464
91	0x3d9be642	0.076122776
92	0x3de11c6b	0.109917484
93	0x3e01dba7	0.12681447
94	0xbe7688a3	-0.2407556
95	0xbdb757f4	-0.089523226
96	0xbe330dc8	-0.17485726
97	0x3d89e961	0.067339666
98	0xbe680248	-0.2265712
99	0x3e857bc8	0.26071
100	0xbd3ba9ab	-0.045816105
101	0xbe87444c	-0.26419294
102	0x3d2eb45f	0.042652484
103	0x3da83908	0.08214003
104	0xbdb5530e	-0.08853732
105	0xbda4c9c6	-0.08046298
106	0x3e09dc30	0.13462901
107	0x3e896db6	0.26841515
108	0xbd272e89	-0.040815864
109	0x3e57ed3f	0.21086596
110	0x3df958c6	0.12175135
111	0xbe454475	-0.19264396
112	0x3c18c458	0.009324156
113	0x3d111ae4	0.035426036
114	0xbdaca2e7	-0.08429509
115	0xbe47c1b9	-0.19507493
116	0x3cf2c67e	0.029635664
117	0xbd75a4a8	-0.05997148
118	0x3d5232a7	0.051317837
119	0x3e05f86b	0.13083045
120	0xba882fc4	-0.0010390212
121	0x2d858804	1.5180752e-11
122	0xa7091606	-1.9024508e-15
123	0xbd5a0824	-0.05323042
124	0xbc38c89a	-0.011278296
125	0xa808d095	-7.594746e-15
126	0x3b2522dd	0.0025197782
127	0x2d920bd7	1.6603536e-11
128	0xba566629	-0.0008178675
129	0xbd70b49a	-0.058765985
130	0x3d886a67	0.0666092
131	0xbd422135	-0.04739495
132	0x3d313fb4	0.043273643
133	0xbdbf8fb2	-0.093535796
134	0x3cb6bfd0	0.02230826
135	0xbdf7c360	-0.12097812
136	0x3d890ff9	0.066925
137	0x3da52360	0.08063388
138	0xbd8a7ffa	-0.06762691
139	0x3d03a870	0.032143056
140	0xbdb80e96	-0.08987157
141	0x3d6a0b25	0.057139535
142	0xbd1cc21a	-0.038271047
143	0xbd9b5cc0	-0.0758605
144	0x3dc285bd	0.09498165
145	0x3e51dbda	0.20494023
146	0x3e13a5c9	0.14418711
147	0xbd096208	-0.033540756
148	0xbe8920e6	-0.26782912
149	0x3e57dcb4	0.21080285
150	0x3e402855	0.18765385
151	0x3cec71af	0.028862802
152	0xbea342d5	-0.31886926
153	0x3de60a65	0.11232451
154	0xbe16e589	-0.14735998
155	0xbcab8cc3	-0.020941144
156	0xbdbc13bc	-0.091834515
157	0x3c9b1df7	0.018935187
158	0x3dc51f10	0.09625065
159	0xbd048e57	-0.03236231
160	0xbe2cefd5	-0.16888364
161	0xbdca3bb6	-0.0987467
162	0x3e795774	0.24349767
163	0x3dd1da6d	0.102467395
164	0xbcb77bc9	-0.022397893
165	0xbbf0b699	-0.007345986
166	0x3cfbe21b	0.030747464
167	0x3e07ef8c	0.13274974
168	0xbe6ce05f	-0.23132466
169	0xbe73b5ee	-0.2379987
170	0x3cd8cb87	0.026464237
171	0x3dad19eb	0.08452209
172	0x3d895ef5	0.06707565
173	0xbe79af9e	-0.24383399
174	0xbdef73ce	-0.1169201
175	0x3d741c95	0.05959757
176	0x3dd54119	0.10412807
177	0x3dd9548f	0.106118314
178	0xbdaf9f5f	-0.085753195
179	0xbd39d45a	-0.04536853
180	0x3e1e1e15	0.15441163
181	0x3c80f5db	0.015742233
182	0x3d8bc740	0.06825113
183	0xbe0c419f	-0.13696907
184	0x3db3ab65	0.08772925
185	0xbdd0d98d	-0.101977445
186	0x3e1ca90c	0.15298861
187	0xbe7ef4af	-0.24898027
188	0xbdfa10ab	-0.122102104
189	0x3cb8e754	0.022571243
190	0xbe0fbf2e	-0.14037773
191	0x3e03fa14	0.12888366
192	0xbdc0a907	-0.094072394
193	0x3e552c4d	0.2081768
194	0xbe223369	-0.15839924
195	0xbea34077	-0.3188512
196	0xbd3e614c	-0.04647951
197	0xbe69b550	-0.22823071
198	0x3c0ab15a	0.0084651355
199	0x3c4fe556	0.012688955
200	0xbb6d992a	-0.0036254623
201	0x372e46f3	1.0387727e-05
202	0xbca7ecba	-0.020498622
203	0xb84e9d7f	-4.9260907e-05
204	0x30b78a10	1.3354242e-09
205	0xbd14fb6d	-0.03637259
206	0x3b8bf8a7	0.004271585
207	0xb541e9c4	-7.2238277e-07
208	0xbcd86321	-0.026414456
209	0xb9d3724b	-0.0004033021
210	0xbd6b6c28	-0.057476193
211	0x3bfd152d	0.0077234716
212	0xbdbdd712	-0.09269537
213	0x3c3a7205	0.011379723
214	0x3e3a61b4	0.18201333
215	0x3c4a5034	0.0123482235
216	0x3d3dcb63	0.046336543
217	0x3de7b7cd	0.11314354
218	0x3e5e965e	0.21737048
219	0xbe465b98	-0.19370878
220	0xbe5259c9	-0.20542063
221	0x3df6eec5	0.120572604
222	0x3de4fd30	0.11181104
223	0xbd0c9844	-0.0343249
224	0x3e1da3c5	0.15394504
225	0x3d48b3bf	0.048999544
226	0xbc8d3e2c	-0.01724156
227	0xbe2f78da	-0.17135945
228	0xbe81fa94	-0.25386488
229	0x3da4eb9b	0.08052751
230	0x3cadb076	0.021202307
231	0x3d67d49f	0.056599256
232	0xbd1403a2	-0.036136277
233	0x3e363c57	0.17796455
234	0x3cfeea5f	0.031117616
235	0x3e54d995	0.20786126
236	0xbe0b87e5	-0.13626058
237	0x3d5f1975	0.054467637
238	0xbdb4f75c	-0.088362426
239	0x3c92657a	0.017870653
240	0xbde411e2	-0.111362234
241	0xbe735c58	-0.23765695
242	0x3df205f8	0.11817545
243	0xbcbf3d55	-0.023344675
244	0x3dbecb26	0.09316091
245	0xbd2dd6a8	-0.04244104
246	0x3e6062c7	0.2191268
247	0xbdbfa46e	-0.09357534
248	0xbc9a7033	-0.018852329
249	0xbe38346f	-0.17988752
250	0xbca975b2	-0.020686004
251	0x3e9e7b9f	0.3095369
252	0x3e29ba4d	0.16574974
253	0x3dd74a92	0.1051227
254	0x3d4c649b	0.049900632
255	0xbdf21296	-0.11819951

base_model.0.bias f4 [64]
0	0x3c5c61a3	0.013451013
1	0x3cd311f6	0.0257654
2	0x3c835a95	0.016034404
3	0x3c23d7cd	0.010000181
4	0xbbd6d197	-0.006555747
5	0xbc909d42	-0.017653111
6	0x00000000	0.0
7	0x3da68de8	0.08132535
8	0x3be5e7a1	0.0070161377
9	0x3c7106e3	0.014711115
10	0x3d4dfe6f	0.050291475
11	0x3bdc9daf	0.0067326645
12	0x00000000	0.0
13	0xbc6f51a2	-0.014606865
14	0x3cfaf8cf	0.03063622
15	0x3d9b70e0	0.075898886
16	0x3d89450f	0.06702625
17	0x3cf1ff7d	0.029540772
18	0xb9897f5d	-0.0002622557
19	0x3c7c5148	0.015400238
20	0x00000000	0.0
21	0x3cd8354e	0.026392605
22	0x3d12a261	0.035799388
23	0x3d13c17f	0.036073204
24	0xbb91773d	-0.004439263
25	0x3b0f8a45	0.0021902483
26	0x3d56fa45	0.05248477
27	0xbc283afa	-0.010267967
28	0x3cf3b2cc	0.029748343
29	0x3ce40ff3	0.027839636
30	0x3c7689a4	0.0150474645
31	0x3cb393d1	0.02192107
32	0x00000000	0.0
33	0xbc9b2bec	-0.018941842
34	0x3c92d384	0.017923124
35	0x3bc94d0f	0.0061432193
36	0x3c0952fe	0.008381603
37	0x3d21e4fc	0.039525017
38	0x00000000	0.0
39	0x3cb433f4	0.02199743
40	0xbccb3a58	-0.024808094
41	0x3ce13105	0.027489195
42	0x3cdb87c2	0.026798133
43	0x3d738d2d	0.059460808
44	0x3cea7ea1	0.028624834
45	0xbcce1323	-0.02515561
46	0x3d46af64	0.04850711
47	0xbcf71d75	-0.030165413
48	0xbc4d8e41	-0.012546123
49	0x3c073633	0.008252668
50	0xbb1c9bc8	-0.0023896564
51	0x3cc2c3b4	0.02377496
52	0x3c400464	0.011719797
53	0x3d514621	0.05109227
54	0x3d1cf6b9	0.03832123
55	0x3d46a286	0.04849484
56	0x3cb123e7	0.021623565
57	0x3ad864a4	0.0016509485
58	0x00000000	0.0
59	0x3be0eb8a	0.006864016
60	0x3b4a183c	0.0030837199
61	0x3ba5074b	0.00503627
62	0xbd0191ef	-0.031633314
63	0x00000000	0.0

base_model.3.weight f4 [64, 64]
0	0x3b066c5e	0.002051137
1	0xbe14f8d7	-0.1454805
2	0x3e0cc06f	0.13745283
3	0x3d8aa3d6	0.067695305
4	0xba07a1b2	-0.0005173936
5	0x3d52dd0d	0.05148034
6	0x3b5f071e	0.0034031342
7	0x3d8fd1a1	0.070224054
8	0x3e2d2a14	0.16910583
9	0x3ddad70e	0.1068555
10	0xbcfdc8f5	-0.030979613
11	0xbda2da30	-0.07951772
12	0xbb06cd8a	-0.0020569288
13	0xbd69ac5e	-0.057049148
14	0x3d0f8473	0.035038423
15	0xbe027339	-0.12739266
16	0xbe90816b	-0.28223738
17	0x3c681d61	0.014167161
18	0xbd6b46ba	-0.057440497
19	0x3d642080	0.055695057
20	0xb9f91915	-0.00047511669
21	0x3db2cfa0	0.087310076
22	0xbe1bbb68	-0.15208209
23	0x3e657c54	0.22410709
24	0x3d0bd35a	0.034137107
25	0xbbe4bf75	-0.0069808313
26	0x3d2f063f	0.042730566
27	0xbda06a3b	-0.07832762
28	0xbdc797e6	-0.09745769
29	0xbdf222b5	-0.11823026
30	0x3d3d7c2d	0.046261
31	0x3e0ae1f9	0.13562764
32	0x37102bff	8.5933125e-06
33	0x3d33a06c	0.043854162
34	0xbd64fa66	-0.05590286
35	0x3dc95a13	0.098316334
36	0x3df66e97	0.12032812
37	0x3e172dbc	0.1476354
38	0x3c9dc524	0.019259043
39	0x3d4f6182	0.0506301
40	0x3e08e32e	0.13367912
41	0xbda99799	-0.08280868
42	0xbde3ecc6	-0.11129145
43	0xbe05cfd4	-0.13067561
44	0x3e34ac70	0.17643905
45	0xbbb98876	-0.0056620194
46	0x3e06dd91	0.13170458
47	0xbe22867d	-0.15871616
48	0x3db3cc49	0.08779199
49	0xbe88f038	-0.26745772
50	0xbd8bbd23	-0.06823184
51	0xbaf60b68	-0.001877171
52	0xbddc4119	-0.10754604
53	0xbd73543c	-0.059406504
54	0xbc0fc9e0	-0.008776158
55	0xbde58e23	-0.11208751
56	0xbe83de8e	-0.25755733
57	0xbe08b493	-0.13350134
58	0x3d87e29b	0.066350184
59	0x3e02d0cc	0.12774962
60	0xbe535139	-0.20636453
61	0x3dfe80c6	0.12426905
62	0xbd5fb4e3	-0.054615866
63	0xa3e990a5	-2.532317e-17
64	0xbddf6ee4	-0.109098226
65	0x3dc82117	0.097719364
66	0xbdf884c7	-0.121347
67	0x3d0032f1	0.03129858
68	0xbdba5c68	-0.09099656
69	0xbe40f612	-0.18843868
70	0xb70ee0a5	-8.516164e-06
71	0x3d154614	0.036443785
72	0xbe296a0e	-0.16544363
73	0x3ebb74a4	0.36612427
74	0x3e3477c7	0.17623816
75	0x3dd79a88	0.10527521
76	0xa4e74879	-1.00303054e-16
77	0x3e0c993a	0.13730326
78	0xbc709f1e	-0.014686374
79	0xbd1c6759	-0.038184498
80	0xbd953f6d	-0.07287488
81	0x3c9c39c1	0.019070508
82	0x3c9519fd	0.018200869
83	0x3e039cd4	0.12852794
84	0x2bbdd863	1.3489317e-12
85	0xbe418c70	-0.18901229
86	0xbd5ee63c	-0.054418787
87	0xbd5ac9c2	-0.053415067
88	0x3d41f5ff	0.04735374
89	0x3e1ee84c	0.15518302
90	0xbd930fa2	-0.07180716
91	0xbeb821fe	-0.35963434
92	0x3d95e115	0.073183216
93	0xbdc43b53	-0.09581628
94	0xbd868dc3	-0.06570008
95	0x3d86d14a	0.065828875
96	0x2735c78d	2.5226973e-15
97	0x3e25cfdd	0.16192575
98	0xbccf104f	-0.025276331
99	0xbdb3075d	-0.08741639
100	0xbc6bc4d4	-0.014390189
101	0xbe1a46cc	-0.1506607
102	0xbc40c33e	-0.011765299
103	0xbe392c82	-0.18083385
104	0xbe3106b6	-0.17287716
105	0x3d5cfca5	0.053951878
106	0x3d269880	0.04067278
107	0x3d9f00a5	0.07763795
108	0x3e2327d8	0.15933168
109	0xbd8af8a1	-0.067857035
110	0xbc2a1638	-0.010381274
111	0xbe35f219	-0.17768134
112	0x3e569da6	0.20958576
113	0x3e21f698	0.15816724
114	0x3debf0b9	0.115205236
115	0xbd844add	-0.064595915
116	0xbe170d1f	-0.14751099
117	0xbc7bb46c	-0.01536284
118	0x3e133379	0.14375104
119	0xbe2b26cd	-0.1671402
120	0xbd6471a0	-0.055772424
121	0xbcd30c33	-0.025762653
122	0x33168398	3.504428e-08
123	0xbe4e6ad5	-0.2015794
124	0xbde036c4	-0.10947946
125	0x3e2046fd	0.1565208
126	0x3ddea479	0.108712144
127	0xbaab14d0	-0.0013052467
128	0xbd127984	-0.035760418
129	0x3cf2c375	0.029634217
130	0x3c1adaf7	0.009451619
131	0x3d4aed4e	0.049542718
132	0xbbcc6987	-0.006238166
133	0x3dcff4ef	0.10154139
134	0xa66bf4aa	-8.1863585e-16
135	0x3d846921	0.06465364
136	0xbdf83c13	-0.12120833
137	0xbea50a0b	-0.32234225
138	0x3d811d5f	0.0630443
139	0xbe4714c1	-0.1944151
140	0x3a3ee2b7	0.0007281708
141	0x3e16073b	0.14651196
142	0x3e093922	0.134007
143	0x3db1017f	0.086428635
144	0xba7727f7	-0.00094282575
145	0xbd135ec7	-0.03597906
146	0x3da4f575	0.0805463
147	0xbdb245b6	-0.087047026
148	0x3b51c8ee	0.0032010633
149	0xbe1906cb	-0.14943998
150	0xbe0c9df1	-0.13732125
151	0x3d8ffd6e	0.0703076
152	0xbe1ea34c	-0.1549198
153	0x3e42a35b	0.19007628
154	0x3d964e0b	0.07339104
155	0x3dbebefd	0.09313772
156	0xbc95eec1	-0.018302323
157	0xbd96d855	-0.07365481
158	0xbd57fe8b	-0.052732985
159	0xbe94d2ed	-0.29067174
160	0xb5419cdc	-7.2126363e-07
161	0x3e6c783e	0.23092744
162	0xbda42aa1	-0.08015943
163	0xbe855a6c	-0.2604555
164	0x3eaf2a78	0.3421209
165	0xbe755d11	-0.23961283
166	0xb83f42f1	-4.5600293e-05
167	0xbcfbf88b	-0.030758163
168	0xbe5bca97	-0.21464
169	0x3dcac5d8	0.09901017
170	0xbcdb41cb	-0.026764771
171	0xbe042926	-0.12906322
172	0xbe0f1d82	-0.139761
173	0xbd82a4c3	-0.06379082
174	0x3e1b9cbe	0.15196511
175	0xbe0d35ca	-0.1379005
176	0x3d8eee89	0.06979091
177	0xbda8a174	-0.0823392
178	0xbe289ea8	-0.16466773
179	0xbe014985	-0.12625702
180	0x3c0d4712	0.0086229015
181	0x3df9d797	0.121993236
182	0xbdda7e9e	-0.106686816
183	0xbdbb560c	-0.091472715
184	0xbe2a1beb	-0.16612212
185	0xbe2ed543	-0.1707354
186	0xbbb0f7d6	-0.005400638
187	0xbc69ae5e	-0.014262764
188	0x3bea0175	0.007141287
189	0xbdd4cbd7	-0.10390442
190	0xbe598f58	-0.21246088
191	0x374e2449	1.2287005e-05
192	0x3eac56ca	0.33659965
193	0xbc90fd3c	-0.017698877
194	0xbde592bb	-0.11209627
195	0xbdc56481	-0.0963831
196	0x3c8919d2	0.016735945
197	0x3c8d579f	0.017253695
198	0xbd70d0c2	-0.058792837
199	0xbd4c8a90	-0.04993683
200	0xbc9f421c	-0.019440703
201	0xbde430cf	-0.11142122
202	0x3e15e50f	0.1463816
203	0xbba72182	-0.00510043
204	0xbab3cd52	-0.0013717806
205	0xbe929cf9	-0.28635386
206	0x3d9cb681	0.07651997
207	0xbd54a6a3	-0.05191673
208	0x3d16c3a0	0.036807656
209	0xbe498c42	-0.1968241
210	0xbeab72df	-0.33486077
211	0xbde95375	-0.11392871
212	0xbd8c5f8b	-0.06854161
213	0xbdc96d96	-0.09835355
214	0xbd88dd0f	-0.066827886
215	0xbcf34555	-0.029696146
216	0xbd410f8d	-0.04713397
217	0xbd3f102d	-0.046646286
218	0xbdfce73d	-0.12348793
219	0x3d05560a	0.032552756
220	0x3de2459f	0.110484354
221	0xbd8f088f	-0.06984054
222	0xbb8152e5	-0.0039466494
223	0x3d519a60	0.051172614
224	0x26a0affd	1.1149932e-15
225	0xbd9bf300	-0.07614708
226	0xbd4a99b9	-0.049463008
227	0xbd805635	-0.06266443
228	0x3cfcf974	0.030880667
229	0xba993484	-0.0011688625
230	0x1ff6bed0	1.04500725e-19
231	0xbe1cd473	-0.15315418
232	0x3db8d573	0.09025087
233	0x3e171754	0.14754993
234	0xbe53a336	-0.20667729
235	0xbe88315a	-0.26600152
236	0x3d24a3d5	0.040195305
237	0x3dd994bd	0.10624073
238	0x3e0af47f	0.1356983
239	0xbd64e5bd	-0.055883158
240	0x3e1008af	0.14065813
241	0xbe026518	-0.12733877
242	0xbdcd80c5	-0.100343265
243	0x3d80f635	0.0629696
244	0x3b1ef7f9	0.002425669
245	0xbe0b44d3	-0.13600473
246	0x3e0f9509	0.14021696
247	0x3e2bbf20	0.16772127
248	0x3d99de66	0.07513122
249	0x3eaac107	0.33350393
250	0x3c9c9728	0.019115046
251	0x3d4f7534	0.050648883
252	0x3d0d1444	0.034443155
253	0x3c25aa76	0.010111442
254	0x3e7b520e	0.2454302
255	0xb41567cf	-1.3914472e-07

base_model.3.bias f4 [64]
0	0xbcf5dfa1	-0.030013861
1	0xbb06dc58	-0.0020578112
2	0xbb40c024	-0.00294114
3	0xbb666e94	-0.0035161125
4	0xbcab2f55	-0.020896593
5	0xbcbd1a2e	-0.023083773
6	0x3cdc60aa	0.026901562
7	0x3d98b5e9	0.074565716
8	0x3cc6fe84	0.024291284
9	0x3d8bce3f	0.06826448
10	0x3cdb081e	0.026737269
11	0x3d4e9281	0.050432686
12	0x3c657133	0.01400404
13	0x3ccf4954	0.02530352
14	0x3dce014f	0.10058843
15	0x3d64d505	0.055867214
16	0x3cf51c8c	0.029920839
17	0xbc46e2d0	-0.012139037
18	0x3cafc347	0.02145542
19	0x3d0620e9	0.03274623
20	0xbca42dd0	-0.020041376
21	0x3d88ca41	0.06679202
22	0x3d47cd65	0.048779864
23	0x3d11ec43	0.035625707
24	0x3cff54d5	0.03116838
25	0xbb05450c	-0.0020335345
26	0x3d996cc4	0.074914485
27	0xbc8ca464	-0.017168231
28	0xbce931e6	-0.028466176
29	0x3d2a22f4	0.04153724
30	0xbc9104b5	-0.01770244
31	0x3d4f340c	0.050586745
32	0x3d21e16f	0.03952163
33	0xbca88423	-0.02057082
34	0xbd0007c3	-0.031257402
35	0xbb5cbc6c	-0.0033681644
36	0xbd10818a	-0.035279788
37	0x3d1b248f	0.037876662
38	0x3d80bc22	0.062858835
39	0xbb43f515	-0.002990072
40	0x3cfeab8a	0.031087656
41	0xbc6735ae	-0.014111919
42	0x3d2e560c	0.04256253
43	0x3cca47b3	0.024692392
44	0xbced4a2a	-0.028966028
45	0xbc8ee245	-0.017441878
46	0xbbaa8cd6	-0.0052047772
47	0xbc8c798d	-0.017147804
48	0x3d5f6f15	0.054549295
49	0x3d658e6e	0.056044035
50	0xbb8befc0	-0.004270524
51	0x3b122060	0.002229713
52	0x3c8fa27d	0.017533535
53	0x3bcd5d22	0.006267206
54	0xbd084007	-0.033264186
55	0x3dbc34f2	0.09189786
56	0x3d83fb13	0.06444373
57	0x3a9027b6	0.0010998163
58	0xbce54668	-0.027987674
59	0xbc8fca94	-0.017552651
60	0x3d273995	0.0408264
61	0x3d1e1483	0.03859378
62	0x3cfaae92	0.03060082
63	0x3cf8722b	0.030327877

base_model.6.weight f4 [2, 64]
0	0xbe2d3810	-0.16915917
1	0x3e40e48a	0.1883718
2	0xbe5e6535	-0.21718295
3	0xbe7d37de	-0.24728343
4	0xbe86f0c5	-0.26355568
5	0xbe4f1197	-0.20221554
6	0x3e624ed9	0.2210039
7	0x3e811b95	0.25216356
8	0xbdf8620d	-0.12128077
9	0x3cbd560f	0.023112325
10	0x3dca162c	0.0986751
11	0x3e6b4539	0.22975625
12	0xbdb9f683	-0.090802215
13	0x3e27eedc	0.16399711
14	0x3df3b431	0.11899603
15	0xbd03cd4d	-0.032178212
16	0x3dd3fd00	0.1035099
17	0x3d1163df	0.035495635
18	0xbe550fd1	-0.20806815
19	0xbc8f14d7	-0.017465992
20	0xbd2eb8ea	-0.042656817
21	0x3d0f4bd8	0.03498444
22	0x3e54c47a	0.20778075
23	0xbe346acb	-0.17618863
24	0x3a402d47	0.00073309656
25	0xbcf9eb05	-0.030507574
26	0x3dc3e839	0.09565777
27	0x3e2e51db	0.17023413
28	0x3d8cdf98	0.068785846
29	0x3c80df4c	0.015731476
30	0xbda791b0	-0.081820846
31	0x3db48da0	0.08816075
32	0x3e84a209	0.25904873
33	0x3d1514f4	0.036396936
34	0xbe21f69e	-0.15816733
35	0x3c6aa3ff	0.014321326
36	0xbe31dffc	-0.173706
37	0x3d35978b	0.044333976
38	0x3e0a35c2	0.1349707
39	0xbda1be52	-0.07897629
40	0x3e449138	0.19196022
41	0x3e2c5384	0.16828734
42	0x3e5b9a2e	0.21445534
43	0xbdcb01e7	-0.09912472
44	0xbc10f5f5	-0.008847703
45	0xbe6a8424	-0.2290197
46	0x3d80331f	0.062597506
47	0xbdd955a2	-0.10612036
48	0x3db697cf	0.08915674
49	0x3d64b1c9	0.05583361
50	0xbe8558e5	-0.26044384
51	0xbdb2e003	-0.08734133
52	0x3dbaffaf	0.09130799
53	0xbda8d306	-0.082433745
54	0xbd1a7a06	-0.037714027
55	0x3e1f788c	0.15573329
56	0x3d847818	0.064682186
57	0xbdb3a2d7	-0.087712936
58	0xbc7eaa38	-0.015543513
59	0x3dba29b3	0.09089985
60	0x3ce0e04e	0.027450707
61	0x3d3317cd	0.04372387
62	0xbd7f2452	-0.062290497
63	0xbd0bb8fe	-0.03411197
64	0xb97346f5	-0.0002320072
65	0xbe46058c	-0.19338053
66	0x3ca850eb	0.020546397
67	0xbe0341e0	-0.12818098
68	0xbe600b89	-0.218794
69	0xbdca70f1	-0.09884823
70	0x3e1177d4	0.14205867
71	0x3eae6257	0.34059402
72	0x3e3b950a	0.18318573
73	0x3e66d0b3	0.2254055
74	0x3e0b9e66	0.13634643
75	0x3d5c04e3	0.053715598
76	0x3ea8883e	0.32916445
77	0x3c9ec6d7	0.019381924
78	0x3dd19961	0.10234333
79	0x3e8c29bf	0.273756
80	0x3e881d74	0.2658497
81	0xbdbfc8b3	-0.09364452
82	0xbe474c4a	-0.19462696
83	0x3d681ef2	0.056670137
84	0xbcc91b13	-0.024549043
85	0x3e7cfed5	0.24706586
86	0x3d7a5c9a	0.061123468
87	0x3e3e154d	0.18562813
88	0x3dfaf8f0	0.12254512
89	0xbde5a298	-0.11212653
90	0x3d7c24ec	0.06155865
91	0xbe4f5797	-0.20248257
92	0xbd6a127c	-0.057146534
93	0x3e1a62e8	0.15076792
94	0xbe239c1b	-0.15977518
95	0x3ddf5112	0.10904135
96	0x3de36bc7	0.11104541
97	0xbddc0c65	-0.107445516
98	0xbe9db520	-0.3080225
99	0xbb7e5210	-0.0038806237
100	0xbdb02676	-0.08601086
101	0x3ddb0486	0.10694222
102	0x3d8194dd	0.063272215
103	0xbde2b22f	-0.11069142
104	0x3e419dd7	0.18907867
105	0xbcc3677a	-0.023853052
106	0x3c8d45e2	0.017245237
107	0x3dea362d	0.114361145
108	0xbd4faf2f	-0.050704177
109	0xbdaa4431	-0.08313788
110	0xbe1637d5	-0.14669736
111	0xbe0d831a	-0.13819543
112	0x3dfa517b	0.122225724
113	0x3df8a97e	0.12141703
114	0x3dd943a0	0.106086016
115	0x3d990f55	0.074736275
116	0x3bb6768a	0.00556833
117	0xbe4bae52	-0.19890717
118	0xbd90e8f8	-0.07075685
119	0x3ddc8236	0.10767023
120	0x3e19c81f	0.15017746
121	0x3ce7553d	0.028238887
122	0xbe668f32	-0.22515562
123	0xbe212a34	-0.15738755
124	0x3e4d8add	0.20072503
125	0x3e37b78e	0.17941114
126	0x3dd1591d	0.10222075
127	0x3d0a13b1	0.033710185

base_model.6.bias f4 [2]
0	0x3d73bf4f	0.059508618
1	0x3d2987d5	0.041389305
