VRCP_Classification/Checkpoints/cifar10CNN.pth (torch, 306255 bytes, 8 tensors)

0.weight f4 [16, 3, 4, 4]
0	0xbdd6f442	-0.10495807
1	0x3d97a325	0.07404164
2	0xbe444f24	-0.19170815
3	0xbe80d373	-0.25161323
4	0x3e1d19bf	0.15341853
5	0x3f2e4282	0.6807023
6	0x3eddd980	0.43330002
7	0xbdfd3bac	-0.12364897
8	0x3e37398c	0.17893046
9	0x3efc3063	0.49255666
10	0x3f119959	0.56874615
11	0x3ec92cda	0.39292032
12	0xbdbcbb8f	-0.092154615
13	0xbe149f5d	-0.14513917
14	0x3bee6733	0.007275486
15	0x3ea7feeb	0.32811674
16	0x3d1893b6	0.037250243
17	0x3e984fee	0.29748482
18	0x3d33568f	0.04378372
19	0xbdfe92d1	-0.12430347
20	0x3dc2268f	0.09480011
21	0x3f2af62f	0.66781896
22	0x3ed7672e	0.42070907
23	0xbe7ced3e	-0.24699876
24	0xbda07759	-0.07835264
25	0x3e696e2d	0.22795935
26	0x3e8cdaa2	0.27510554
27	0x3d1117a4	0.035422936
28	0xbe752db0	-0.2394321
29	0xbe9ac7d0	-0.3023057
30	0xbe51113b	-0.20416729
31	0x3d7ec781	0.06220198
32	0xbcf43547	-0.02981056
33	0x3e951691	0.2911878
34	0x3bd9e7df	0.0066499556
35	0xbe7f1380	-0.24909782
36	0x3dce60fb	0.10077091
37	0x3f2a0e34	0.6642792
38	0x3ec3b1cb	0.38221583
39	0xbeb39e9e	-0.35081953
40	0xbd25c9d1	-0.04047567
41	0x3e5b1c17	0.21397434
42	0x3e4e720f	0.20160697
43	0xbdbcaa4a	-0.092121676
44	0xbe51d2d8	-0.20490587
45	0xbe9a12f2	-0.3009258
46	0xbe8c9485	-0.2745706
47	0xbdbc7ba9	-0.09203274
48	0xa1732737	-8.2383503e-19
49	0xa1255493	-5.601611e-19
50	0x2064ceb8	1.9380749e-19
51	0x219d2443	1.0648332e-18
52	0x20ab27b4	2.89948e-19
53	0xa14b50ec	-6.8886175e-19
54	0xa074bc1d	-2.0729845e-19
55	0x21632639	7.696118e-19
56	0x20f1193c	4.0843687e-19
57	0xa1661f5f	-7.796855e-19
58	0x1fde6578	9.418852e-20
59	0xa1c08499	-1.3045524e-18
60	0xa136bbb8	-6.191244e-19
61	0xa1ab9de7	-1.1629207e-18
62	0xa173a1ac	-8.2545573e-19
63	0xa1a6d254	-1.1304271e-18
64	0xa0eca685	-4.0090148e-19
65	0xa1d7ed6b	-1.4631811e-18
66	0xa002d65b	-1.1082353e-19
67	0xa09b7473	-2.633508e-19
68	0xa2041468	-1.7900139e-18
69	0xa1896f78	-9.312987e-19
70	0xa1bd2f91	-1.2819729e-18
71	0xa1e9fb6a	-1.5855243e-18
72	0xa1ed9775	-1.6099835e-18
73	0xa21bcaa8	-2.1113702e-18
74	0xa245787e	-2.6762267e-18
75	0xa239fe6e	-2.520687e-18
76	0xa201e50c	-1.7604016e-18
77	0xa23528a4	-2.455159e-18
78	0xa2434f99	-2.6469567e-18
79	0xa1df41c9	-1.5128481e-18
80	0x20c0771e	3.260489e-19
81	0x2182c691	8.861703e-19
82	0x2102c479	4.4305743e-19
83	0x2081158f	2.1867716e-19
84	0x9f74a168	-5.1802522e-20
85	0x2156136d	7.253173e-19
86	0x21250e36	5.592298e-19
87	0xa1cd7231	-1.3921567e-18
88	0x20eeb398	4.0437613e-19
89	0xa0f046be	-4.0704395e-19
90	0x204d81d5	1.7407133e-19
91	0xa16f823b	-8.114871e-19
92	0xa1fd978c	-1.7184061e-18
93	0xa21be2ca	-2.1126478e-18
94	0xa206748d	-1.8222088e-18
95	0xa20786cd	-1.8367275e-18
96	0xbcc2e9b0	-0.023793072
97	0x3e8531f4	0.26014674
98	0x3e962057	0.29321548
99	0x3eb0be8e	0.34520382
100	0xbe3f2584	-0.18666655
101	0xbe27d504	-0.16389853
102	0xbeee9d1d	-0.46604243
103	0xbe96df0c	-0.29467046
104	0xbf0c8170	-0.54885006
105	0xbf5226e8	-0.82090616
106	0xbf7fe206	-0.9995426
107	0xbf0b81a7	-0.5449471
108	0xbe8a12a9	-0.26967362
109	0xbec29096	-0.38000935
110	0xbeb7ff85	-0.35937133
111	0xbcc22675	-0.023699978
112	0x3d9ac21d	0.075565554
113	0x3ee5a88e	0.4485516
114	0x3f14355a	0.5789391
115	0x3ebaad99	0.3646057
116	0x3e702a00	0.23453522
117	0x3eacd3dd	0.3375539
118	0x3db897d3	0.09013333
119	0xbd945a26	-0.07243757
120	0xbc748b76	-0.014925828
121	0xbe80c77a	-0.2515219
122	0xbed5eb36	-0.41781014
123	0xbea3643a	-0.31912404
124	0xbde77a1b	-0.11302587
125	0xbe6db69a	-0.23214188
126	0xbe4a9534	-0.19783479
127	0xbe1952ff	-0.14973067
128	0xbd0113f2	-0.031513162
129	0x3eac1cd1	0.33615735
130	0x3f105d6f	0.5639257
131	0x3dc82a8c	0.0977374
132	0x3f027f28	0.50975275
133	0x3f1fb6b4	0.6238816
134	0x3ee0878e	0.4385342
135	0xbd694924	-0.056954518
136	0x3f0c6dee	0.5485524
137	0x3e9e9897	0.30975792
138	0x3e20bad2	0.15696266
139	0xbe074542	-0.13210014
140	0x3e683331	0.22675778
141	0x3d5ebb1f	0.05437767
142	0x3da24d80	0.07924938
143	0xbe33beb9	-0.17553224
144	0x3f079d15	0.52974063
145	0x3eb9bca0	0.36276722
146	0xbef4187f	-0.4767494
147	0xbedb9321	-0.42885688
148	0x3f1a7d16	0.60347116
149	0xbf59c96c	-0.8507297
150	0xbf249636	-0.64291704
151	0x3f161733	0.5862915
152	0xbf202c0e	-0.6256722
153	0xbf4a0605	-0.78915435
154	0x3f17c951	0.5929156
155	0x3f48fdb3	0.78512114
156	0xbeb5bf94	-0.35497725
157	0x3ee0a6b4	0.43877184
158	0x3f41f6bf	0.7576713
159	0xbf01e757	-0.5074362
160	0x3f15c2ea	0.5850054
161	0x3eb6e9f8	0.3572538
162	0xbf02f4d3	-0.5115482
163	0xbed56f8a	-0.4168666
164	0x3f0c1ffb	0.547363
165	0xbf6bd29e	-0.9211825
166	0xbf350b9f	-0.7072086
167	0x3f13faa6	0.57804334
168	0xbf41efe1	-0.7575665
169	0xbf5ab6f3	-0.8543541
170	0x3f13c62e	0.57724273
171	0x3f56beb8	0.83884764
172	0xbeeb5591	-0.4596372
173	0x3ee264f3	0.44217643
174	0x3f56e38d	0.83940965
175	0xbea2b0ba	-0.31775457
176	0x3f3931e6	0.72341764
177	0x3edf9bff	0.43673703
178	0xbed85c31	-0.42257836
179	0xbec20775	-0.37896314
180	0x3f09e0ed	0.53858835
181	0xbf75701c	-0.9587419
182	0xbf4b8ffa	-0.79516566
183	0x3eda4199	0.42628172
184	0xbf4a9cad	-0.7914532
185	0xbf7328b6	-0.94983995
186	0x3ee840de	0.4536199
187	0x3f48c92b	0.7843196
188	0xbeda7953	-0.42670688
189	0x3ed6e82b	0.41974005
190	0x3f68f280	0.90995026
191	0xbd82dcf7	-0.06389802
192	0xbdff29f1	-0.124591716
193	0xbdc86292	-0.09784426
194	0x3e7c8868	0.2466141
195	0x3ee5a5f0	0.44853163
196	0x3e53f5b4	0.20699197
197	0xbc46cb45	-0.012133424
198	0xbe863790	-0.26214266
199	0x3e3699e2	0.17832139
200	0x3f0d1e0d	0.5512398
201	0x3e5b8bd8	0.21440065
202	0xbefb8de8	-0.49131703
203	0xbe7a3017	-0.24432407
204	0x3e3c8cfe	0.18413159
205	0xbd42bd7a	-0.04754398
206	0xbededc66	-0.43527526
207	0xbe47b05e	-0.19500872
208	0xbc813072	-0.01577017
209	0xbe40225f	-0.18763112
210	0xbc8761d1	-0.016526135
211	0x3ddfc414	0.10926071
212	0x3f0dffa4	0.554682
213	0x3dc0d746	0.0941606
214	0xbebc29c7	-0.36750624
215	0xbd73951b	-0.05946837
216	0x3f6cdee1	0.92527586
217	0x3eb81100	0.3595047
218	0xbf05812c	-0.52150226
219	0xbecfc7d2	-0.40582138
220	0x3f1f0907	0.6212315
221	0x3e5cc270	0.21558547
222	0xbe957848	-0.2919333
223	0xbe29d512	-0.16585186
224	0xbdbfc4a8	-0.09363681
225	0xbeca6374	-0.39529002
226	0xbebfc634	-0.37455904
227	0xbe79f30a	-0.24409118
228	0x3f0c432c	0.54789996
229	0xbc8f4daa	-0.017493088
230	0xbf175b8e	-0.59124076
231	0xbe97cd98	-0.29649043
232	0x3f71531f	0.9426746
233	0x3ea6988c	0.3253826
234	0xbf20ebbd	-0.6285971
235	0xbf108ab8	-0.5646167
236	0x3f4b92f1	0.7952109
237	0x3eb2cf33	0.34923705
238	0xbe7e4e3d	-0.24834533
239	0xbe54598b	-0.20737283
240	0xa1eb37b6	-1.5938966e-18
241	0x2089421d	2.3252453e-19
242	0xa1cb1a37	-1.3762754e-18
243	0xa1175985	-5.127927e-19
244	0x202cf69f	1.4650567e-19
245	0xa1b99113	-1.2574488e-18
246	0xa145bed5	-6.699876e-19
247	0xa187e6c0	-9.209035e-19
248	0x20a5695e	2.8021813e-19
249	0xa08fff09	-2.439391e-19
250	0xa17337a0	-8.240522e-19
251	0xa1d85746	-1.465983e-18
252	0xa14b9cd3	-6.898663e-19
253	0xa222812c	-2.2023477e-18
254	0x9f43f5b4	-4.1496097e-20
255	0xa1f75449	-1.6759681e-18

0.bias f4 [16]
0	0xbf5ce577	-0.86287636
1	0xa202052a	-1.762102e-18
2	0x3f1c957a	0.61165583
3	0x3dfefe0f	0.124508016
4	0x3e9ae4c9	0.30252674
5	0xa2814379	-3.503696e-18
6	0x3f9e73c7	1.2379082
7	0xa2b0ce76	-4.7923495e-18
8	0x3e3b73b8	0.18305862
9	0x3ee2f9f4	0.44331324
10	0xbce7e0ff	-0.028305529
11	0xa37c9c26	-1.3694013e-17
12	0xbe913646	-0.2836172
13	0x3daeab2e	0.08528744
14	0xa28ed5f3	-3.8715705e-18
15	0xbce84576	-0.028353434

2.weight f4 [32, 16, 4, 4]
0	0x3caf36ee	0.021388497
1	0x3de68725	0.112562455
2	0x3e1395fc	0.14412683
3	0xbcde8beb	-0.027166327
4	0x3d0435ee	0.032277994
5	0x3dabc518	0.08387202
6	0x3d93bc67	0.07213669
7	0xbc07cc00	-0.0082883835
8	0xbc5dc3ed	-0.013535482
9	0xbc7e94dc	-0.0155384205
10	0xbc6e9d09	-0.014563807
11	0xbde375a5	-0.11106423
12	0xbd90b50f	-0.07065784
13	0xbe168bde	-0.14701793
14	0xbe191e98	-0.14953077
15	0xbdf7c986	-0.120989844
16	0x20f57b62	4.1586262e-19
17	0x210887c3	4.625827e-19
18	0x211dc589	5.3455105e-19
19	0x1fa675e2	7.0498755e-20
20	0x212646df	5.6336785e-19
21	0x9f613dd4	-4.7696746e-20
22	0x1f5b2319	4.6404086e-20
23	0xa05e0842	-1.8806864e-19
24	0x20dc07b3	3.7274545e-19
25	0x21275bd2	5.6703324e-19
26	0x9f46a097	-4.2060968e-20
27	0x2072c7c2	2.0564292e-19
28	0x20da19e2	3.6947764e-19
29	0x216df852	8.0627373e-19
30	0x2111b404	4.936616e-19
31	0xa07bc545	-2.1325798e-19
32	0x3dbbb3a0	0.0916512
33	0x3dc29872	0.09501733
34	0x3db9f52f	0.09079968
35	0xbc954a37	-0.018223865
36	0xbcad668f	-0.021167068
37	0xbc9a328c	-0.01882293
38	0xbd26fc4a	-0.040767945
39	0xbd8bedd9	-0.06832475
40	0x3bc2c0c2	0.0059433887
41	0xbd4eca32	-0.050485797
42	0xbd68b91b	-0.056817155
43	0xbb7c4cd3	-0.003849794
44	0x3d0e055a	0.034673072
45	0xbdb4d2c8	-0.08829266
46	0xbd52860b	-0.051397365
47	0x3d9153f8	0.07096094
48	0xbc42b40c	-0.011883747
49	0x3cd6af3b	0.026206603
50	0xbb201b4d	-0.0024430335
51	0xbd507161	-0.050889377
52	0xbce5ac29	-0.028036194
53	0x3c9ffd9f	0.019530116
54	0x3cceeadc	0.025258474
55	0x3bab1e9a	0.005222154
56	0xbd793514	-0.060841635
57	0xbd8897e4	-0.06669596
58	0xbc90523c	-0.017617337
59	0xba7d2286	-0.00096563285
60	0xbdae12cd	-0.0849968
61	0xbdde7980	-0.10863018
62	0xbc8f549a	-0.017496396
63	0xbb4a0787	-0.003082724
64	0xbc1ba6f0	-0.00950025
65	0x3c0c4f1a	0.008563781
66	0xbd4174e9	-0.047230635
67	0xbd8969ba	-0.06709619
68	0x3d040acb	0.032236855
69	0xbcf55e82	-0.029952291
70	0xbdae026b	-0.08496555
71	0xbd8cb1c0	-0.068698406
72	0x3bb1bf65	0.0054244273
73	0xbc0586ea	-0.008149842
74	0xbc42b8be	-0.011884866
75	0x3ca8701e	0.020561274
76	0xbd1074ef	-0.035267767
77	0xbcf506fd	-0.029910559
78	0xbce6529d	-0.028115565
79	0xbce65e6b	-0.028121194
80	0x9f53e9c5	-4.4874358e-20
81	0xa12910b7	-5.728155e-19
82	0xa1159e25	-5.0692466e-19
83	0xa145cb4e	-6.701527e-19
84	0x21173c6c	5.124076e-19
85	0x1d6291fa	2.998632e-21
86	0xa0275c5c	-1.417601e-19
87	0x207fb3ba	2.1658807e-19
88	0x1fe9969b	9.8928494e-20
89	0x20496f65	1.706222e-19
90	0x20b5f6c9	3.0825901e-19
91	0xa08044f5	-2.1729675e-19
92	0xa0bffdf5	-3.2524713e-19
93	0x9fbbda1e	-7.9558425e-20
94	0x9f5165da	-4.434172e-20
95	0xa1365d12	-6.1787176e-19
96	0x3c61de2b	0.013785879
97	0x3d2bea73	0.041971635
98	0x3d85e18a	0.06537159
99	0x3d242444	0.040073648
100	0xbd8a536c	-0.06754193
101	0xbd8d8b45	-0.06911329
102	0xbcd9b884	-0.026577242
103	0xb9939829	-0.00028151393
104	0xbdce2b52	-0.100668564
105	0xbdb5578b	-0.08854588
106	0xbd6d38fb	-0.05791567
107	0xbd0a657e	-0.033788197
108	0xbd94475d	-0.07240174
109	0xbbc400b5	-0.0059815296
110	0xbb8078ba	-0.0039206417
111	0x3ccde17e	0.025131937
112	0x212095c9	5.440835e-19
113	0x9f8b1841	-5.8908915e-20
114	0xa045c071	-1.6750223e-19
115	0x1f9b8dd9	6.587972e-20
116	0x211601c3	5.082431e-19
117	0xa087ac27	-2.298381e-19
118	0x9fe7c8f4	-9.8164754e-20
119	0x20c006af	3.2530488e-19
120	0x20da8c2f	3.7023402e-19
121	0x20500021	1.7618328e-19
122	0x20cba3fb	3.449805e-19
123	0x20fa700b	4.242579e-19
124	0x20aa650f	2.8865995e-19
125	0xa1176f91	-5.1308447e-19
126	0x1f876eef	5.735825e-20
127	0x1fcd5709	8.6964865e-20
128	0xbd5a85d0	-0.05335027
129	0xbcd9fc41	-0.026609542
130	0x3c5f7bf4	0.013640393
131	0xbc1c6d79	-0.009547585
132	0xbd860269	-0.065434285
133	0xbd1ebb95	-0.03875311
134	0xbd23040a	-0.039798774
135	0xbcd35ee2	-0.02580208
136	0xbc26bc32	-0.010176705
137	0xbc725542	-0.014790835
138	0xbb7b6f5c	-0.0038365936
139	0xbcb11f65	-0.021621415
140	0x3c98639c	0.018602185
141	0x3cf59b4c	0.029981278
142	0xbca6f1d2	-0.02037898
143	0xbd30e99c	-0.043191537
144	0xbeff2e12	-0.49839836
145	0xbf08187a	-0.5316235
146	0xbf06e3d8	-0.5269141
147	0xbed3fdb4	-0.41404498
148	0xbdf62d9b	-0.12020417
149	0x3d4718ad	0.048607517
150	0x3e211495	0.15730508
151	0x3da1e708	0.07905394
152	0x3e2319a2	0.15927747
153	0x3ef50763	0.47857198
154	0x3f1bb8dc	0.6082895
155	0x3e9adc6a	0.30246288
156	0x3cd6f7bc	0.026241176
157	0x3ea00abd	0.31258193
158	0x3ebd435d	0.36965457
159	0x3da64a40	0.08119631
160	0x3c87a50b	0.01655819
161	0x3d690594	0.056890085
162	0x3d5aa512	0.05338008
163	0x3c42a498	0.0118800625
164	0x3d742c5b	0.059612613
165	0x3c1d2ab4	0.009592701
166	0x3ccc982b	0.024974903
167	0x3c18fb0d	0.009337199
168	0xbb99e556	-0.0046965284
169	0xbc8acae9	-0.016942458
170	0xbc9287c6	-0.017887007
171	0xbc3e52a5	-0.011616384
172	0x3c903edf	0.017608104
173	0xbc17e0f7	-0.009269944
174	0x3d7f3cc9	0.06231383
175	0x3dd52ae7	0.104085736
176	0xa0e518dc	-3.881056e-19
177	0x21a9a3bd	1.1495227e-18
178	0x21a80aab	1.1386947e-18
179	0x21a3e0eb	1.1104845e-18
180	0xa081dc55	-2.1999254e-19
181	0x220f3a55	1.9410995e-18
182	0x2238d1c8	2.5047707e-18
183	0x21fba7c7	1.7052832e-18
184	0xa19c9c76	-1.0612386e-18
185	0x21af3f49	1.1875213e-18
186	0x21d5b276	1.448068e-18
187	0x2028ddbc	1.4303519e-19
188	0x9f343f87	-3.816903e-20
189	0x218feb9d	9.752423e-19
190	0x218d92e5	9.593414e-19
191	0x1fb27cd2	7.559243e-20
192	0x3c96e273	0.018418526
193	0x3dd57f0b	0.10424622
194	0x3c896e1b	0.016776135
195	0xbbb857c7	-0.0056256982
196	0x3d103004	0.03520204
197	0x3da6f573	0.081522845
198	0x3c37c7b2	0.011217045
199	0x386563a5	5.4690656e-05
200	0x3d8111e5	0.06302241
201	0x3d8a2b39	0.06746525
202	0x3d18db1b	0.03731833
203	0x3d8d21be	0.068912014
204	0xbd9281ed	-0.071536876
205	0xbdc063b0	-0.09394014
206	0xbd8c8596	-0.06861417
207	0x3c9020ae	0.017593708
208	0x3e744db6	0.2385777
209	0x3e7fd6a9	0.2498423
210	0x3e56e9a4	0.20987564
211	0x3e1af4fb	0.15132515
212	0x3aed9537	0.0018126135
213	0xbd4463c1	-0.047946695
214	0xbdb072fa	-0.0861568
215	0xbdece976	-0.11567967
216	0xbe259bb2	-0.16172674
217	0xbe7286c4	-0.23684222
218	0xbe834a3a	-0.25642568
219	0xbe588bd3	-0.21147089
220	0xbd883a19	-0.06651706
221	0xbe44c0b8	-0.19214141
222	0xbe371a34	-0.1788109
223	0x3b5f7789	0.0034098348
224	0xa06618f5	-1.9490015e-19
225	0x9fd9b815	-9.220761e-20
226	0xa090702e	-2.4468783e-19
227	0xa1821574	-8.814821e-19
228	0xa02dd11f	-1.4722862e-19
229	0x9f75a8f7	-5.2020532e-20
230	0xa0c4dd4f	-3.335014e-19
231	0xa1092e2c	-4.6478513e-19
232	0xa0ffed5f	-4.335576e-19
233	0xa0cc22c5	-3.4581953e-19
234	0x9ebbce2c	-1.9884666e-20
235	0xa09aac30	-2.620256e-19
236	0x9fb242ce	-7.549645e-20
237	0x9fcf0fd9	-8.769413e-20
238	0xa1b37a0d	-1.2161818e-18
239	0xa099169a	-2.5934165e-19
240	0x3d741196	0.059587084
241	0x3d3c35f1	0.04594988
242	0x3ccccaa4	0.02499897
243	0x3d232f7a	0.0398402
244	0x3a3a8ea6	0.0007116593
245	0x3ca1472f	0.019687263
246	0x3b4b20b1	0.0030994827
247	0x3d1ed88b	0.03878073
248	0xbc8a77d4	-0.016902842
249	0xbcb74303	-0.02237082
250	0xbc16f76b	-0.0092142625
251	0xbcab53f6	-0.02091406
252	0x3d21baf7	0.039484944
253	0x3d3be97b	0.04587696
254	0x3d998cda	0.074975684
255	0x3d1d0795	0.03833731

2.bias f4 [32]
0	0xbe90fc12	-0.28317314
1	0x3e76d07d	0.2410297
2	0x3f5e4d8f	0.86837095
3	0x3e0fdbab	0.1404864
4	0xbed883e4	-0.42288125
5	0xbcaec39d	-0.02133351
6	0x3e40a05f	0.18811177
7	0xbf1bf311	-0.60917765
8	0x3dff2ace	0.12459336
9	0x3e35533a	0.1770753
10	0x3db0fd64	0.086420804
11	0x3e66764a	0.22506061
12	0x3f0a8fe7	0.5412583
13	0xbe2f2779	-0.17104901
14	0xbec8a2a9	-0.391866
15	0xbdefff0b	-0.117185675
16	0xbe89acca	-0.2688964
17	0x3e95b75d	0.29241458
18	0x3e687883	0.22702222
19	0xa26e7e64	-3.2321925e-18
20	0xbd43064f	-0.04761344
21	0xbce3c529	-0.027803974
22	0x3cb14f04	0.021644123
23	0xbe93b1d2	-0.28846604
24	0x3f82ab0a	1.0208447
25	0xa2a36b77	-4.429502e-18
26	0x3ef57c83	0.47946557
27	0x3e054317	0.13013874
28	0xbda15eee	-0.078794345
29	0xbd9ba678	-0.07600111
30	0x3dfcdaec	0.123464435
31	0x3d392ad7	0.04520687

7.weight f4 [128, 512]
0	0x3d323d79	0.043515656
1	0x3d82d24b	0.063877665
2	0x3d866ae0	0.065633535
3	0x3d53b715	0.051688273
4	0x3d641cf0	0.05569166
5	0x3d6475e0	0.055776477
6	0x3d364ee6	0.044508837
7	0x3d21a8a5	0.039467473
8	0x3d003db4	0.031308845
9	0x3c48e202	0.012260916
10	0x3cbc3e67	0.022978975
11	0x3c55e4bc	0.013055023
12	0x3cd52421	0.026018204
13	0x3d14683d	0.036232222
14	0x3cf68af8	0.030095562
15	0xbac4758b	-0.0014988644
16	0xbb578534	-0.0032885792
17	0x3cdc9257	0.026925249
18	0xbc9ff39b	-0.01952534
19	0xbca4e9eb	-0.020131072
20	0x3c9fc6b4	0.019503929
21	0x3c7ddd25	0.0154946195
22	0xbd42e761	-0.04758394
23	0x3c8aca81	0.016942265
24	0x3bd9ca07	0.006646398
25	0xba0d97d8	-0.00054013496
26	0x3c8d29ca	0.01723184
27	0x3d70b7c0	0.058768988
28	0x3d952d3c	0.072840184
29	0x3d8632ae	0.06552635
30	0x3d9b0d73	0.075709246
31	0x3dcd4416	0.10022752
32	0x3cc7cc27	0.02438934
33	0x3cef7a6c	0.02923318
34	0x3ce8018f	0.028321056
35	0xbb38ca69	-0.0028196818
36	0x3d03167d	0.03200387
37	0xbc8688bf	-0.016422627
38	0x3d5c1c85	0.053738136
39	0xbc3578d5	-0.011076172
40	0x3daf567c	0.085614175
41	0xb92c457c	-0.00016429083
42	0x3bf402a4	0.007446604
43	0xbc9b505d	-0.018959219
44	0x3db57613	0.088604115
45	0x3cf96bed	0.03044697
46	0xbc544b2a	-0.012957374
47	0x3a940575	0.001129313
48	0x3cac0cb1	0.021002145
49	0x3b07165e	0.0020612697
50	0xbd819ae5	-0.06328372
51	0xbce88352	-0.02838293
52	0xbe1cc79a	-0.15310517
53	0xbdfb6cbf	-0.12276601
54	0xbe10e04b	-0.14148061
55	0xbd9a0f4c	-0.07522449
56	0xbdc16862	-0.094437376
57	0xbe16b6eb	-0.14718215
58	0xbdde2162	-0.10846211
59	0xbd8742d7	-0.066045456
60	0x3b1084ca	0.0022051805
61	0xbd9fc5f1	-0.07801426
62	0xbd1001d1	-0.035157982
63	0x3b53afc3	0.0032300807
64	0x3df2bd1b	0.11852475
65	0x3d9d08e0	0.076677084
66	0x3d99b766	0.075056836
67	0x3dc88884	0.09791663
68	0x3dc86178	0.09784216
69	0x3cf8b350	0.03035894
70	0x3d5df431	0.054187957
71	0x3d9e3911	0.07725728
72	0x3ca7f073	0.020500397
73	0xbc921e35	-0.01783667
74	0x3cd0cff9	0.025489794
75	0x3d1942f1	0.037417356
76	0x3c9b9c11	0.018995317
77	0xbd3023dc	-0.04300295
78	0xbc6b36b1	-0.014356301
79	0x3c81d193	0.015847003
80	0x3cc41d3a	0.023939718
81	0xbd1df97f	-0.038568016
82	0xba8ea81f	-0.0010883844
83	0xbce13907	-0.027493013
84	0xbd3a36aa	-0.045462288
85	0xbe04d013	-0.12969999
86	0xbdedb1a3	-0.11606147
87	0xbe09668e	-0.13418028
88	0xbcebc1fb	-0.02877902
89	0xbdcd91fb	-0.10037609
90	0xbdf716cb	-0.12064894
91	0xbded8e3a	-0.11599393
92	0x3c129411	0.008946435
93	0xbd677fec	-0.05651848
94	0xbdaac33f	-0.083380215
95	0xbcabe9f3	-0.02098558
96	0x3d424678	0.047430485
97	0xbc933ad0	-0.01797238
98	0xbcbbf945	-0.02294601
99	0xbd24287a	-0.040077664
100	0x3d167b5f	0.03673875
101	0x3bd5f743	0.00652972
102	0x3b8e1495	0.0043359497
103	0xbcee8e93	-0.029120719
104	0x3d0092e7	0.031390097
105	0xbd08f73f	-0.033438917
106	0x3c3aa68d	0.011392248
107	0xbbdea5f4	-0.0067946855
108	0x3c4b4e8a	0.012408862
109	0x3cf2db6d	0.029645646
110	0x3b1aaed3	0.0023602739
111	0x3a957f07	0.0011405655
112	0x3d26fb5d	0.040767062
113	0x3bf7764e	0.007551945
114	0xbd2e5c3c	-0.04256843
115	0x3cca137a	0.02466749
116	0x3cb389ff	0.021916388
117	0xbca57eec	-0.020202123
118	0xbc58a7a2	-0.0132235605
119	0x3ca1c7e6	0.01974864
120	0xbce7a61c	-0.02827745
121	0xbdb10243	-0.086430095
122	0xbd68aee7	-0.056807425
123	0xbb4ac9e1	-0.0030943083
124	0xbc786b5e	-0.015162317
125	0xbda9d998	-0.08293456
126	0xbd363275	-0.044481713
127	0x3a7e3ae6	0.00096981076
128	0x3d5328bb	0.051552515
129	0x3cc51417	0.024057431
130	0x3d02648d	0.031834174
131	0x3cc7b224	0.024376936
132	0x3b30e617	0.0026992613
133	0x3c3a3253	0.011364537
134	0xbc4e69a6	-0.012598431
135	0x3bf32135	0.00741973
136	0x3cabeadb	0.020986011
137	0x3ba3d809	0.0050001186
138	0x3b95fa17	0.004576932
139	0x3d1090c5	0.035294313
140	0x3cd8dc71	0.026472302
141	0xbd767e96	-0.060179316
142	0x3c46ef1e	0.012141971
143	0x3d46e446	0.048557542
144	0x3d2a5612	0.04158599
145	0xbd345afa	-0.044032075
146	0xbc8f1129	-0.017464237
147	0x3d4117bd	0.04714178
148	0x3c1b42a1	0.009476335
149	0xbd02e932	-0.031960674
150	0xbbf1e217	-0.0073816883
151	0x3d343365	0.043994326
152	0x3d29146f	0.041279253
153	0x3c448ada	0.011995995
154	0xbca30e48	-0.01990427
155	0x3cf7b1bb	0.030236116
156	0x3d3ed523	0.04658998
157	0xbbc03c2f	-0.0058665494
158	0x3c9072c0	0.017632842
159	0x3d8eacf8	0.06966585
160	0xba029717	-0.00049816206
161	0x3d2f79be	0.04284071
162	0xbaaf5c7c	-0.0013379003
163	0x3d5aecf7	0.053448644
164	0x3c78a8bf	0.015176951
165	0x3ca528ba	0.020161022
166	0xbd83043b	-0.06397291
167	0xbc228287	-0.009918815
168	0xbd16402f	-0.036682304
169	0xbc4fe14c	-0.012687992
170	0x3c93456e	0.017977443
171	0xbb2d37bf	-0.0026430932
172	0xbbaba29b	-0.00523789
173	0xbd7441d8	-0.059633106
174	0x3ce52948	0.027973786
175	0x3ce5513b	0.027992835
176	0xbc23b08f	-0.009990825
177	0x3c135d94	0.008994479
178	0x3dac5cec	0.08416161
179	0x3cae756b	0.021296224
180	0xbcdd822b	-0.027039608
181	0xbbf73697	-0.0075443494
182	0x3d964b35	0.07338563
183	0x3b8d33b7	0.0043091434
184	0xbb581b80	-0.0032975376
185	0x3d631bea	0.055446543
186	0x3d434459	0.047672603
187	0x3ca14307	0.019685281
188	0xbc22c348	-0.009934254
189	0xbcdce8ec	-0.026966535
190	0x3cdbcbb9	0.026830541
191	0x3b856f82	0.0040721307
192	0xbc2d770e	-0.010587467
193	0xba8d71ae	-0.0010791325
194	0xbd14607c	-0.036224827
195	0x3d0b83b7	0.03406116
196	0xbca9e130	-0.02073726
197	0x3db5793a	0.08861013
198	0xbcbcf16b	-0.023064336
199	0x3ce4c3ff	0.02792549
200	0x3d1942e6	0.037417315
201	0x3dd32367	0.10309487
202	0x3dcdf5de	0.10056661
203	0x3d67cf6b	0.056594294
204	0x3cf747eb	0.03018566
205	0x3d513df9	0.051084492
206	0x3db25170	0.08706939
207	0x3d534992	0.051583834
208	0x3d35be0d	0.0443707
209	0xbade2a62	-0.0016949887
210	0x3c81c157	0.015839262
211	0xbc20f028	-0.009822883
212	0xbcdfb9d2	-0.027310286
213	0xbcf9800f	-0.03045657
214	0x3c5c91e0	0.013462514
215	0x3d1b5e4d	0.03793173
216	0xbcd624fe	-0.026140686
217	0xbd349612	-0.04408843
218	0xbc886061	-0.01664752
219	0x3d9df5ba	0.07712884
220	0x3baee2c2	0.00533709
221	0xbcb88066	-0.022522163
222	0xbb88a254	-0.0041697416
223	0x3d3dcff2	0.04634089
224	0x3c76b6c6	0.015058225
225	0xbca5c578	-0.020235762
226	0x3cdb7c5f	0.026792703
227	0x3d12f0e1	0.03587425
228	0xbd00d484	-0.03145267
229	0xbc657cb7	-0.014006785
230	0xbc703a93	-0.014662403
231	0xbcc503c4	-0.024049647
232	0x3c3a2234	0.011360694
233	0xbc116678	-0.008874528
234	0xbd54109d	-0.051773656
235	0xbd01095f	-0.031503078
236	0x3be79e77	0.007068451
237	0xbd330221	-0.043703202
238	0xbda3371d	-0.079694964
239	0x3bb3632d	0.005474469
240	0x3d1e78e5	0.038689513
241	0x3c83daf6	0.01609562
242	0x3c0ec8b8	0.008714847
243	0x3bd50bcf	0.006501652
244	0x3d50a0f6	0.050934754
245	0x3d52f1a3	0.051499974
246	0x3d00bb21	0.03142846
247	0x3da63c2c	0.081169456
248	0x3c7b6a2c	0.015345138
249	0xbc08447d	-0.00831711
250	0xbc61a1de	-0.013771502
251	0x3d7b0426	0.061283253
252	0x3d04460e	0.03229337
253	0xbd19d6c5	-0.037558336
254	0xbc2bc25a	-0.010483349
255	0x3d6092ab	0.054827373

7.bias f4 [128]
0	0x3f2d83cf	0.6777925
1	0x3e840005	0.25781265
2	0x3c3fc9db	0.011705841
3	0x3c08dd0e	0.008353485
4	0x3f67e434	0.90582585
5	0x3e79583b	0.24350064
6	0x3f144f53	0.5793354
7	0xbac461ac	-0.0014982722
8	0xbd44a835	-0.048011977
9	0x3f053613	0.52035636
10	0x3f0eb9e9	0.55752426
11	0xbef2fde2	-0.47459322
12	0xbdd736a1	-0.105084665
13	0x3dc59389	0.09647281
14	0x3dcfac47	0.10140281
15	0x3f3395ae	0.7015027
16	0x3e30d0bc	0.17267126
17	0x3edaa5f3	0.42704734
18	0xbdca1ea7	-0.09869128
19	0x3dc65431	0.09684027
20	0x3eabb1c8	0.33534074
21	0xbe97b25b	-0.29628262
22	0x3e1e3b7f	0.15452383
23	0x3e7bbb9b	0.24583285
24	0xbc0132e9	-0.007885673
25	0x3dd51b41	0.10405589
26	0xbd3a09a5	-0.045419354
27	0xbe988d35	-0.29795232
28	0x3e3dc91f	0.18533753
29	0xbdee0595	-0.116221584
30	0x3e7026ee	0.2345235
31	0x39f119ba	0.0004598627
32	0xbd5b082d	-0.053474594
33	0x3e5887ec	0.211456
34	0x3deddf02	0.11614801
35	0x3f06eedb	0.52708215
36	0x3e39c76c	0.1814248
37	0x3f899f04	1.0751653
38	0x3e814680	0.252491
39	0x3f2e6787	0.6812672
40	0x3ee31461	0.44351485
41	0xbe036bf9	-0.12834157
42	0xbec2fc83	-0.38083276
43	0x3f56485b	0.83704156
44	0x3f3dd89c	0.74158645
45	0x3f0144d2	0.50495636
46	0x3da019cd	0.07817421
47	0x3eb0c54a	0.3452552
48	0x3e936ace	0.28792423
49	0xbdb955c4	-0.090495616
50	0x3e439bd9	0.1910242
51	0x3eb2c6ef	0.349174
52	0xbea31d7b	-0.3185843
53	0x3da1b7a6	0.07896356
54	0x3d0327c4	0.032020345
55	0x3ec048f9	0.37555674
56	0x3efaaac4	0.4895841
57	0x3ea0862d	0.31352368
58	0x3ed9325d	0.42421237
59	0x3f20006a	0.6250063
60	0x3ea1d095	0.31604448
61	0x3eca287c	0.39484012
62	0x3e771fc4	0.24133211
63	0xbc5d15e0	-0.013493985
64	0xbd097986	-0.03356316
65	0xbdecafc5	-0.11556963
66	0x3df992b7	0.12186187
67	0x3ee6dd2b	0.45090613
68	0x3e1c40b9	0.15259065
69	0x3e94c85e	0.29059118
70	0x3e0a78fe	0.13522717
71	0xbe9deee8	-0.30846334
72	0x3ee28b2e	0.4424681
73	0x3ecb894b	0.39753184
74	0x3eda6617	0.42656013
75	0x3e1ee6a4	0.1551767
76	0x3e8e9e2f	0.2785506
77	0x3e885d88	0.2663386
78	0x3f39e600	0.7261658
79	0x3d9498ce	0.07255708
80	0x3e4804a2	0.19533017
81	0x3e547b3a	0.20750132
82	0x3eaf2e13	0.3421484
83	0x3e24852f	0.1606643
84	0x3eb78696	0.35844868
85	0x3ede3606	0.43400592
86	0xbdd68be4	-0.10475901
87	0x3ed0b39e	0.40762037
88	0xbdaf2b68	-0.08553201
89	0x3e7d554f	0.24739574
90	0x3e3d9a42	0.18515876
91	0x3e929ec9	0.28636768
92	0xbce11be2	-0.027479116
93	0xbee8aee1	-0.45445922
94	0xbdb9ed22	-0.090784326
95	0x3e87c1c4	0.2651502
96	0xbd99aebd	-0.07504032
97	0x3e92e61e	0.2869119
98	0x3e074b03	0.13212208
99	0xbdef4047	-0.11682182
100	0x3de96b4a	0.11397417
101	0xbe732a4c	-0.23746604
102	0x3b64e8f6	0.0034928895
103	0x3ee72234	0.45143282
104	0x3e8fae70	0.28062773
105	0xbb01fdaf	-0.0019835045
106	0x3e2fbec0	0.17162609
107	0x3dc24b7c	0.09487054
108	0x3e1d5951	0.15366103
109	0xbd04c69b	-0.032415967
110	0x3f13b2a8	0.5769448
111	0xbd6fb556	-0.058522545
112	0xbe0ef59b	-0.13960879
113	0xbe1984cf	-0.14992069
114	0x3ec0f40d	0.37686196
115	0xbe7db3b5	-0.24775584
116	0xbe06479c	-0.13113254
117	0x3db88039	0.090088315
118	0x3db1cfe8	0.08682233
119	0x3e2fd230	0.17170024
120	0x3cd24dbc	0.025671832
121	0x3f62707f	0.88452905
122	0xbc966dce	-0.018362906
123	0x3f2dde1c	0.67917037
124	0x3e333832	0.17501906
125	0x3e0aedff	0.13567351
126	0x3ddff459	0.109352775
127	0x3d84eb4d	0.064901926

9.weight f4 [10, 128]
0	0xbebdb991	-0.37055638
1	0x3ed1baa2	0.40962702
2	0xbde6ed8e	-0.11275779
3	0x3d17d003	0.03706361
4	0xbe9fbf11	-0.3120046
5	0x3dc61d94	0.0967361
6	0xbe3bdd42	-0.18346122
7	0x3e82ebaa	0.25570422
8	0xbe4fa132	-0.20276335
9	0xbe4fbbad	-0.20286436
10	0x3ea16223	0.31520185
11	0x3e5b889a	0.21438828
12	0xbe1769bd	-0.1478643
13	0xbe034cad	-0.12822218
14	0x3dc9a23b	0.09845396
15	0xbe0c97e1	-0.13729812
16	0xbe5aa095	-0.2135032
17	0xbe087ce2	-0.13328889
18	0xbdf1c86c	-0.118058056
19	0x3d2973dd	0.04137026
20	0xbe06f4c2	-0.13179305
21	0x3dd8d11d	0.1058676
22	0xbc8457d8	-0.016155168
23	0x3cc1ecf4	0.023672558
24	0xbea53204	-0.3226472
25	0xbe11b36c	-0.142286
26	0xbdd9af8b	-0.10629185
27	0xbc9cc26b	-0.019135674
28	0x3f142bf9	0.57879597
29	0x3e16e2d8	0.14734972
30	0x3e6a29b8	0.22867477
31	0x3f061967	0.5238251
32	0x3e6e0340	0.23243427
33	0x3da5b6ce	0.08091508
34	0x3e8a5c58	0.27023578
35	0xbe9b1460	-0.30288982
36	0xbe5d8be9	-0.21635403
37	0xbf3201ea	-0.6953417
38	0xbe4cbbe5	-0.19993551
39	0xbe7cd509	-0.24690641
40	0xbe642ce0	-0.22282743
41	0x3e476d72	0.19475344
42	0xbe7f4127	-0.24927197
43	0xbe29f9e9	-0.1659924
44	0x3dbeca1b	0.09315892
45	0xbd6f1169	-0.058366213
46	0xbe47263e	-0.19448182
47	0xbe3ef277	-0.1864718
48	0xbf0f6eae	-0.5602826
49	0x3daa4ee5	0.08315829
50	0x3d65ecb1	0.05613393
51	0x3c8d20ed	0.017227614
52	0xbd59ccdf	-0.053173896
53	0x3d9fae71	0.07796944
54	0xbe4ffe5b	-0.20311873
55	0xbe5cc94f	-0.21561168
56	0xbe3e6a31	-0.18595196
57	0xbb469541	-0.0030301365
58	0x3e022fdf	0.12713574
59	0x3c8a1577	0.016855938
60	0xbe00a679	-0.12563504
61	0x3e5f9148	0.21832764
62	0x3e9d23aa	0.30691272
63	0x3d95aa67	0.07307892
64	0xbe987b40	-0.29781532
65	0xbe1745eb	-0.14772765
66	0x3edfb728	0.43694425
67	0x3d995e79	0.07488722
68	0xbe9a3752	-0.3012033
69	0xbec97dc2	-0.39353758
70	0x3e34aa31	0.17643048
71	0xbe4b5f66	-0.1986061
72	0x3e2ff06a	0.17181554
73	0x3e6beba1	0.23039104
74	0x3f07919c	0.5295656
75	0x3e09ce3d	0.1345758
76	0xbe2efed0	-0.17089391
77	0xbe8a4d67	-0.27012178
78	0x3e82f3a6	0.25576514
79	0xbe64209e	-0.22278067
80	0x3f510da1	0.8166142
81	0xbdaddf1e	-0.08489822
82	0xbdcbc341	-0.09949351
83	0xbd85afb1	-0.06527651
84	0x3bd46973	0.006482297
85	0x3f11e2ea	0.5698687
86	0x3d3ab0e4	0.045578852
87	0xbecadf5e	-0.3962354
88	0x3e96ba52	0.29439026
89	0xbe2241dd	-0.15845437
90	0xbd1103f6	-0.035404168
91	0x3e9cc1f4	0.30616724
92	0x3f1594b4	0.5843003
93	0x3ea94518	0.33060527
94	0x3f0178b4	0.50574803
95	0x3e27935a	0.16364804
96	0xbd9a991f	-0.07548737
97	0x3dfaf10a	0.12253006
98	0x3f22f3d6	0.63653314
99	0xbd03eb92	-0.03220708
100	0xbeac5d3d	-0.33664885
101	0x3f188857	0.5958304
102	0x3e4a99da	0.19785252
103	0xbecbf027	-0.3983166
104	0xbe892d9f	-0.2679262
105	0x3d4ba628	0.049719006
106	0xbe1c6438	-0.15272605
107	0xbd63bc10	-0.055599272
108	0x3eae5196	0.3404662
109	0x3cd6c054	0.026214756
110	0xbe5af111	-0.21381022
111	0x3e36122f	0.17780374
112	0xbe001652	-0.12508515
113	0x3ef50f05	0.47863021
114	0xbddd9b39	-0.10820622
115	0x3cbd05f5	0.02307413
116	0x3f28e29c	0.6597078
117	0x3ed7ea59	0.4217098
118	0xbe2a5446	-0.1663371
119	0x3cf9e0d1	0.030502709
120	0xbe07bf02	-0.13256457
121	0xbe1a03ec	-0.15040559
122	0xbe2ceaaa	-0.16886392
123	0x3f04e90b	0.51918095
124	0x3ed33fd4	0.41259634
125	0x3efa7049	0.48913792
126	0xbcb0d7d3	-0.021587288
127	0xbdcf8660	-0.10133052
128	0xbe1feca5	-0.15617616
129	0xbd84eb30	-0.06490171
130	0xbe8ae066	-0.27124327
131	0xbeb3ebbb	-0.35140786
132	0xbea95e5c	-0.33079803
133	0x3e7a28bf	0.24429606
134	0xbeb8a49e	-0.36063093
135	0x3e3f6480	0.18690681
136	0x3f0c1f4b	0.5473525
137	0x3dc82517	0.09772699
138	0xbeb96dd3	-0.36216602
139	0x3f0103c9	0.503964
140	0x3f788a6e	0.97086227
141	0xbe3fe583	-0.18739896
142	0x3d15af25	0.036543984
143	0xbdb3e1f2	-0.0878333
144	0xbe3ea6a7	-0.1861826
145	0xbd3d8e51	-0.0462783
146	0x3f67b95d	0.90517217
147	0xbe295500	-0.16536331
148	0xbe94b438	-0.29043746
149	0x3d592b17	0.05301961
150	0xbe05d22b	-0.13068454
151	0xbe55dfa8	-0.208861
152	0xbe88a300	-0.2668686
153	0x3e261776	0.16219887
154	0x3f1874ad	0.59553033
155	0xbe8563ac	-0.26052606
156	0xbe743426	-0.23848018
157	0x3c463d30	0.012099549
158	0x3ebbba1e	0.36665434
159	0xbe608b0e	-0.21928045
160	0xbdc8e9f1	-0.09810246
161	0xbea688ad	-0.3252615
162	0x3dcf16ef	0.10111796
163	0xbf0a5931	-0.54042345
164	0xbe71a94d	-0.2359974
165	0xbe7a86c3	-0.2446547
166	0x3eaf17bc	0.34197795
167	0xbec37670	-0.38176298
168	0xbe46f55a	-0.19429532
169	0x3f02dd48	0.511189
170	0x3f77cd67	0.96797794
171	0xbecbf031	-0.3983169
172	0xbe20913b	-0.15680401
173	0xbda3e2db	-0.080022536
174	0x3d2d0a46	0.042246126
175	0xbe756854	-0.2396558
176	0x3e0cde4d	0.13756676
177	0xbe96b27e	-0.29433054
178	0xbe2e141a	-0.16999856
179	0xbe6a8c58	-0.229051
180	0x3dfdcbec	0.12392411
181	0xbe05dc3e	-0.13072297
182	0xbe903ebc	-0.28172863
183	0xbe169c26	-0.14708003
184	0xbe334c1a	-0.17509499
185	0xbe0c803d	-0.13720794
186	0xbed38118	-0.41309428
187	0xbf0f66bb	-0.5601613
188	0xbdddb15a	-0.10824843
189	0x3e8c3eac	0.27391565
190	0xbe100f41	-0.14068319
191	0x3f01550d	0.505204
192	0x3ef0685d	0.46954623
193	0x3d1a3c97	0.03765544
194	0xbe6d37da	-0.23165837
195	0x3f01ddac	0.5072887
196	0x3ec57c23	0.3857127
197	0x3eccd3c3	0.4000531
198	0xbdee725d	-0.11642907
199	0xbeb0a5f9	-0.34501627
200	0xbee88f2d	-0.45421734
201	0xbed9750d	-0.42472115
202	0xbd571beb	-0.05251686
203	0x3e72c816	0.23709139
204	0xbdf3d228	-0.119053185
205	0xbe1fc583	-0.15602688
206	0xbdcb46e0	-0.09925628
207	0x3e593616	0.21212038
208	0x3ce21bc5	0.027601132
209	0xbe4f1249	-0.20221819
210	0xbdddca91	-0.10829652
211	0xbdedd25c	-0.116123885
212	0xbd12d3d0	-0.03584653
213	0x3e5f463e	0.21804139
214	0x3f3ff0ef	0.7497701
215	0xbf020515	-0.50789005
216	0x3caa931d	0.020822102
217	0xbe743640	-0.2384882
218	0xbd885283	-0.06656363
219	0x3e02d625	0.12777002
220	0xbece6cc7	-0.40317366
221	0x3eabd87a	0.33563596
222	0xbee7d629	-0.4528058
223	0xbd77353f	-0.060353514
224	0x3f4b4cb6	0.79413927
225	0xbe27f7a0	-0.16403055
226	0xbdff7d68	-0.12475091
227	0x3f2e9a8c	0.6820457
228	0xbe9b4a63	-0.3033019
229	0xbdc91f02	-0.098203674
230	0xbd8d0256	-0.06885211
231	0xbec78f22	-0.3897639
232	0xbe228691	-0.15871646
233	0x3f6acdd3	0.9172031
234	0x3c1fb80f	0.009748473
235	0xbe3058f9	-0.1722144
236	0x3f16a886	0.58850896
237	0xbea68b88	-0.3252833
238	0xbf034766	-0.5128082
239	0x3ed43d54	0.4145304
240	0x3dad237f	0.08454036
241	0xbe817cd8	-0.2529056
242	0xbe8e5776	-0.27801102
243	0x3f5f4fde	0.8723124
244	0xbe1088a6	-0.14114627
245	0xbe79fc78	-0.24412715
246	0x3e244609	0.16042341
247	0xbe39a163	-0.1812797
248	0x3c388358	0.011261784
249	0xbe4dda9f	-0.20102929
250	0xbe861289	-0.26186016
251	0xbe803d93	-0.25046977
252	0x3e128f0b	0.14312379
253	0xbef91a30	-0.48652792
254	0xbd3f147b	-0.04665039
255	0xbe29cab4	-0.16581231

9.bias f4 [10]
0	0xbecef519	-0.4042137
1	0xbe671d4a	-0.22569767
2	0xbe028182	-0.12744716
3	0x3ec12994	0.37727034
4	0x3e97590b	0.29560122
5	0x3df180ed	0.11792169
6	0xbd8b9534	-0.068155676
7	0x3e8d4162	0.27588946
8	0xbe895759	-0.26824453
9	0x3cddbe9e	0.027068432
