VRCP_Regression/data/adversary/models/qr_model_example.pth (torch, 24402 bytes, 6 tensors)

base_model.0.weight f4 [64, 16]
000000 8d 71 4d bb a6 d1 02 3d f1 2d b1 bd 4c ef 3a 3d
       -0.00313482 0.031938218 -0.08651341 0.045638368
000010 d3 63 6b 3c 78 40 de 3d b5 43 1b be 94 bc 3f bd
       0.014367062 0.1085214 -0.15162547 -0.0468107
000020 fb 60 24 be cc 0f 76 be fc 8c 8c bc b4 3a f9 bd
       -0.1605262 -0.24029464 -0.01715707 -0.121694
000030 13 4e 09 3d 23 62 28 3e 5d 7e d9 3d 4f 56 85 3e
       0.033521723 0.16443686 0.10619805 0.2604241
000040 30 6a 41 bb 40 70 9d 3d b4 f0 f6 3d 4e 41 a5 bd
       -0.0029512756 0.076874256 0.12057629 -0.080690965
000050 d9 0c bd bd 15 f5 01 3d 8a c3 27 be ca 46 88 3d
       -0.09230966 0.03172787 -0.16383186 0.06654127
000060 a8 e1 d2 3e 0d dc 4e bd a0 37 25 3c 34 fa 3b bc
       0.41187787 -0.050502826 0.010084063 -0.011473227
000070 25 b1 9d bd 1c b2 a0 bd 3f 38 94 bd e2 a8 b3 3c
       -0.07699803 -0.07846472 -0.072372906 0.021931116
000080 68 1a 35 3e 14 de 0f 3e 9a f4 78 bc 03 82 b3 bd
       0.17685854 0.1404956 -0.015195036 -0.08765032
000090 ac de 0d be 5e 8f 80 bd 53 0b c8 3c 5b e0 ae bd
       -0.13854474 -0.06277345 0.024419462 -0.08538886
0000a0 ad e1 70 3e be b1 2e bd b1 f7 bc bd 43 ba 96 3d
       0.23523588 -0.042649977 -0.09226931 0.07359745
0000b0 c6 69 8e 3d b5 ac 16 be d6 28 3f 3d bb 37 8e 3d
       0.069537684 -0.1471432 0.046669804 0.069442235
0000c0 01 c0 b2 3d 93 b7 19 3d 39 2b ec bd f7 76 ba bc
       0.08728028 0.037528586 -0.115316816 -0.022761805
0000d0 26 84 15 3c 5a 05 39 3d 39 34 4e be 4d 11 b5 39
       0.009125745 0.04517112 -0.20137109 0.000345359
0000e0 56 d3 93 be 9e 6e b9 3c 8f dc a1 3d 9d 59 90 3e
       -0.28872174 0.022635754 0.07903396 0.2819337
0000f0 7f 8c 0c 3e eb 97 03 be de 92 07 3e a4 52 b0 3c
       0.1372547 -0.12850921 0.13239619 0.021523781
000100 4e 75 d9 bd 46 44 b1 3d f0 a5 f6 3c cb 9d 57 be
       -0.10618077 0.086556 0.030108422 -0.21056287
000110 30 4d e5 3d 67 33 b9 bd 70 3b e6 3b 8c e5 3a bb
       0.11196363 -0.09043007 0.0070261285 -0.0028518168
000120 89 55 97 be 36 17 63 be 0a 64 a4 3d 33 5c 9f bd
       -0.29557446 -0.22176823 0.080268934 -0.077812575
000130 9d 0e bb bd 89 3c 16 3e e7 e1 2e 3e 82 9c 2a 3e
       -0.09133647 0.1467153 0.17078362 0.16661265
000140 f9 76 ad 3d bd fe 1e be 85 6c e6 3b 4a 2f e1 bd
       0.08469958 -0.15526862 0.0070319795 -0.10995348
000150 56 40 c8 3c 89 29 b1 bd c7 bb 15 3e 4f 78 70 bd
       0.02444474 -0.086505 0.14622413 -0.058708485
000160 aa 3d ea 3d 0a c0 73 3e a2 77 2c 3e 6d 29 9f bd
       0.11437543 0.23803726 0.16842511 -0.07771573
000170 bc b3 08 be 14 2e 75 be e0 67 f2 3c fd e7 82 3c
       -0.13349813 -0.23943359 0.029590547 0.015979761
000180 70 b3 64 be 7b 5b 96 3d 85 80 3f 3e 1c 7a b7 3d
       -0.22334075 0.07341667 0.1870137 0.089588374
000190 c9 51 63 be dd f8 fa bc 0b 47 1b 3c e7 e2 b5 bd
       -0.22199167 -0.030636245 0.009477387 -0.08881169
0001a0 b2 9e a0 3d 05 d8 60 3e 32 d4 35 bd 56 35 10 3e
       0.07842769 0.21957405 -0.04439182 0.14082846
0001b0 80 c7 b9 3d 45 46 23 3d 0e 91 62 3d 70 69 3d be
       0.09071255 0.039861936 0.055314116 -0.18497252
0001c0 fb b2 5f 3d 89 66 d5 bd 6c f9 af 3d 6a 58 4c 3d
       0.05461405 -0.10419948 0.08592495 0.049889006
0001d0 7b a4 32 3d 93 42 26 3c 9c 47 9d 3d f6 ee a1 bd
       0.043613892 0.0101477085 0.07679674 -0.07906906
0001e0 b1 4f 24 be e2 4a 8a 3b 59 c6 c2 3d 95 0b 3e bd
       -0.16046025 0.0042203525 0.09510488 -0.046397764
0001f0 6a 86 30 bd 02 be 0f 3e 2f eb 64 3e 87 60 26 be
       -0.043096937 0.14037326 0.2235534 -0.1624776
000200 55 74 df bd e0 2f f6 3d a9 9f 62 bd c5 ce b8 3d
       -0.109108604 0.1202085 -0.055328045 0.09023813
000210 e9 e6 17 3e 15 e0 6b be f0 65 89 bd 5f 31 0b 3e
       0.14834179 -0.230347 -0.06708896 0.13593052
000220 46 c2 c4 3c 6f b4 8b 3e 3f 13 31 bd 4f cc 16 bc
       0.024018418 0.27286097 -0.043231245 -0.009203984
000230 30 b1 ca 3d a6 0e 55 3e fb 15 6c bd 06 c3 0e be
       0.09897077 0.20806369 -0.05763815 -0.13941583
000240 01 6a ce 3c e9 1c c7 bc e2 d5 d6 3d bc 17 35 3e
       0.025197031 -0.024305778 0.10490014 0.17684835
000250 0f 1d c5 bd 71 3e ef bb 87 f5 18 be 49 02 55 3e
       -0.09624683 -0.007301145 -0.14937411 0.20801653
000260 19 fb 09 3e 29 83 fd bc 0c 04 9d 3d 24 a4 11 be
       0.13474692 -0.030946331 0.076667875 -0.14222771
000270 a7 14 e2 bd ad 68 06 bc 3b b1 8c bd 21 ed 67 bd
       -0.11039095 -0.008203668 -0.068697415 -0.056622628
000280 ab 2d b4 3d 68 3a 3b be 5e cf b0 3d 3a 96 db bd
       0.08797773 -0.18283999 0.08633302 -0.10722013
000290 20 0f 5f 3e c9 16 27 be 01 7d 74 be 8d a5 0c 3d
       0.21783113 -0.16317286 -0.2387581 0.03433757
0002a0 0d bb 41 be db d1 95 3d 7a eb ce bc 42 ed 1d 3e
       -0.1891901 0.073154174 -0.025258768 0.15422538
0002b0 2b 0b 27 3a 99 54 cb bd 4b 10 2e 3e e3 62 a0 3d
       0.00063722086 -0.09928245 0.16998403 0.07831361
0002c0 16 c3 d9 bc 35 be 3e 3e 69 77 b0 bd 6c 68 8f be
       -0.026582282 0.18627246 -0.08616526 -0.28009355
0002d0 93 5e cb bd 34 a0 18 bd ed 38 90 3d a4 7e 85 3d
       -0.09930148 -0.037262157 0.07042108 0.065182954
0002e0 78 bc 52 3d e6 9d 24 3e 45 26 97 be 1b 23 9c b9
       0.05144927 0.16075858 -0.29521385 -0.00029780794
0002f0 4a 42 17 be b6 15 5a 3d 55 02 a8 3d 39 7f 2e 3e
       -0.14771381 0.05324336 0.0820357 0.17040719
000300 e7 8c bd 3d b7 15 dc 3d f6 b7 57 3d 0a ca dc bc
       0.092553906 0.10746329 0.052665673 -0.026951808
000310 ad 7a e5 bc d2 e8 70 bb d1 eb b2 3d c8 70 c0 3d
       -0.028012598 -0.0036759865 0.08736385 0.09396511
000320 34 ec ec be 46 0f 84 bd 9f 1f 50 3d 0e 7f 2d bd
       -0.4627396 -0.06448226 0.050811406 -0.042357497
000330 42 54 50 3d c5 a0 95 be be e0 63 3c c9 b3 f0 bd
       0.050861605 -0.2922422 0.013908563 -0.11753041
000340 ad 93 d9 3d 60 1d 75 3d 28 6b e1 bd 8f 5b a4 3d
       0.1062387 0.059842467 -0.110067666 0.08025276
000350 5c a8 99 3d b4 f1 8e ba be 82 08 bd f9 70 7a 3d
       0.07502815 -0.0010905773 -0.03332781 0.061142895
000360 f2 a5 15 3c ca 70 26 3e 63 8c 27 bd 71 fc e1 bd
       0.009133803 0.16253963 -0.040905368 -0.110344775
000370 39 b8 5f bc ed 0b 39 be 05 7c c6 3c bf fc 8f 3e
       -0.013654762 -0.18070956 0.024229059 0.28122517
000380 ea d8 42 3d 85 90 d0 3b 20 22 95 bd 6b 03 4e 3d
       0.047570147 0.0063648843 -0.072818995 0.05029623
000390 c3 65 b4 bd 97 8e ad 3d 7b 2f 30 3d 87 9c 20 bc
       -0.08808472 0.084744625 0.04301403 -0.009802944
0003a0 06 34 8f bd 75 76 fc 3d 56 9b 57 3d 72 b6 0c 3e
       -0.069923446 0.123272814 0.052638374 0.13741472
0003b0 55 03 73 be c0 b5 1d 3e 4b 85 41 3e cb 23 43 be
       -0.2373174 0.15401363 0.18898503 -0.19056623
0003c0 35 e0 cd 3d b4 d3 83 3e 20 c7 7f 3c db 79 c3 bb
       0.1005253 0.25747454 0.01561144 -0.005965454
0003d0 7f 11 0e 3e cc 45 78 3d 37 fc 33 3e 72 b7 65 bd
       0.13873862 0.06061344 0.17576681 -0.05608315
0003e0 7f ca e4 bd 43 69 9c bd d4 f9 22 bd 2b 29 58 be
       -0.111714356 -0.076372646 -0.039789036 -0.21109454
0003f0 dd 00 09 be 21 30 44 bd 52 df a2 bd 18 84 1b be
       -0.13379236 -0.04789746 -0.07952751 -0.15187109

base_model.0.bias f4 [64]
000000 fd 6c 34 3d 20 42 33 bd 12 51 4b bc 4d 62 d0 bc
       0.04404925 -0.043764234 -0.012409465 -0.025437498
000010 05 fb 8a 3d 9e a9 ad bc f0 ae 0e bc 16 4c 35 bd
       0.067861594 -0.021199044 -0.008708701 -0.044262014
000020 d9 6c be bd e2 88 9e 3a ac 8a c8 3b 1f b3 6f 3b
       -0.09298105 0.0012095238 0.0061200466 0.003657527
000030 7c a9 18 3c 7e b4 8f bd 6d 00 d5 bd 42 c2 8c bd
       0.009317752 -0.07016848 -0.10400472 -0.06872989
000040 28 61 6c bd 60 50 80 bd cd c8 e1 bd db 27 8f bb
       -0.057709843 -0.0626533 -0.11024628 -0.004368765
000050 e6 c3 28 3d 38 42 c2 3b c3 14 90 3d d7 58 99 bc
       0.04120245 0.005928304 0.0703521 -0.01871912
000060 f4 76 5d ba 4d a0 ca bb 14 45 2c bc a2 ff 91 3b
       -0.00084482064 -0.00618366 -0.010514516 0.0044555226
000070 4d a3 ed bc e0 e7 07 80 f8 54 e5 3c 7e a7 02 bc
       -0.029008532 -7.2603e-40 0.027994618 -0.007974504
000080 69 8d e1 3c e0 2f c1 bc fe 19 01 bb c4 72 9f 3c
       0.02753325 -0.023582399 -0.001969933 0.019463904
000090 66 bf 51 bc ce 73 f0 bc 89 e3 07 bd 2f 7d 4d bd
       -0.012801981 -0.029352095 -0.03317598 -0.050168213
0000a0 7c a9 7e 3d a2 4f de 3c e1 93 a5 bd 26 cd 55 3d
       0.06217335 0.027137581 -0.08084846 0.052197598
0000b0 4c 68 14 bd 83 60 1d 3b f5 76 30 3c cb 66 d9 bc
       -0.036232278 0.0024013824 0.010770549 -0.026538273
0000c0 0d 15 a2 3d a2 45 60 3c 8e ac 32 bd 05 10 a5 3d
       0.07914171 0.013688477 -0.043621592 0.08059696
0000d0 a1 64 94 3d cf c2 de 3c 22 3b b0 bc e7 ef 39 3c
       0.07245756 0.027192501 -0.021512572 0.011348701
0000e0 4b b0 96 3d fc ce 63 3d 25 6b 75 bd ea 20 12 bc
       0.07357844 0.055617318 -0.059916634 -0.00891898
0000f0 ca 48 57 3d 79 84 09 3d 90 0e 60 80 bb d3 ad 3b
       0.05255965 0.0335736 -8.821432e-39 0.0053047813

base_model.3.weight f4 [64, 64]
000000 be ea 00 be 5b a8 0d 3e 01 1c be bc 5f 99 61 be
       -0.12589547 0.13833754 -0.023206713 -0.22031163
000010 4b c9 7a 3d 5d 52 4e 3d 09 e7 43 be 9a 80 97 bb
       0.061227124 0.050371516 -0.19131102 -0.004623485
000020 13 e8 ed bc 21 ce 09 3e d4 b8 0e be 61 3e dc bd
       -0.029041326 0.13457538 -0.13937694 -0.10754085
000030 79 a2 74 3c c5 f4 6e 3d f6 b9 0b 3e 88 bb 2d 3d
       0.014931315 0.0583389 0.13645157 0.04241517
000040 32 a5 87 bd d4 de 07 3d 2e 3a 06 be d9 ad 74 be
       -0.066233054 0.03317149 -0.13108131 -0.23894443
000050 5e 77 d1 3d d0 c3 00 be 13 f3 80 3b 05 9b 07 bd
       0.102278456 -0.12574697 0.0039352267 -0.033106823
000060 8b 8f 77 bd 9f b3 cf bd 5e 21 3d 3d 8d 03 b5 3c
       -0.060439628 -0.10141682 0.0461744 0.02209642
000070 92 4a ea bb 66 77 35 00 6e cf fb 3d 97 08 84 3d
       -0.0071500028 4.910113e-39 0.122954234 0.06446951
000080 dc 96 30 bd 36 23 58 be 02 a1 17 3d c4 52 3a 3d
       -0.04311262 -0.21107182 0.037018783 0.045489088
000090 7a 6e 47 bb f0 04 b2 3c 75 ed b1 bc 2f 18 30 3d
       -0.003043084 0.02173087 -0.021719674 0.042991813
0000a0 83 70 02 be 7f bd 33 3e be 1d 84 bd 6b c8 c8 bd
       -0.12738232 0.17552756 -0.06450985 -0.09803852
0000b0 28 0d 4a 3c 6e 10 18 bd 54 b4 2c bd 06 81 73 bc
       0.012332238 -0.037125044 -0.04216416 -0.014862305
0000c0 88 b2 63 bc f9 b1 fc 3d 3a cd 07 3d 79 c7 93 3d
       -0.013897546 0.12338633 0.033154704 0.07215781
0000d0 77 09 03 3e 7b 5d b0 3c 16 4f 08 be a1 36 88 3d
       0.1279658 0.02152895 -0.13311419 0.06651045
0000e0 e3 35 92 bd be 02 4c bd 21 9b c3 bd 19 09 ce 3b
       -0.07139184 -0.049807303 -0.09551073 0.0062877056
0000f0 74 27 0a bd 2c 5c a6 3d 28 75 35 80 9d 88 90 be
       -0.03372903 0.08123049 -4.909309e-39 -0.28229228
000100 91 3b 93 3c 54 78 38 be 9c 2a cf 3c 9e 20 40 be
       0.01797274 -0.18014652 0.025288872 -0.18762442
000110 5e 15 fe bc f9 e2 fb 3c f0 3e 07 3d 58 89 9b bd
       -0.031016048 0.030747877 0.033019006 -0.075945556
000120 47 18 ed bd c8 d5 6c 3d 8c 72 76 be a8 0b 9e 3d
       -0.11576896 0.057821065 -0.24067134 0.07717067
000130 f6 ec f4 bd 1c 6d 0a 3e a5 5f 5a 3d 6a e3 43 3e
       -0.11959259 0.13518184 0.05331387 0.1912972
000140 91 e5 76 3d 6f 5c 91 3d c5 16 2a 3e ca be 32 be
       0.060277525 0.070977084 0.16610248 -0.17455593
000150 73 53 76 3e ea c2 38 3e a0 3b 93 be 00 c6 3d bd
       0.24055271 0.18043104 -0.28756428 -0.046331406
000160 81 09 e4 3c a4 0c f2 3c f2 f2 72 3e a7 df a3 be
       0.027836563 0.029547043 0.23725489 -0.3200657
000170 97 2d 28 3a c8 7f 35 00 c5 ae c4 bd 72 09 85 3d
       0.0006415485 4.91312e-39 -0.09603647 0.06495942
000180 fb 99 6f bc c6 3e 13 bd a5 91 38 3d 7b 5c a9 bd
       -0.014624114 -0.035948537 0.045060772 -0.082695924
000190 80 41 86 3e ef 3e 15 3e ce 3c a0 3e 17 f0 47 3e
       0.26221848 0.14574789 0.3129639 0.19525181
0001a0 5b 70 73 bd 55 c5 0a 3d 96 c3 a4 3e e1 70 21 be
       -0.059433322 0.033879597 0.3218047 -0.15765716
0001b0 ed 6d 2d be 73 30 aa bd c2 c4 21 be c7 23 71 3e
       -0.16936465 -0.08310022 -0.15797713 0.23548804
0001c0 73 30 78 be 56 0a 33 3e 67 d5 d3 bc a8 e7 dd bd
       -0.24237232 0.17484412 -0.025858594 -0.108352005
0001d0 42 80 0a be 58 47 84 bd 92 10 bd bc d6 7e e9 3d
       -0.13525489 -0.0645892 -0.02307919 0.11401145
0001e0 b7 8c e5 3d f0 30 23 bd a4 98 11 be 09 09 02 be
       0.1120848 -0.039841592 -0.14218384 -0.12698759
0001f0 8b eb b8 3d 17 51 1a be 18 df 22 80 e2 02 08 be
       0.09029301 -0.15069996 -3.202438e-39 -0.1328235
000200 5d d7 d8 bd 07 49 22 3e 67 bf 40 3d 0e 5e 45 3e
       -0.10587952 0.1584817 0.047057535 0.1927416
000210 74 2a 89 bc f1 2c 66 be 28 53 10 be 6b 93 2c 3c
       -0.016743876 -0.22478081 -0.14094222 0.010533194
000220 ef e7 50 3e 0a bc 48 3c b4 0f d0 bd f2 d6 e2 3d
       0.20400976 0.012251863 -0.10159245 0.11076154
000230 b1 bc 87 be 4b ae ad bd 3a 54 76 3d 86 8c 15 3e
       -0.26511148 -0.08480509 0.06013892 0.14604387
000240 ab 55 e6 3c 91 05 73 3d 7c e8 dd 3c d6 83 50 3e
       0.028117022 0.05933148 0.027088396 0.20362791
000250 9e c1 ba 3e bf 79 3c 3e 32 b9 a2 be 8f 7a 98 bd
       0.36475843 0.18405817 -0.31781918 -0.07445251
000260 5c 56 16 3d 5c 21 f0 3c 48 98 10 3e 67 24 f4 be
       0.036703452 0.029312782 0.1412059 -0.47684023
000270 08 9b 94 be 8d a9 2d 80 d9 25 c4 3c ab f1 0e bc
       -0.2902453 -4.19342e-39 0.023943828 -0.00872461
000280 f9 4f 9d 3d be 06 23 3d 3d 16 c3 3c db b6 6c be
       0.07681269 0.03980135 0.023814315 -0.23116629
000290 11 f4 bb 3d 4d 04 78 3e 74 e8 ba 3c b6 aa 36 3e
       0.09177411 0.2422039 0.02281592 0.17838559
0002a0 e3 f0 12 be 14 d8 75 be 67 31 03 3c c2 a0 04 bb
       -0.14349703 -0.24008209 0.008007384 -0.002023742
0002b0 97 15 a7 bd 82 10 5e ba 40 05 cf bd 15 16 b6 3e
       -0.08158415 -0.0008471088 -0.10108423 0.35563722
0002c0 c2 85 bf be 1d 2e 4b 3c cc ac 53 be 2f 34 91 bd
       -0.37406737 0.012401131 -0.20671386 -0.07090031
0002d0 4c 52 b7 3c 7f 26 84 3d 24 6c b2 3c b4 f8 0e be
       0.02237811 0.06452655 0.021780081 -0.1396206
0002e0 fa db 51 bd 37 85 1a 3e 64 cf b6 3d ed d5 95 be
       -0.051235177 0.1508988 0.08926275 -0.29264775
0002f0 65 08 3b 3e f1 03 b9 bd 3b 8b 29 80 ce 06 c6 bd
       0.18264921 -0.09033955 -3.815202e-39 -0.09669267
000300 10 30 35 3e 40 98 1a 3d 16 b2 f2 bd 27 2a 87 be
       0.17694116 0.037742853 -0.118503734 -0.26399347
000310 92 67 84 be a8 d3 17 bd 4e 60 10 be 12 e5 90 bd
       -0.25860268 -0.037067086 -0.14099237 -0.07074942
000320 7c 68 32 bd 38 8b 86 bd b9 59 50 3e e7 69 34 bd
       -0.043556675 -0.065695226 0.20346726 -0.04404631
000330 fc aa 4e 3e 30 20 93 3b 8b d0 96 3d 80 13 7b be
       0.20182413 0.004489921 0.07363995 -0.24519157
000340 90 a2 22 3e 33 40 cf 3d 81 2a 51 be 0e 00 c1 bd
       0.15882325 0.10119667 -0.2042637 -0.094238386
000350 d2 b3 30 3e f3 d8 ce 3e 07 c6 09 be 2e 52 00 be
       0.17256096 0.40399894 -0.13454448 -0.12531349
000360 0d d9 b1 bd 16 7b 4a be 00 52 8c be 2a c0 17 be
       -0.08683977 -0.19773516 -0.2740631 -0.14819399
000370 83 a2 90 3e 08 6a 35 80 c0 20 9e 3d a3 91 bd 3d
       0.28248987 -4.905318e-39 0.0772109 0.092562936
000380 e4 5b 98 bd 53 11 35 3e 65 c0 87 be 56 8f 21 3e
       -0.07439402 0.1768239 -0.26513973 0.15777335
000390 62 d1 3e be cb 05 3f 3e 91 e6 5c 3e 33 be 83 3c
       -0.1863456 0.18654554 0.21572329 0.016081905
0003a0 aa d9 06 bd 6d 5b 64 be b0 5f b1 be 2b 8f c9 bd
       -0.032922424 -0.22300501 -0.34643316 -0.0984176
0003b0 9d 44 e3 bd 3f 1a 39 be fc 82 50 3d ea 9a 5a 3d
       -0.11097071 -0.18076418 0.050906166 0.053370394
0003c0 75 39 07 3b ac c2 97 3d bc 99 8d bd 98 0b 98 bd
       0.0020633612 0.074101776 -0.06914088 -0.07424086
0003d0 ad 09 9f bd 28 d7 8d be a3 fe 81 3b 7e 97 19 3e
       -0.077655174 -0.27703214 0.0039671226 0.14999196
0003e0 f2 0c fc 3d 36 31 05 3e 64 65 5f 3d a2 f4 f1 bb
       0.123071566 0.13007054 0.054540053 -0.007383899
0003f0 e5 37 46 3c 20 34 5f be e9 1f 2a 80 f1 62 c1 3d
       0.012098287 -0.21797228 -3.868538e-39 0.094427

base_model.3.bias f4 [64]
000000 e3 c9 f0 bc da b8 41 bd 2a 51 04 bc df c9 9f 3c
       -0.029393142 -0.04729543 -0.008075992 0.01950544
000010 62 e0 8c 3d 8d 15 fe 3c d7 c0 55 bc 9e 71 85 3d
       0.06878735 0.031016136 -0.013046465 0.065158114
000020 e4 d9 ce bb ec ae 8a bc bd 5a 0a 3c 88 68 49 bd
       -0.0063125957 -0.016929112 0.008444485 -0.049171954
000030 1f e0 24 bc 5b e0 3e 3d 07 47 26 bc 93 a5 00 bc
       -0.0100632 0.04660068 -0.01014877 -0.007851976
000040 5c f9 29 3d cd 5e 54 3c b1 98 bb bc 02 bb 88 bc
       0.041497573 0.012962055 -0.022899957 -0.016690735
000050 7e cf d1 3d d4 29 ef 3d 47 c6 53 3d 20 13 0d 3d
       0.10244654 0.116779 0.051702764 0.034442067
000060 4a fb d3 3d 33 45 2e bc 76 bd 4c bd 6f a3 a4 3c
       0.10350664 -0.010636616 -0.04998537 0.020097462
000070 12 6d ac bc 2e 1e b2 3d 79 1a ad 3d 18 ea 96 3d
       -0.021048103 0.086971626 0.08452315 0.073688686
000080 a5 c0 83 bd 71 04 86 3c 55 d1 b1 3d b5 3b 33 3d
       -0.064332284 0.01635954 0.08682505 0.043758113
000090 f7 6c 8c 3d 2c 8c ce 3b c0 a0 57 3d e2 6c cb 3d
       0.06856721 0.006303331 0.052643538 0.09932877
0000a0 1e 4e b8 3d a7 c9 7c bb 7f a2 fe 3c 19 f7 83 3d
       0.08999275 -0.0038572343 0.031083344 0.064436145
0000b0 49 b2 1c 3d 37 66 5b bb e0 8a 32 bd 3f 10 2d bb
       0.038255963 -0.0033477673 -0.043589473 -0.0026407389
0000c0 8c 24 7d 3a b9 b9 20 bd 36 ed 88 3d 7f 66 66 bc
       0.000965663 -0.03923962 0.066858694 -0.014062523
0000d0 b8 67 96 3d a7 02 99 3d b5 08 17 bd 75 33 0c bd
       0.073440015 0.07471209 -0.036873538 -0.03422876
0000e0 41 03 54 bd 56 3b 1e 3d b4 ce 25 bd 9d b3 28 3c
       -0.051760916 0.038630806 -0.04048033 0.010296729
0000f0 8b 0a 3f bd 66 0c 92 bc 60 a4 95 bc d5 30 b5 3d
       -0.046640914 -0.017828178 -0.018266857 0.088472046

base_model.6.weight f4 [2, 64]
000000 e9 6b 18 3e 23 48 01 be 33 b4 60 be 19 c2 bf bd
       0.14884914 -0.12625174 -0.2194374 -0.09363193
000010 5e c2 60 3e 60 1e cf 3d 31 f3 18 be 9a b9 59 3d
       0.21949145 0.101132154 -0.1493652 0.05315552
000020 82 88 08 3e f8 d6 8b 3e 6e 8f 78 3e 10 53 60 be
       0.13333324 0.27312446 0.24273464 -0.21906686
000030 32 30 32 be 08 26 5d 3e d5 15 9c 3e 86 cb 41 3e
       -0.17401198 0.21596539 0.30485407 0.18925294
000040 7e 6c 03 3e fa fe c1 3e 84 5b 90 be ab 56 89 be
       0.12834355 0.37889844 -0.2819482 -0.26823935
000050 c7 32 92 3d 14 34 e5 3c df 1b be 3d 57 a5 93 3e
       0.07138591 0.027978934 0.0928266 0.28837082
000060 9b 56 f9 3c a4 07 8f 3e 05 b0 11 3e ba 9a 54 3e
       0.030436805 0.27935517 0.14227302 0.20762148
000070 41 d0 7d be 7d f3 58 3d 81 28 f5 3e 3b 80 41 3e
       -0.24786474 0.052966584 0.47882465 0.18896572
000080 7b bd 1e be d4 b1 39 be 68 0a 81 3d fa 27 c3 3d
       -0.15501969 -0.18134242 0.06300813 0.09529109
000090 50 c4 d9 3b 40 68 7a be 67 6a 0a 3d 11 41 d9 3d
       0.0066457167 -0.2445383 0.03379288 0.106081136
0000a0 97 37 a0 3c 86 29 af be 9e c3 f9 3d 35 0b e1 3d
       0.019557757 -0.34211367 0.12195514 0.10988466
0000b0 a2 c1 fe 3d 21 09 40 be b5 fd 91 bd f5 6d 97 3e
       0.12439276 -0.18753482 -0.07128469 0.29576078
0000c0 33 b2 8f be 81 d5 d0 3d c9 11 b2 3d c1 b9 da bd
       -0.28065643 0.10196973 0.086947985 -0.10679961
0000d0 45 56 14 3d 65 08 e7 3d 1f 6c f7 3d 4e 80 bb 3e
       0.036215086 0.11280898 0.12081169 0.36621326
0000e0 74 ca 8f bd aa b2 88 3d 3e ab 42 be bd 57 76 3e
       -0.07021037 0.066747025 -0.19010636 0.24056907
0000f0 97 88 5d 3d 7b 76 20 be bd 1d 13 be 4d f9 20 3d
       0.05408534 -0.15670197 -0.14366813 0.03930025
000100 a9 5f 95 bc 3e b9 03 be ca 17 87 3d 70 c1 8c be
       -0.01823409 -0.12863633 0.06596334 -0.2749133
000110 8a 2f 6d 3e bf 7a 1c 3e 07 b9 30 be 14 39 c8 3d
       0.23162666 0.15281199 -0.17258082 0.09776512
000120 e4 b9 42 be 97 b1 19 3e 1c f4 ce 3d ca fd c0 be
       -0.19016224 0.15009151 0.10105154 -0.37693626
000130 fc 1c e8 bd 1b 5b 52 3e 34 89 19 3e c5 ec 7d 3c
       -0.11333653 0.20542566 0.14993745 0.015498345
000140 50 98 20 3e d6 38 48 3e ff 70 97 be 63 2a ad bd
       0.15683103 0.19552931 -0.29578397 -0.0845535
000150 bb 55 35 3e 51 67 bd 3d 0b d9 1d 3e 3c 39 68 3e
       0.17708485 0.09248222 0.15414827 0.22678083
000160 d7 3e 97 3d fd 69 fc 3d d4 b7 90 be d6 2c d7 3d
       0.073850326 0.12324903 -0.2826525 0.10506599
000170 9c 8a d0 bd 7e 45 b0 3d 2e 95 71 3e 01 a0 87 3e
       -0.10182688 0.086070046 0.23592064 0.2648926
000180 40 5e d4 bc d8 21 96 3e c0 e9 eb 3d 07 77 b9 3e
       -0.025923848 0.29322696 0.11519194 0.36223623
000190 be 6f fb 3d 1e 79 04 3b ee 7a ac 3d 19 ec 17 3e
       0.122771725 0.0020213793 0.084218845 0.14836158
0001a0 b4 d3 a9 3d 07 2b 13 3e 51 0f 0e 3e 28 79 b6 3d
       0.08292332 0.14371882 0.1387303 0.089098275
0001b0 5e 0a 7d 3e 7a 82 ba be 6a 52 7e be 06 07 ad 3c
       0.24710986 -0.3642767 -0.24836126 0.021121513
0001c0 56 c4 cf be 50 14 3d be d5 35 ea 3d 3d e1 91 be
       -0.4057948 -0.1846478 0.11436049 -0.28492156
0001d0 51 d0 be 3d 6e e6 d2 3d c9 09 15 be f9 de 09 3c
       0.09317077 0.10297857 -0.14554514 0.008414977
0001e0 0e bf 92 be c4 01 2b 3e d4 34 8c be 76 a8 09 3e
       -0.28661388 0.16699892 -0.27384055 0.13443169
0001f0 06 da 22 bd ec 09 85 3c 17 26 ca be b2 1e ac 3d
       -0.039758705 0.016240083 -0.39482185 0.08404292

base_model.6.bias f4 [2]
000000 03 7b bb 3d d8 5b 79 3e
       0.09154322 0.24351442
