VRCP_Regression/data/spread/models/qr_model_example.pth (torch, 25024 bytes, 6 tensors)

base_model.0.weight f4 [64, 18]
00000000: 1af4 87be 92e8 033c a3f7 1bbd ff3f 7c3e
00000010: f76e adbe 9fb1 1e3d 47f6 493d bfb8 43be
00000020: ab80 dd3d cc2d 5e3e 841b 2ebe be6a 4e3e
00000030: b7b8 953d a38b 6dbd 7595 c1bd 4b9a 38bc
00000040: 4ba6 0dbd c214 54be 313a f0bd 98dd 16be
00000050: bea1 70bd 6c03 023e d568 30bd 1b20 1b3e
00000060: 609e 9cbd 8dbc 133e ee52 efba 1abc ff3d
00000070: 94d7 f63d 32b4 6dbd 68d8 753b 88b3 b33d
00000080: 128e 9dbb 601b 47bd 138c 9abd 3fdc a63c
00000090: 75d4 983c 3772 7ebe 0962 323c c7c6 503d
000000a0: 22d9 f23d d903 e9bc bb24 133e db34 b2be
000000b0: 711c 3b3e ebc6 5cbe 9013 e2bc 78e2 7e3e
000000c0: c2e0 e13a 0e9a 95be e6b4 01be a8f6 6abe
000000d0: fb28 513d 0d75 3e3d a533 42bc c4bf 42be
000000e0: a84e 843e 20d4 24bd 15e8 ccbc a6d2 943c
000000f0: f43a ef3c 4460 933d bebd 8cbd 2137 653d
00000100: 0790 8e3c d822 9a3d 5708 883d 7864 28bd
00000110: e1a5 a33d c624 d0bd 8a9d cfbd f1c8 283e
00000120: c8d7 4f3e 9525 c63b 3438 0dbe d8f8 80bd
00000130: e552 6fbd a3ee 103e 3ac0 b5be 3d8e cbbd
00000140: 19e1 90bd 4198 e53c 3d4f d63d 282d e8bd
00000150: c51d 2c3e 9804 e03d 9a20 bebd 7a5f d5bd
00000160: bf1a c9bd b63e d83d d2d0 0a3e 542c 03be
00000170: 0304 973d e134 8abd 82dd 1f3d 00b7 34be
00000180: f12d 1e3d 707d 6ebe 62fc bd3d b72e cf3d
00000190: 0d72 dbbc ef0b 98bd c09c 9d3c 0c4a c7bc
000001a0: 236c 7ebd 0d42 df3c 1dd2 e53a 0c1f 1f3e
000001b0: 84e3 9fbd c4af 043e b39f 37bd 34eb de3c
000001c0: 0844 a93d 1bd7 163c 083d bc3c 7aae f83d
000001d0: 37e4 033d 003a c53d f351 063e 9f25 ddbc
000001e0: 51be 263c 266b 51be b448 96bd f1d7 64bd
000001f0: 87f7 76bd eefa 9ebd bce5 cd3c 175a 41bd
00000200: 1097 ce3c a12f afbd f671 a83b f228 c53c
00000210: 2ffb 92bd 875f bfbd e5cd d53d d480 a83d
00000220: 0fce febd 3ca5 123e 7509 6ebd 5006 3f3e
00000230: ca22 9ebe 32f0 f73d 5d01 053d 47c6 14bd
00000240: 3e4f d1bc 5b13 afbe de6b a3be 058c f4bc
00000250: 4ab9 2bbc 1d99 4abe bdcc 023e 5dbd 3e3d
00000260: 2fc8 c83d 39f4 18be c0fc 813e 38ad fabd
00000270: 8a57 b8bc 0e52 07be e23d d43a 1c98 9d3c
00000280: ed3f 943d f489 10be f2c1 49bd f7d7 ee3d
00000290: 58d4 bb3d f664 11bd 5b7b 8cbd aead db3c
000002a0: f465 2d3d 4c6e 3d3d aa16 1f3e 1403 7f3c
000002b0: 68f3 623e 3548 fabd 3d31 143e 718d b9bd
000002c0: b49d 1ebd f729 553c dd2c dcbd 085f 92bd
000002d0: 753a 7a3e 7ffa 20be e74f ef3c 0099 88bc
000002e0: 4bf9 fd3d a976 04bd a1ed 89bd 7f8e 4cbe
000002f0: 9e1a d9bd 8f8e 823e 450b 0e3c bbb2 88bd
00000300: 8a11 1d3d 7057 263c 4e60 853d 3f5c f8bb
00000310: 2556 9a3d dd88 67be 02dc c4bd 825f 213e
00000320: 9335 783d e492 7a3c 3c4a d0bd 6619 2f3c
00000330: 1f1f 373e e32a 6cbe 2a59 8ebd b1b8 38bd
00000340: 800e a43d 3ee1 01be 3e33 373d ecae 003e
00000350: 0205 9d3c 0d49 78be 3d59 14be 79a2 503e
00000360: ab99 b03d 636d 1e3e e376 22bd 6889 a83d
00000370: 08aa 713d 59d9 7d3d fab3 64be 9c41 643c
00000380: 053a 30bc 0f45 11be 40b7 5d3e 352e 5fbd
00000390: 50e0 2e3c 19f2 c8bd bfec 2dbe f260 cf3d
000003a0: ee37 e5bd 3119 dd3c b1e5 343c 9fe4 163e
000003b0: 74b8 41bd 45d7 313e cedf 59be 6583 f4bd
000003c0: dc92 7dbc 90b1 05be e343 a5bb 3d53 42be
000003d0: b39b 45bd c5d4 503e 5c0b 173e 26f2 043d
000003e0: 3b51 b13d 41e8 f33c 59b2 a03d 8d1e b93d
000003f0: ebfb 683e 7df7 863d 5459 503d 1f07 9abd
-0.26553422 0.008051055 -0.03807796 0.24633788 -0.33873722 0.03874361 0.049307134 -0.19113444
0.10815557 0.21697158 -0.17002684 0.20157906 0.07310622 -0.057994496 -0.09452335 -0.011267255
-0.034582417 -0.20711043 -0.11729849 -0.14732969 -0.058748 0.12696618 -0.043068726 0.15148966
-0.07647395 0.14427395 -0.0018258968 0.124870494 0.12052837 -0.058033176 0.0037513021 0.08774477
-0.004808196 -0.04861009 -0.07546248 0.020368693 0.018655995 -0.24848257 0.010887631 0.05097082
0.11857821 -0.028444218 0.1436948 -0.3480595 0.18272568 -0.21560256 -0.027597219 0.24891078
0.0017233121 -0.29219097 -0.12666664 -0.22945654 0.051064473 0.046498347 -0.011853133 -0.19018465
0.2584126 -0.04024136 -0.02501301 0.018166851 0.029202916 0.071960956 -0.06872128 0.05596078
0.017402662 0.07526177 0.06642216 -0.04111144 0.07990623 -0.10163264 -0.1013747 0.16482903
0.20297158 0.0060469606 -0.13790971 -0.06297463 -0.058428664 0.14153533 -0.3549822 -0.09939239
-0.07074184 0.028026702 0.10464332 -0.11336738 0.16808231 0.10938376 -0.09283562 -0.10418601
-0.098195545 0.10558836 0.13556221 -0.12809879 0.07373812 -0.06748367 0.039029606 -0.17647934
0.038618032 -0.23290038 0.09276654 0.10116332 -0.026787782 -0.07424151 0.019239783 -0.0243273
-0.062114846 0.027253175 0.0017533932 0.15539187 -0.07807067 0.12957674 -0.044830035 0.027211763
0.08264929 0.009206559 0.02297832 0.12142654 0.032200065 0.09630203 0.13117199 -0.026995478
0.010177211 -0.2045103 -0.07338086 -0.05587 -0.060294654 -0.07762705 0.02513396 -0.047205057
0.025218517 -0.08554006 0.0051405383 0.024067376 -0.07176816 -0.09344392 0.10439662 0.08227697
-0.12441646 0.14320844 -0.058114488 0.18654752 -0.30885917 0.121063605 0.032472003 -0.036321905
-0.025550481 -0.34194455 -0.31918234 -0.029851923 -0.010481188 -0.1978497 0.12773414 0.04656731
0.09803807 -0.14936914 0.25388145 -0.1224007 -0.02250268 -0.13214895 0.0016192759 0.01923757
0.072387554 -0.14115125 -0.049257226 0.11662286 0.09171361 -0.035496674 -0.06859466 0.026816215
0.04233356 0.046247765 0.1553599 0.015564699 0.22163165 -0.12220804 0.14471908 -0.09060181
-0.038724616 0.0130104935 -0.107507445 -0.07147032 0.24436362 -0.15720557 0.029212905 -0.016674519
0.124010645 -0.032339726 -0.06734777 -0.19976233 -0.1060078 0.2549939 0.008669679 -0.06674715
0.038346805 0.010152683 0.06512509 -0.007579356 0.07535962 -0.22610803 -0.09612276 0.1575909
0.060597967 0.0152938105 -0.10170409 0.010687208 0.17882966 -0.23063235 -0.069506004 -0.04509801
0.08010578 -0.1268358 0.044726603 0.12566727 0.019167427 -0.24246617 -0.14487167 0.20374478
0.0862306 0.15471415 -0.03966416 0.08229333 0.059000045 0.061974857 -0.2233428 0.013931658
-0.01075602 -0.141865 0.21651936 -0.054487426 0.010673597 -0.098118015 -0.16984843 0.10125913
-0.11192308 0.026989551 0.011041091 0.1473565 -0.04729505 0.17367275 -0.21276781 -0.11939124
-0.015476909 -0.13056016 -0.005043493 -0.18977065 -0.04824419 0.20393665 0.14750427 0.032457493
0.086580716 0.029773833 0.07846517 0.0903903 0.22752349 0.065901734 0.05086644 -0.075208895

base_model.0.bias f4 [64]
00000000: 7de4 7d3d b562 14bb 7981 593c 4907 96bd
00000010: f619 ac3c 5c02 1c3c b2bc 273d 1897 5a3c
00000020: 7136 8a3d 728a 3cbd cdb1 67bc 97f5 bebb
00000030: fd37 773d 66a0 933c 68d2 7fbc 4e22 613c
00000040: 12ea 5f3d 9f98 4b3d c35b 9cbc 9707 023c
00000050: d1da 08bd 82f6 bf3b 3fce 0cbd abb0 19bd
00000060: f415 98ba ca42 53bd 1992 03bd 4869 9ebb
00000070: 96c7 4ebd 9e86 f239 52c5 b93c 53b7 2a3c
00000080: 0f83 04bc 7618 1886 ab63 3dbd be3a 223b
00000090: 8107 98bb b868 00bd 7317 1dbd bc44 bf3c
000000a0: 42eb c73d 21c2 98bc b9ff 983d 1731 0abd
000000b0: 894c cb84 2d2e 1bbd 360c 003d 58f3 4e3c
000000c0: 2577 473c dbc2 f73a 46ed 013d 6028 c7bc
000000d0: 58aa 4c3d 09f2 933d 23c1 39bd d387 533d
000000e0: aa49 863d 8a0f f73c ee6e 27bd 5e5d 9e82
000000f0: 8ba7 82bc 7a45 fa3b 9b22 403c 6ea9 2e3d
0.06198548 -0.0022641842 0.013275498 -0.07325608 0.021008473 0.009522047 0.04095144 0.013341688
0.06748665 -0.04603047 -0.014141512 -0.0058276164 0.06035613 0.01802082 -0.01561413 0.013741089
0.054666586 0.049706098 -0.019086724 0.00793638 -0.033411805 0.0058582434 -0.03437638 -0.037522
-0.0011603222 -0.051577367 -0.03212175 -0.004834328 -0.05048331 0.00046258135 0.022677097 0.010419684
-0.008087887 -2.8605994e-35 -0.04623763 0.0024754251 -0.0046395664 -0.031349868 -0.03835244 0.023348205
0.09761669 -0.018647255 0.0747065 -0.033738222 -4.7795357e-36 -0.037885834 0.031261645 0.01263126
0.012174402 0.0018902676 0.031720422 -0.024311244 0.04996714 0.07223899 -0.045350205 0.051643204
0.06557019 0.030158777 -0.040877275 -2.3269604e-37 -0.015949031 0.007637677 0.011727001 0.04264205

base_model.3.weight f4 [64, 64]
00000000: 039f b03d d392 383d 148a c13d 146f ec3d
00000010: c2d4 b3bd 1a2c fcbb 5cf3 403e 7e3c be3c
00000020: 6991 ba3e b946 62be f930 6fbe e3bc fb3d
00000030: 0b2c 583d 482b 253b 5c33 9dbc fffb 353e
00000040: da46 d9bb 701d a4bd 49ed 0dbd 96ce e93e
00000050: 494b 0ebe 6dbb ea3b 67ef 89be 637e b4bd
00000060: f535 163e ed58 4d3d 1abb d63b 83f8 363e
00000070: 8246 15be e2ae f83d c739 52be 8d79 75be
00000080: df45 ce3e e45a d483 1538 83be 33fc a53d
00000090: 7087 6a3e 2099 183e 1d6f 15be 8384 e5bb
000000a0: e332 653e e84d ccbd 1797 4a3e 0b0a 21be
000000b0: c1d2 1184 ca54 353d a443 8b3e b70b 37be
000000c0: ae2a 15be 5356 773e 48b2 aebd 0659 1cbe
000000d0: 5291 5f3d dd1c 8dbe 779f 153d 5f63 a13e
000000e0: 71b0 1bbc d854 29be 67cc 543d 02f5 3480
000000f0: 41b7 a0bd 6fa5 20ba 66a0 293e b5cc 093e
00000100: f5da 1fbc 2c29 103e 4f7c 173e 6555 a83c
00000110: 71c3 593c 35b5 36be ef78 1b3d b9b4 9c3d
00000120: ddcf 523e 07cd 313d 9d80 efbd 77f4 54be
00000130: 98dc 5cbe 3f8f 1c3d 12b4 42be 7f5a d7be
00000140: 23e3 813e c0e5 c3bd 077b 09be 66dd ae3d
00000150: 7867 0bbd c85d 9e3d f5ae 5f3e 59b4 bbbc
00000160: 58b9 05be 8989 6bbd 4f3a 4bbd ab66 9dbd
00000170: 290f 903c 4d31 643e ba5e 7abd 367f 27bc
00000180: 8dbd a9be c363 3f05 015f e53b f615 a33b
00000190: fbff b0be a51d 7fbe 8763 95bd 8b83 0a3e
000001a0: 9826 0ebc eda5 8abe 95e3 1fbe e210 0bbe
000001b0: ff76 3c04 e8f3 4fbe 2304 c23d 18ad c13d
000001c0: 852d 7fbd ad56 a23b c362 8cbd 3012 a9bd
000001d0: b049 7ebe ba17 523e 4510 6abe 9958 2c3e
000001e0: 5e2d 67be 6b45 a53d 0c44 d3bd 1816 2000
000001f0: abe4 38be 04bd de3d c4f6 ae3d 5f15 d3bc
00000200: 09e8 2e3e 24d9 f6bd 90ae b0bd fd8d febb
00000210: 291d 593e f04a 6e3c b825 92be ea5b 4bbe
00000220: a248 d73d 5fea b3bd 107f b5bd b491 b43e
00000230: e641 283e 241e 023e 5025 603d 2595 2d3e
00000240: f7a0 173e b593 9fbe b0e8 0f3d 20bb 30be
00000250: 7937 fc3d 5585 db3d 4459 b43d 787b 78bd
00000260: d027 d03d b91b 5fbd 9b98 a3be 58e9 703e
00000270: 118c 14be b5a4 62bd f370 3fbe 3c44 0fbb
00000280: 5099 f63b fda4 9f84 9f8f 343d c87f b9bd
00000290: 316c 35be a51e 4a3d 86f2 53bc b2e4 a33c
000002a0: 51e3 b7bb 5fc2 173e 90fd 813c 0099 61be
000002b0: c530 d703 2772 73bd f8c7 87bd 1a80 383e
000002c0: 6606 0e3e 671a 153d 20b0 b83d 66ac 53bd
000002d0: 9f12 91be 585f 2a3e 4596 ac3e 0494 99be
000002e0: f2d3 42bd d361 c63e b719 4fbe f775 3580
000002f0: 1e3e 853d 6c37 123d 104c 13be 3b2a ddbe
00000300: a059 b63d 0b57 3abd 08cf 343e be42 51be
00000310: 2552 0ebe 8fdd 303e 63d3 2fbb 49ab 80bd
00000320: cc43 b83e 3156 d53c ccda 54bd f93d 3abe
00000330: 0f5d e63d d8b6 b43d a128 62be 8649 dfbd
00000340: 8eb0 913e ee8a 6d3e d661 413e e38b 863e
00000350: 5c5b 9abe 24d1 88bd 2cc4 38be daff 80be
00000360: c5fb 9bbd bf3d 91bd 3119 413d 6898 55be
00000370: b61e 03be b96c 4cbd d078 003e 12bc a33c
00000380: b641 bfbe 4d22 8405 cb8a 83bd 11c9 763e
00000390: a840 a33c 7ee3 4abe 6a8c acbd 84ee 273d
000003a0: f1ff ffbd 1f4e 13bf deb5 cf3d c6fd 0c3d
000003b0: e10f 6483 8c86 353e 4d2d 603e cc89 22bd
000003c0: bf0d 1abe 157a a0bd 821b cf3d 62e6 d83d
000003d0: d8b4 ee3c 2179 90bd 800a 163a 9037 ac3e
000003e0: 153c 0bbe e3d0 e0bd 7e89 953c 037a 3500
000003f0: 7971 29be 12bc 0bbd 67ac e8bd 2b6b 22be
0.08624079 0.045061897 0.094501644 0.11544624 -0.08780815 -0.007695687 0.18842834 0.023222204
0.36439064 -0.22097291 -0.23358525 0.12291887 0.052776378 0.00252028 -0.01918953 0.1777191
-0.0066307606 -0.08013427 -0.03465012 0.45665425 -0.13895907 0.007163456 -0.26940462 -0.08813169
0.1466902 0.050133634 0.006553066 0.17868237 -0.14577678 0.12142731 -0.20529853 -0.23972149
0.40287682 -1.2481108e-36 -0.25628725 0.08104744 0.22903228 0.14902163 -0.14593168 -0.007004322
0.22382693 -0.09975797 0.19784199 -0.15726487 -1.7141442e-36 0.044270314 0.27200043 -0.17875563
-0.14567062 0.24154024 -0.08530098 -0.15268335 0.054581948 -0.27561083 0.03652903 0.31521127
-0.009502516 -0.16536272 0.051952746 -4.863338e-39 -0.07847453 -0.0006128167 0.16565093 0.13456996
-0.009756793 0.14078206 0.14793514 0.020548532 0.013291226 -0.17842562 0.037957128 0.076516576
0.20587106 0.04340842 -0.11694453 -0.20796381 -0.21568525 0.038222548 -0.19014004 -0.4206123
0.25368604 -0.09565306 -0.13425837 0.08538322 -0.034034222 0.07732731 0.21844085 -0.022913145
-0.13058984 -0.05750421 -0.049616154 -0.07685598 0.017585354 0.22284432 -0.061125495 -0.010223201
-0.33152428 8.9991e-36 0.0069998507 0.004976983 -0.34570298 -0.24913652 -0.07294374 0.13526742
-0.008676194 -0.27079716 -0.1561416 -0.13580659 2.2153934e-36 -0.20307887 0.09473445 0.09456843
-0.06229927 0.00495418 -0.06854775 -0.08255422 -0.24832797 0.20516863 -0.22857769 0.16830672
-0.225759 0.08069881 -0.10315713 2.946662e-39 -0.1805598 0.108758956 0.085431606 -0.025767026
0.17080702 -0.12053135 -0.08627045 -0.007768391 0.2120253 0.014544234 -0.28544402 -0.19859281
0.105119005 -0.08784937 -0.08862126 0.35267413 0.16431388 0.1270681 0.054723084 0.16951425
0.14807497 -0.3116738 0.035134017 -0.17258883 0.12315268 0.107187904 0.088060886 -0.060664624
0.10163844 -0.054469798 -0.31952366 0.23526514 -0.14506556 -0.055332858 -0.1869543 -0.002186074
0.0075256005 -3.7532238e-36 0.04408228 -0.090575755 -0.17717053 0.04934563 -0.01293624 0.020006511
-0.005611815 0.1482024 0.015867978 -0.22031021 1.2647761e-36 -0.059435036 -0.06629938 0.18017617
0.13869628 0.036402132 0.09017968 -0.051678084 -0.2833452 0.16637933 0.33708397 -0.2999574
-0.047565408 0.3874651 -0.20224653 -4.909599e-39 0.065059885 0.035697386 -0.14384484 -0.43196282
0.08903813 -0.045493167 0.17657101 -0.20435616 -0.13898523 0.17272018 -0.0026828877 -0.0628267
0.35989225 0.026042076 -0.051966473 -0.18187703 0.11248218 0.08823937 -0.22085811 -0.10902695
0.28455013 0.23197529 0.18884978 0.262786 -0.30147827 -0.066805154 -0.18043584 -0.251952
-0.076163806 -0.07091855 0.047143165 -0.2085892 -0.12804684 -0.049908374 0.12546086 0.01998714
-0.3735482 1.242582e-35 -0.06422957 0.24100138 0.019928291 -0.19813344 -0.08425219 0.04099895
-0.12499989 -0.5754108 0.1014211 0.034421705 -6.7021406e-37 0.17727107 0.21892281 -0.039682195
-0.15044306 -0.07835785 0.101126686 0.10590817 0.029138967 -0.070543535 0.00057236105 0.3363614
-0.13597138 -0.10977342 0.018254038 4.911051e-39 -0.16547193 -0.034114905 -0.11361008 -0.15861194

base_model.3.bias f4 [64]
00000000: 582e df3c 0d7e da3d 0575 2abd 9eb6 9f3d
00000010: 0c24 d43d 9add ebbc 4016 c23d 2c13 6ebb
00000020: 7e74 38bd 1c4b 3fbc 80de 44bd be6e a33d
00000030: 1e31 13bd 7c2e b03d c2a9 e03d e374 90bc
00000040: 3e9b 8f3d d475 1f3e c851 deba cc46 48bd
00000050: cad5 0ebd 3c0f 7bbd bf8d 53bc 939d 193c
00000060: d2e4 b83b ce9f 92bc f10b d93c 50f4 873d
00000070: 07a5 0bbd 1ef6 fd3d 3299 32bb 7dcb 22bd
00000080: 6acb 90bd 448f b23d a15d 9e3d b36e 9b3c
00000090: b817 9f3d ca4d 933d b35d 3fbd dd8a 3e3c
000000a0: d820 643d 5d0c 8e3d e51b 933d 8204 8cbc
000000b0: 66cb 46bd 5245 e53d ea26 fd3d 7879 06bd
000000c0: 8b9c b73d 9f34 bcbc 70ca 86bb aff2 26bb
000000d0: e413 be3d 6183 acbb 3ef0 64bd 3461 c7bc
000000e0: 735e 8a3c 96e0 2c3e 2731 9c3d 99bf 793c
000000f0: 13a4 abbd 0914 be3d 0370 a83d e1db 0b3e
0.027243778 0.106685735 -0.041615505 0.07798503 0.10358438 -0.028792191 0.094769 -0.0036327345
-0.04503297 -0.011675622 -0.048063755 0.07980107 -0.035935514 0.08602616 0.10969879 -0.01763386
0.07012032 0.15572292 -0.0016961629 -0.048895642 -0.034871854 -0.061293826 -0.012912213 0.0093759475
0.005642512 -0.017898466 0.026494952 0.06638396 -0.03409293 0.12400459 -0.0027251956 -0.039744843
-0.07070048 0.08718732 0.07732702 0.018973684 0.07768196 0.071925715 -0.046720218 0.011629787
0.055695385 0.06935952 0.07183055 -0.017091993 -0.04853382 0.111948624 0.12360938 -0.032830685
0.08965405 -0.02297431 -0.004113488 -0.002547424 0.092811376 -0.005264685 -0.055893175 -0.024338342
0.01689074 0.16882548 0.076265626 0.015243434 -0.08380904 0.09281165 0.082244895 0.13658096

base_model.6.weight f4 [2, 64]
00000000: 9959 a03e a8ea 5cbd b75d 91be a2e1 0a3e
00000010: 036c 7f3d 0c6d a93e 593f 623e 970a 783e
00000020: d4c8 333e 00c7 3c3e abfe 35be a5cc 38bc
00000030: 0168 4e3d d50f 133d a0bc b93c b3cc 06be
00000040: 9573 6f3b 2571 763d f5d1 4fbe 2eeb ebbe
00000050: cb2a bf3d 7a45 dcbc 0c7a 64be 2158 c5be
00000060: 472a 78be 50c1 a53e 6000 10be 0177 703d
00000070: 8a8f 15be ff23 963d 98b5 88be 005b 40be
00000080: e8f9 b9bd aa75 913d ae4f 1c3e 87f6 66be
00000090: 549b d63d 0c35 0e3e 1101 8dbe a4ca b43e
000000a0: 0f5e 2c3e ae2d 0f3d 9e4d e33d 8eb3 d23d
000000b0: 6cc3 8bbe 6386 423d b378 483e c05a d3be
000000c0: 3486 123d d45a 8c3e c4f3 ce3e 0463 f7be
000000d0: a763 2d3d dc15 65be f101 a23e bc9c 33bd
000000e0: c96c 8a3e b469 133d 1491 573b d764 d93e
000000f0: 87c4 313c 6339 703d ad01 d23d c210 853c
00000100: 6fd9 e73d 2b79 803e 288c 8abe fbb4 343e
00000110: e5d2 193e cfcc 8fbe 9a63 823e 2141 b53d
00000120: d3c6 55be 74f2 f5bb 7e15 a9bd d352 4d3e
00000130: 09ed e6bd 8977 1a3e dd8d 383e 11cd 32be
00000140: 0259 4a3e eb8c a03e f6cb fcbe 849c eebe
00000150: afb7 b2be 98d4 2abe 02ff 9fbe 379f 07bd
00000160: 8cb8 2ebe 1f9a 38bd a76b 8cbe 82fe af3d
00000170: 4926 7fbe 11d9 833e 625c ebbd ed66 d73c
00000180: 91c0 83be 756b 373e 7430 8c3e 85b9 7cbe
00000190: 8a84 3e3e 8b9a e13d c6aa d1bd e0e8 313d
000001a0: 95b5 373e 796c 0f3e 0f7d 603e be06 7fbe
000001b0: 7811 8bbe fc6d c63d 23a3 213e d0be 5abe
000001c0: fd66 e33d e5f2 65be c67b 2ebd 22e1 94be
000001d0: 301b fe3d ba75 9fbe 70b6 efbd 20c3 36be
000001e0: 344d d2bd ce75 033e b053 753e c343 86bd
000001f0: efcc 8ebe 506c df3d 6531 7d3e afb1 963d
0.31318358 -0.053934723 -0.2839181 0.13562635 0.062358867 0.3309101 0.22094478 0.2422279
0.17557079 0.18435287 -0.1777293 -0.01127926 0.050392155 0.03590377 0.022672951 -0.13164024
0.0036537398 0.060166497 -0.20294936 -0.46077865 0.09334334 -0.026888598 -0.22312182 -0.385438
-0.24234878 0.32374048 -0.14062643 0.05870724 -0.14605537 0.073310845 -0.26701045 -0.18784714
-0.09080869 0.07102521 0.1526477 -0.2255498 0.10478845 0.13887423 -0.27539876 0.35310853
0.16832756 0.034955673 0.11098789 0.102881536 -0.27297533 0.047491442 0.19577293 -0.41280174
0.035772517 0.27413046 0.40420353 -0.4831773 0.042331364 -0.2237162 0.31642106 -0.043850645
0.2703612 0.03598948 0.003289287 0.42459747 0.010850078 0.05864848 0.10254226 0.016243342
0.11320769 0.25092444 -0.27060056 0.17647164 0.15021856 -0.28085944 0.25466615 0.08850313
-0.20876627 -0.0075057093 -0.082560524 0.20051126 -0.112756796 0.15084662 0.18022867 -0.17461039
0.19760516 0.31357512 -0.4937436 -0.46603787 -0.34905764 -0.1668266 -0.31249243 -0.033110823
-0.17062587 -0.045068856 -0.27425882 0.085934654 -0.24916948 0.25751546 -0.1149223 0.026294196
-0.25732854 0.17912085 0.27380717 -0.24680145 0.18605247 0.11015805 -0.102376506 0.043434978
0.17940362 0.14006223 0.21922706 -0.24904916 -0.27161765 0.096889466 0.15784888 -0.21361852
0.11103628 -0.22455938 -0.04259851 -0.29078013 0.12407529 -0.31144506 -0.11704719 -0.17847872
-0.102686316 0.12837908 0.23957705 -0.06555893 -0.27890727 0.10909331 0.24725874 0.07358109

base_model.6.bias f4 [2]
00000000: 7513 cd3d b00c 8e3e
0.10013477 0.27744055
