VRCP_Regression/data/push/policies/adversary_0_final.pth (torch, 418378 bytes, 20 tensors)

model.model.model.0.weight f4 [128, 8]
0	0x3d4db4c0	0.050221205
1	0xbc34d9f5	-0.011038293
2	0x3ee7e02a	0.4528821
3	0x3e43b667	0.1911255
4	0x3d560277	0.052248444
5	0x3db8b309	0.09018523
6	0x3dd508f0	0.10402095
7	0x3e503a51	0.20334746
8	0xbe422f40	-0.18963337
9	0x3e39115a	0.18073025
10	0x3e4abf48	0.1979953
11	0x3ed49c62	0.4152556
12	0x3d008acc	0.031382367
13	0x3e26797f	0.16257285
14	0xbd9e9a70	-0.077443
15	0x3eced464	0.40396416
16	0xbe5d55a7	-0.21614705
17	0x3e0ad315	0.13557084
18	0x3e67caa9	0.22635902
19	0xbe9500ac	-0.29102075
20	0xbdb62245	-0.08893255
21	0x3d7365dd	0.059423316
22	0x3e192265	0.14954527
23	0xbec8f4e6	-0.39249343
24	0xbea8857b	-0.32914338
25	0xbe1c3bf6	-0.15257248
26	0x3ec38ed7	0.38194916
27	0x3ed1b603	0.40959176
28	0xbd8679e1	-0.06566215
29	0x3dae8ced	0.08522973
30	0xbe76a069	-0.24084629
31	0xbdb5faac	-0.088857025
32	0xbde7558a	-0.11295612
33	0xbe795f40	-0.24352741
34	0xbe382faf	-0.1798694
35	0xbe6464c6	-0.22304067
36	0x3dcfabcd	0.1014019
37	0x3de64629	0.11243851
38	0xbdd8ff21	-0.10595537
39	0x3eb9b388	0.36269784
40	0xbe6a6973	-0.22891788
41	0xbe36f107	-0.17865382
42	0x3e9e30f7	0.30896732
43	0xbe45be2c	-0.19310826
44	0xbde63414	-0.11240402
45	0x3e6a4f5c	0.22881836
46	0xbc748569	-0.014924386
47	0xbea2ff7b	-0.3183554
48	0x3eb66fdb	0.35632214
49	0xbe280604	-0.16408545
50	0x3ea06802	0.31329352
51	0x3deb5785	0.114913024
52	0x3db14014	0.086548
53	0xbd063d13	-0.03277309
54	0x3e0d02ba	0.13770571
55	0xbdfa5875	-0.12223903
56	0xbe38d3a9	-0.18049492
57	0xbd5e3d20	-0.054257512
58	0x3ec4ce4f	0.3843865
59	0xbd8b9466	-0.06815414
60	0x3b24a87e	0.0025124843
61	0x3e5a3791	0.2131026
62	0x3d5fb99e	0.054620378
63	0xbdbe1dc0	-0.09283018
64	0x3d8d0604	0.06885913
65	0xbe630ddd	-0.22173257
66	0x3cebe26c	0.02879449
67	0x3da3af11	0.07992376
68	0xbea4359d	-0.32072154
69	0xbe8cbfc0	-0.27490044
70	0x3ec464fe	0.383583
71	0x3d7eadbc	0.062177405
72	0x3e5205e6	0.20510063
73	0x3e5c7569	0.21529163
74	0xbe9f479b	-0.31109318
75	0x3e3ba4d2	0.18324593
76	0xbd99fdc1	-0.07519103
77	0xbe2b737e	-0.16743276
78	0xbe2577e7	-0.1615902
79	0xbdad651c	-0.08466551
80	0x3e021e79	0.12706937
81	0xbe404a7b	-0.18778412
82	0x3e69d471	0.22834946
83	0xbe5d13f7	-0.21589647
84	0x3ceef3cc	0.029168986
85	0xbdad3156	-0.08456676
86	0x3d1e8ac7	0.038706567
87	0x3ebe7314	0.37197173
88	0x3cd3d437	0.025858028
89	0xbdb50512	-0.08838858
90	0x3ecb8241	0.39747813
91	0x3df60077	0.120118074
92	0xbe9c3a0d	-0.3051304
93	0x3d0d6030	0.03451556
94	0x3e957786	0.29192752
95	0xbdfe9823	-0.124313615
96	0x3e428a60	0.18998098
97	0xbd709027	-0.058731224
98	0xbde8cb1f	-0.11366867
99	0xbd2efa50	-0.042719185
100	0xbea8fa6d	-0.3300356
101	0xbe3ca9eb	-0.18424194
102	0x3ea84b56	0.32869977
103	0x3df09f0f	0.11749088
104	0x3e0de859	0.13858165
105	0x3de10a39	0.10988278
106	0xbe51fcd4	-0.20506603
107	0x3d6dd7dd	0.05806719
108	0xbe878a04	-0.26472485
109	0xbe39157c	-0.18074602
110	0x3e6f98ce	0.23398134
111	0x3e090371	0.13380219
112	0x3e7c2893	0.24624853
113	0x3eb31011	0.34973195
114	0x3e0d0613	0.13771848
115	0x3eacf052	0.337771
116	0x3eafc58e	0.3433041
117	0xbc679bfb	-0.01413631
118	0xbe216da1	-0.15764476
119	0x3e4ae494	0.19813758
120	0x3e330719	0.17483176
121	0x3eaa57fe	0.33270258
122	0xbe823c21	-0.254365
123	0xbecdd083	-0.40198144
124	0x3e245b88	0.16050541
125	0xbd4e3068	-0.050339133
126	0xbd55b875	-0.052177865
127	0x3e307103	0.1723061
128	0x3e59102a	0.21197572
129	0x3cba1a0d	0.0227175
130	0x3d821e4b	0.06353434
131	0x3ed05ecd	0.40697327
132	0x3e2e0989	0.16995825
133	0xbeb94c8f	-0.36191222
134	0x3e44ccd8	0.19218767
135	0x3e9b279b	0.30303654
136	0x3e823e19	0.25438002
137	0x3cf653ed	0.030069316
138	0xbe83ceca	-0.25743705
139	0xbe1264c3	-0.1429625
140	0x3d42b54e	0.047536187
141	0xbd95454f	-0.0728861
142	0xbe871fc6	-0.2639143
143	0x3d4cf9cc	0.050042912
144	0xbd92bf6d	-0.07165418
145	0x3dc52b71	0.096274264
146	0xbd119c0d	-0.035549212
147	0xbd276b14	-0.040873602
148	0xbd7b2a54	-0.061319664
149	0x3d91bbbe	0.07115887
150	0xbda56a9f	-0.08076977
151	0x3e1dccd7	0.15410171
152	0xbdb3faac	-0.08788046
153	0x3d1a2b04	0.03763868
154	0x3e66c62a	0.22536531
155	0x3e82a7b5	0.25518575
156	0xbe14fc03	-0.1454926
157	0x3e803f88	0.2504847
158	0x3e632328	0.2218138
159	0xbe725fb5	-0.23669322
160	0xbdf23be9	-0.11827833
161	0xbe0a9f19	-0.13537253
162	0x3c0f58a0	0.008749157
163	0xbe30d02c	-0.17266911
164	0xbdfd412f	-0.123659484
165	0xbc915bce	-0.017743971
166	0x3dc65501	0.09684182
167	0x3ea3add3	0.31968555
168	0xbd02a69a	-0.031897165
169	0xbe1d7d18	-0.1537975
170	0x3e1dd312	0.15412548
171	0xbe86f2f7	-0.26357242
172	0x3bdfef76	0.006833966
173	0x3b0f470f	0.0021862423
174	0xbe057843	-0.13034157
175	0x3ecb8b41	0.3975468
176	0x3c5d450d	0.0135052325
177	0xbdb0922a	-0.086216286
178	0xbecc2ce8	-0.3987801
179	0xbd2da71f	-0.042395707
180	0x3dc16176	0.09442417
181	0x3e01bd62	0.126699
182	0x3e3c2592	0.18373707
183	0xbc6c3e95	-0.014419218
184	0xbdd12bc4	-0.10213426
185	0xbdd553a6	-0.10416345
186	0x3ec3200c	0.38110387
187	0xbf0bd1db	-0.5461709
188	0xbcadfba4	-0.021238156
189	0xbc8297f7	-0.015941603
190	0xbdb4d4c0	-0.08829641
191	0xbde03cac	-0.10949072
192	0x3c0e8482	0.0086985845
193	0x3e506fcd	0.20355149
194	0x3ef5f135	0.4803559
195	0x3e07b7fb	0.13253777
196	0x3e793a2a	0.24338594
197	0x38369caf	4.3538104e-05
198	0x3cc42722	0.023944441
199	0x3c215180	0.009846091
200	0x3de8d317	0.11368387
201	0xbd2e7080	-0.042587757
202	0x3edaf9d1	0.4276872
203	0xbf00ee69	-0.50363785
204	0x3e298ba1	0.1655717
205	0xbc976b89	-0.018483894
206	0xbd8aec47	-0.067833476
207	0xbd7d0a73	-0.061777543
208	0xbe0a417e	-0.13501546
209	0xbbe3a377	-0.0069469768
210	0x3e051707	0.12997065
211	0x3e8d175f	0.27556893
212	0xbe7fa421	-0.24964954
213	0xbe479933	-0.19492035
214	0x3e8fbbac	0.2807287
215	0x3e4ad7d7	0.19808899
216	0xbccaf60d	-0.02477553
217	0xbe4c4d48	-0.19951355
218	0xbe52b206	-0.20575723
219	0x3dc1d577	0.09464543
220	0xbd1ad8a2	-0.037804253
221	0x3de79475	0.11307613
222	0x3c8cb924	0.017178126
223	0xbe355ce4	-0.17711216
224	0xbd9cdbba	-0.07659097
225	0x3cf99d78	0.030470595
226	0xbe87a43e	-0.26492494
227	0xbeddf0ba	-0.43347722
228	0x3e983629	0.2972882
229	0x3e55b61c	0.2087025
230	0xbe3574bc	-0.17720312
231	0xbe065dfd	-0.13121791
232	0xbce4f7af	-0.027950136
233	0xbdfca410	-0.1233598
234	0x3e678754	0.22610217
235	0xbdf095e0	-0.117473364
236	0xbe802981	-0.25031665
237	0xbe57b075	-0.21063407
238	0x3ea350a6	0.31897467
239	0x3d69cf6c	0.05708258
240	0xbe11bcf5	-0.14232238
241	0x3e1a6d49	0.15080751
242	0xbe43c148	-0.191167
243	0xbea95239	-0.33070543
244	0xbd8f7508	-0.07004744
245	0x3cfc46ee	0.03079554
246	0xbe0d900b	-0.1382448
247	0xbeba174c	-0.363459
248	0x3d94e984	0.07271102
249	0xbe9345b8	-0.2876413
250	0x3dce00a3	0.10058715
251	0x3ea5ea7e	0.32405466
252	0x3de4c3f0	0.111701846
253	0xbdb22b94	-0.08699718
254	0x3e7c145e	0.24617144
255	0xbebd64b3	-0.3699089

model.model.model.0.bias f4 [128]
0	0xbee9ecd4	-0.45688498
1	0x3eadefca	0.33972007
2	0xbd409305	-0.04701521
3	0xbeba0457	-0.36331436
4	0x3e04c788	0.1296674
5	0x3e1f1d6b	0.15538566
6	0x3eb072a1	0.34462455
7	0x3d9cd478	0.07657713
8	0x3e924236	0.2856614
9	0xbc537a0a	-0.012907514
10	0xbb5b48ae	-0.0033460069
11	0xbde4e105	-0.111757316
12	0xbe15cea7	-0.14629613
13	0xbef74529	-0.48294953
14	0x3b98d534	0.0046640877
15	0xbed10c07	-0.4082949
16	0xbea304e9	-0.31839684
17	0x3c6a93ce	0.014317466
18	0x3e499efb	0.19689552
19	0xbe2f300e	-0.17108175
20	0xbe80d8ee	-0.25165504
21	0xbc8e72b9	-0.017388688
22	0xbeabaec1	-0.33531764
23	0xbeb127b6	-0.3460061
24	0x3e3751c2	0.17902282
25	0xbda02a0e	-0.07820521
26	0xbe59dcd1	-0.21275641
27	0xbdd6235c	-0.10455963
28	0xbef210a8	-0.47278333
29	0xbdc0f160	-0.09421039
30	0xbeb9eae4	-0.3631202
31	0xbe8b9151	-0.27259305
32	0xbeae4425	-0.34036365
33	0x3e72b0ae	0.2370021
34	0xbe811901	-0.2521439
35	0x3dfc1bc1	0.12309981
36	0x3d7c0f1d	0.06153785
37	0xbea0b794	-0.3139006
38	0x3e577da0	0.21044016
39	0x3dc64d93	0.09682765
40	0x3eb7bfa6	0.35888404
41	0x3e71c944	0.23611933
42	0xbc5e9e63	-0.013587567
43	0xbe9c9549	-0.30582646
44	0xbdaf47c0	-0.08558607
45	0x3c115841	0.008871139
46	0x3de23e11	0.110469945
47	0xbec15bdb	-0.37765393
48	0xbeb06972	-0.34455448
49	0x3e017a56	0.12644324
50	0x3eae743e	0.3407306
51	0x3e28c8b1	0.16482808
52	0x3e5d6422	0.21620229
53	0xbde5873d	-0.11207435
54	0x3e22b7fb	0.15890495
55	0x3ec1df3f	0.37865636
56	0xbe596604	-0.21230322
57	0xbe85f4b3	-0.26163253
58	0xbec7145b	-0.38882717
59	0x3e5979bd	0.21237846
60	0xbdeab47a	-0.114602044
61	0xbe6cca05	-0.2312394
62	0xbdac419a	-0.0841095
63	0x3d6c45f1	0.05768389
64	0xbd19e902	-0.03757573
65	0xbda86bcd	-0.08223686
66	0xbd619276	-0.055071317
67	0x3e2ebf63	0.17065196
68	0xbe122aff	-0.14274214
69	0xbe49be25	-0.1970144
70	0xbe36e936	-0.178624
71	0xbe1de44c	-0.1541912
72	0xbe97d0ce	-0.29651493
73	0xbe9799c4	-0.296095
74	0x3c87a7d6	0.016559523
75	0xbe9df2de	-0.30849355
76	0x3e40d742	0.18832114
77	0x3f075900	0.5287018
78	0x3e3eecd1	0.18645026
79	0x3ee3e069	0.4450715
80	0xbe650b5b	-0.22367613
81	0xbe82489c	-0.25446022
82	0xbdddb9d7	-0.10826462
83	0xbe3d88d2	-0.18509224
84	0xbeb18b28	-0.3467648
85	0x3eea414a	0.45752937
86	0xbf05522f	-0.5207853
87	0x3d0a72cc	0.033800885
88	0x3ed22460	0.41043377
89	0x3e028a2f	0.12748025
90	0x3c812ea7	0.015769316
91	0xbeb11ef1	-0.3459392
92	0xbea3003e	-0.31836122
93	0x3e88ebd8	0.26742435
94	0xbe05eca5	-0.13078554
95	0xbcbc55c0	-0.022990108
96	0xbeddef20	-0.433465
97	0xbe247b72	-0.16062716
98	0xbcf82f82	-0.030296091
99	0xbd78b329	-0.060717735
100	0xbd8438cd	-0.064561464
101	0xbe665929	-0.2249495
102	0xbd40bd50	-0.047055542
103	0xbec3cdb7	-0.38242885
104	0x3df2f1e3	0.118625425
105	0x3deac1d1	0.11462749
106	0xbe80b52b	-0.2513822
107	0x3d510930	0.051034153
108	0x3e28eb71	0.16496064
109	0x3de08b29	0.10964043
110	0x3dd752d5	0.10513846
111	0x3ebb49af	0.36579654
112	0xbe277168	-0.16351855
113	0xbee88234	-0.45411837
114	0xbeed84d6	-0.46390408
115	0x3d8da4a7	0.069161706
116	0x3e74a2fc	0.23890299
117	0xbe843022	-0.25817972
118	0xbcbce7a1	-0.023059668
119	0xbed925dc	-0.42411697
120	0xbf007811	-0.50183207
121	0x3ec717c3	0.38885316
122	0xbe48f7b7	-0.19625746
123	0xbd2dd18d	-0.04243617
124	0xbd19e443	-0.037571203
125	0xbd8589aa	-0.06520398
126	0xbe2e009d	-0.16992421
127	0x3e85010a	0.25977355

model.model.model.2.weight f4 [128, 128]
0	0xbbefad58	-0.0073143654
1	0x3d8b84c0	0.068124294
2	0xbdd3e328	-0.10346061
3	0x3dd27fa1	0.102782495
4	0x3ca76a90	0.020436555
5	0x3d70eab2	0.058817573
6	0x3c8eb547	0.017420424
7	0x3cce77d2	0.02520362
8	0xbe1b9f47	-0.15197478
9	0xbe643c02	-0.22288516
10	0xbd77b4c6	-0.060475133
11	0x3d50ffc3	0.051025163
12	0x3dfdeaca	0.12398298
13	0xbd8da1e6	-0.06915645
14	0xbb2ba985	-0.002619357
15	0x3d86dcd6	0.0658509
16	0x3d997b30	0.07494199
17	0xbe5d10af	-0.21588396
18	0x3db5fff1	0.088867076
19	0xbc0e3696	-0.0086800065
20	0x3d9dac2d	0.076988555
21	0xba8f60e8	-0.0010938914
22	0x3d04fda9	0.03246847
23	0xbe6b1622	-0.22957662
24	0x3d8849a8	0.06654674
25	0x3dfe8170	0.12427032
26	0x3dde8219	0.10864658
27	0x3e00568d	0.12533017
28	0x3dc55c5a	0.09636755
29	0xbe3c2a39	-0.18375482
30	0xbd7b064a	-0.061285295
31	0xbd62ad00	-0.055340767
32	0x3dbbad96	0.09163968
33	0xbde0b12f	-0.10971295
34	0xbdbc17d4	-0.09184232
35	0x3d55caea	0.052195467
36	0xbc4a4d3d	-0.012347517
37	0xbce040eb	-0.027374705
38	0x3d5a2219	0.053255174
39	0xbe6467e2	-0.22305253
40	0xbd18411d	-0.037171472
41	0xbcdcfdf7	-0.026976569
42	0x3d0a431f	0.033755418
43	0x3ddd65a7	0.10810404
44	0x3dad7d06	0.08471112
45	0xbe599bdd	-0.21250863
46	0xbd312f8c	-0.043258235
47	0xbcad2462	-0.021135513
48	0xbdf401f9	-0.11914439
49	0x3d7e1af8	0.06203744
50	0xbdd9305b	-0.10604926
51	0xbda601d5	-0.08105818
52	0xbae8adac	-0.0017751954
53	0x3e19f388	0.15034306
54	0xbd03cdd6	-0.032178722
55	0x3a9dddd4	0.0012044259
56	0xbe7486d6	-0.23879561
57	0xbd9aca34	-0.075580984
58	0x3d49a027	0.049225
59	0x3de17de2	0.11010338
60	0x3d92f01e	0.07174705
61	0xbd2a007e	-0.041504376
62	0xbd52fd1c	-0.051510915
63	0x3e014bf4	0.1262663
64	0x3dc5fadb	0.096669875
65	0xbd8dbf85	-0.06921295
66	0xbe3e942a	-0.18611208
67	0xbdaa326d	-0.08310399
68	0x3c1b2323	0.009468826
69	0xbcff9c13	-0.031202352
70	0x3dd61bd8	0.104545295
71	0xbd4a2cd3	-0.049359154
72	0x3ce26f77	0.027641041
73	0x3ca712ae	0.02039465
74	0x3b38c123	0.002819129
75	0xbb3dbbc0	-0.002895102
76	0xbe5e4372	-0.21705416
77	0xbdaa0701	-0.08302117
78	0xbdcb04d5	-0.09913031
79	0x3cdf264e	0.027239945
80	0xbcdcdc72	-0.026960585
81	0x3dd6a696	0.104809925
82	0x3c90c26c	0.017670833
83	0x3df538ae	0.119737014
84	0xbcee4d70	-0.02908966
85	0x3dc9c38f	0.09851753
86	0xbd9b0719	-0.07569713
87	0xbe896108	-0.2683184
88	0xbdd3d13f	-0.10342645
89	0xbd353ebe	-0.04424929
90	0xbdcd3ba4	-0.10021141
91	0xbdd6f8a4	-0.10496643
92	0xbd193bf5	-0.037410695
93	0xbcb1ffd2	-0.02172843
94	0xbe817656	-0.25285596
95	0xbd84f15d	-0.06491349
96	0xbcccde34	-0.025008298
97	0x3d758a78	0.059946507
98	0x3babdf51	0.0052451272
99	0xbe0768b6	-0.13223538
100	0xbcf6850f	-0.030092744
101	0x3bc325c3	0.0059554293
102	0xbdb927de	-0.09040807
103	0x3dd1fb5c	0.10253021
104	0x3b59a71f	0.0033211184
105	0xbd9bd479	-0.07608885
106	0xbe3713bb	-0.1787862
107	0x3e165d37	0.14683996
108	0xbc59fcdf	-0.013304918
109	0xbd37dc63	-0.04488791
110	0x3d487c2b	0.04894654
111	0x3e10480f	0.14089988
112	0x3d2754ca	0.040852346
113	0x3dc949fa	0.09828563
114	0x3e3044d6	0.17213759
115	0x3df45f76	0.1193227
116	0xbdd86cbc	-0.105676144
117	0xbe0e2f3c	-0.13885206
118	0x3dc1f9dd	0.09471486
119	0xbdd31169	-0.10306055
120	0x3dc97f6c	0.09838757
121	0x3dcfb950	0.101427674
122	0xbe04d6ed	-0.12972613
123	0x3b97d33a	0.0046333345
124	0x3e251abe	0.16123483
125	0x3dc2e2a7	0.09515887
126	0xbdf44991	-0.11928094
127	0x3d3a113c	0.045426592
128	0xbe049398	-0.12946928
129	0xbe493499	-0.1964897
130	0xbcd74f64	-0.026282974
131	0xbd8e87ac	-0.06959471
132	0xbe1f531d	-0.15559049
133	0xbc0dbbcf	-0.008650734
134	0xbe36df7f	-0.17858694
135	0xbd899eea	-0.067197636
136	0xbd8f4ef1	-0.06997479
137	0xbcb43277	-0.02199672
138	0xbdb66cc8	-0.08907467
139	0xbe0cf659	-0.13765849
140	0xbda134de	-0.07871412
141	0x3c408b7e	0.0117520075
142	0x3c3b06f8	0.011415236
143	0x3da6d261	0.08145595
144	0x3c972555	0.018450418
145	0x3da9c432	0.082893744
146	0xbd5c4a23	-0.05378164
147	0xbdacce6d	-0.0843781
148	0xbb53843c	-0.0032274863
149	0xbdc321c8	-0.09527928
150	0xbe013632	-0.1261833
151	0x3b8c9aa2	0.0042908946
152	0x3c170f9f	0.009220033
153	0x3d8462c9	0.06464154
154	0xbcf807e5	-0.030277202
155	0xbd6689eb	-0.056283873
156	0x3e381feb	0.17980926
157	0xbdd7be34	-0.10534325
158	0xbe27b5b8	-0.16377914
159	0xbd5e1b2f	-0.054225143
160	0x3dda130d	0.10648165
161	0xbd895b12	-0.067068234
162	0xbe1968c2	-0.14981368
163	0xbbaf8eb8	-0.0053575896
164	0x3d1e5556	0.0386556
165	0xbd33ea7d	-0.043924797
166	0xbd926c5c	-0.07149574
167	0xbe353c72	-0.1769884
168	0xbd5ab489	-0.053394828
169	0xbd425336	-0.047442637
170	0xbe2422de	-0.16028926
171	0xbca1a943	-0.01973403
172	0xbe26683a	-0.16250697
173	0xbbcf81a9	-0.0063325954
174	0x3d9a2f98	0.07528609
175	0xba6faaa2	-0.0009142553
176	0xbcd36748	-0.025806084
177	0xbd64835c	-0.055789337
178	0xbd161b0a	-0.03664688
179	0xbdc0d69f	-0.09415936
180	0x3cb9ff2a	0.02270468
181	0x3cd29dc1	0.025709989
182	0xbc292046	-0.010322636
183	0xbda1f6cd	-0.07908402
184	0xbd19a4e1	-0.037510756
185	0x3cd01791	0.025401862
186	0xbc76674c	-0.015039276
187	0x3c90dbd9	0.017682957
188	0x3d36b881	0.04460955
189	0xbd93449e	-0.07190822
190	0xbdf2ac0d	-0.11849222
191	0xbd75b986	-0.059991382
192	0x3b450727	0.0030064078
193	0xbdc1b56d	-0.09458432
194	0x3b5ef4cc	0.0034020422
195	0xbd68e274	-0.056856588
196	0xbe0e4fc1	-0.13897611
197	0x3d9c5a3f	0.076344006
198	0xbd7b1f32	-0.061309047
199	0xbcc5610e	-0.02409413
200	0x3b59c49f	0.0033228768
201	0x3e261f43	0.16222863
202	0xbd2a77c8	-0.04161814
203	0xbd1a8aea	-0.037730135
204	0xbca0efa4	-0.01964552
205	0xbe870c7c	-0.26376712
206	0xbcd10577	-0.025515301
207	0xbd1f9911	-0.038964335
208	0xbdaa4f93	-0.08315959
209	0xbdc2af0e	-0.09506045
210	0x3d5ebe32	0.054380603
211	0xbbbc5890	-0.005747862
212	0xbcb4defd	-0.022078985
213	0xbe144319	-0.1447872
214	0x3d0d8808	0.034553558
215	0xbcf256e2	-0.029582445
216	0xbd0afa78	-0.033930272
217	0x3d2d35ac	0.042287514
218	0xbcd98db7	-0.026556833
219	0x3bce06e8	0.0062874444
220	0xbd7d7b37	-0.061885085
221	0xbdcd5a35	-0.10026971
222	0xbdf3bce8	-0.119012654
223	0xbbf148bc	-0.007363407
224	0xbd1c6146	-0.038178705
225	0xbd26e4a9	-0.04074541
226	0x3bcbc62d	0.0062186928
227	0xbd4e650c	-0.050389335
228	0xbdf97327	-0.12180167
229	0xbdc367a7	-0.095412545
230	0x3d358611	0.04431731
231	0xbcdebc26	-0.027189326
232	0xbda04c4f	-0.07827055
233	0xbda55be0	-0.080741644
234	0x3d49b857	0.049248066
235	0xbd3fcb3c	-0.04682468
236	0x3d901844	0.07035878
237	0xbd3a9cb7	-0.04555961
238	0xbd108d43	-0.035290968
239	0x3d441084	0.047867313
240	0x3cc2c636	0.023776155
241	0x3e1eb297	0.15497814
242	0xba96ce58	-0.0011505587
243	0x3d7d77aa	0.0618817
244	0xbdb1063f	-0.086437695
245	0x3dab67c3	0.083694
246	0x3e105001	0.14093019
247	0xbe0cb669	-0.13741459
248	0x3dcdceca	0.100492075
249	0x396decf4	0.00022690353
250	0xbe2bcd74	-0.16777593
251	0x3dbe4a4e	0.09291516
252	0x3bdd853f	0.006760269
253	0xbd4b554f	-0.049641903
254	0xbc67b1d0	-0.014141515
255	0xbbf6d06c	-0.00753217

model.model.model.2.bias f4 [128]
0	0x3bc03eb3	0.0058668493
1	0xbe194cd6	-0.14970717
2	0xbe01b359	-0.12666072
3	0xbea983ce	-0.33108371
4	0xbd8ed89d	-0.069749095
5	0x3e0163ce	0.12635729
6	0xbb84668a	-0.004040544
7	0x3d957a94	0.072987705
8	0xbc22bdeb	-0.009932975
9	0x3d1bbc80	0.038021564
10	0x3e2eb43c	0.17060941
11	0x3dca3d9b	0.098750316
12	0xbdbb0129	-0.09131081
13	0x3cb1c3c2	0.02169979
14	0xbdf1839d	-0.11792681
15	0xbba4eece	-0.0050333505
16	0xbdd27074	-0.10275355
17	0xbeb25ea1	-0.3483782
18	0x3d508cdc	0.050915584
19	0x3d00c1fe	0.031435005
20	0x3ce3ebd3	0.02782241
21	0x3dda6aa9	0.10664875
22	0x3d2e97b1	0.042625133
23	0x3d1efa18	0.038812727
24	0x3cef506c	0.029213153
25	0xbe36aed2	-0.17840126
26	0xbdb8ac3a	-0.090172246
27	0xbdaabb6e	-0.083365306
28	0x3dee0778	0.11622518
29	0xbb903e3e	-0.004401951
30	0xbd811bdb	-0.06304141
31	0xbd3bdd6e	-0.04586547
32	0xbc078ece	-0.008273793
33	0xbd804d89	-0.06264789
34	0xbcfe638e	-0.03105333
35	0x3cc8a92a	0.024494726
36	0xbbd55b3f	-0.0065111215
37	0xbcc0fbf7	-0.023557646
38	0xbd828e40	-0.06374788
39	0x3dbb2ffa	0.0914001
40	0xbe037f07	-0.12841426
41	0x3d48d6c9	0.04903296
42	0x3c8ab614	0.016932525
43	0xbdee415f	-0.11633562
44	0xbc210a3a	-0.009829098
45	0x3d77d8f3	0.060509633
46	0xbd473b1f	-0.048640367
47	0x3c990502	0.018679146
48	0xbcf94d78	-0.030432448
49	0xba339594	-0.0006850597
50	0xbd30c26a	-0.043154158
51	0xbbae8ea0	-0.005327061
52	0x3e149eb8	0.14513671
53	0xbda3d55d	-0.0799968
54	0x3ca4431e	0.020051535
55	0x3d0229e6	0.03177824
56	0xbd907f96	-0.07055585
57	0x3c42c9da	0.0118889455
58	0x3df2e51d	0.11860106
59	0xbe48f9ad	-0.19626494
60	0xbd55a5dd	-0.052160133
61	0xbd145864	-0.03621711
62	0xbcc31686	-0.023814451
63	0xbe0ed13f	-0.13947009
64	0xbd92e7a4	-0.07173088
65	0xbe19c190	-0.15015244
66	0x3dac284f	0.08406126
67	0x3d8b8ac2	0.06813575
68	0x3dcff161	0.10153461
69	0xbd85e597	-0.065379314
70	0xbda882fa	-0.08228107
71	0x3e365049	0.17804064
72	0xbd8509f8	-0.06496042
73	0x3da762cc	0.08173141
74	0x3dd410c8	0.10354763
75	0xbe8dd8b1	-0.27704385
76	0xbdec4678	-0.11536878
77	0x3d3e07ed	0.046394277
78	0xbd213cf6	-0.039364778
79	0x3d6ab4ff	0.057301518
80	0x3bc9848c	0.006149834
81	0x3c8827ff	0.016620634
82	0x3d877101	0.06613351
83	0x3d91a96d	0.071123935
84	0x3e5863db	0.21131842
85	0x3e1b2b0e	0.15153143
86	0xbd24c289	-0.040224586
87	0xbe3b4ab6	-0.18290219
88	0xbe1a92b3	-0.15095024
89	0x3d174bfb	0.036937695
90	0x3db81241	0.08987857
91	0x3c87de79	0.016585575
92	0x3d9a7328	0.075414956
93	0xbdd4ecf8	-0.10396761
94	0x3d91fd4a	0.07128389
95	0xbdc50a62	-0.09621121
96	0x3cfae743	0.030627852
97	0xbd4cc088	-0.0499883
98	0x3d64d2ed	0.055865217
99	0x3c4a9177	0.012363783
100	0xbdbc4642	-0.09193088
101	0x3d7e0928	0.06202045
102	0x3e0584e0	0.13038969
103	0x3dc4b32b	0.09604486
104	0xbeeee5ef	-0.466598
105	0x3e09d497	0.13460003
106	0xbce898f5	-0.028393248
107	0x3d68886a	0.05677072
108	0xbcf8d818	-0.030376479
109	0x3dd251fd	0.10269544
110	0x3d83c53d	0.064341046
111	0x3d516c6e	0.051128797
112	0xbe5d09c6	-0.2158576
113	0x3d80fffc	0.06298825
114	0xbca3944b	-0.019968173
115	0xbd979de8	-0.07403165
116	0xbd6f1205	-0.058366794
117	0x3eafbd68	0.34324193
118	0xbb7081a9	-0.0036698377
119	0x3d9f66b4	0.07783261
120	0xbd42a3e5	-0.047519583
121	0x3cb635db	0.022242477
122	0xbd3350ab	-0.043778103
123	0xbe486d59	-0.19572963
124	0xbe051705	-0.12997063
125	0x3dafc724	0.08582905
126	0x3d647d7a	0.055783726
127	0x3c9aef3b	0.018912902

model.model.model.4.weight f4 [128, 128]
0	0xbdd1dd27	-0.102472596
1	0xbcd79732	-0.026317213
2	0xbe888d29	-0.26670197
3	0x3e3e0a67	0.18558656
4	0xbcdc4212	-0.026886974
5	0xbc53c787	-0.012925989
6	0x3c011c21	0.007880242
7	0xbb80457c	-0.003914533
8	0x3c4ce0e0	0.012504786
9	0xbdb51f58	-0.08843869
10	0xbd7a819e	-0.06115877
11	0xbc2d73e4	-0.0105867125
12	0xbd91fd3e	-0.0712838
13	0xbdc6dc9d	-0.097100474
14	0x3c498c59	0.012301528
15	0xbda72432	-0.081612006
16	0x3e119cdd	0.14219995
17	0xbe45071f	-0.19240998
18	0xbdd3af35	-0.103361525
19	0xbd9830dc	-0.07431194
20	0xbd16a530	-0.03677863
21	0xbe0dbd87	-0.1384183
22	0x3de6c814	0.112686306
23	0x3cab3bba	0.020902503
24	0xbd125a8a	-0.035730876
25	0x3d0eb44e	0.03483992
26	0xbbc3cfd2	-0.005975702
27	0xbd690061	-0.056885127
28	0xbd6cb8d4	-0.057793453
29	0x3daf17de	0.08549474
30	0xbdf4ac5f	-0.1194694
31	0x3d80c0a8	0.06286746
32	0xbd80628f	-0.062687986
33	0xbdb00eb1	-0.08596552
34	0x3d9a2306	0.075262114
35	0xbd8e25e5	-0.069408216
36	0xbe7e369a	-0.24825516
37	0x3d7c62ff	0.061617848
38	0x3d9c4e17	0.07632082
39	0x3e2363a7	0.15955983
40	0x3e3fd14e	0.18732187
41	0xbd597559	-0.053090427
42	0x3d7be105	0.061493892
43	0x3d8b2aee	0.067952976
44	0x3e00ca05	0.12577064
45	0xbdb772ac	-0.08957419
46	0xbdab473b	-0.083631955
47	0x3d1b24c4	0.03787686
48	0xbd11252f	-0.03543585
49	0x3c42e686	0.011895781
50	0xbd24966c	-0.040182516
51	0x3da18324	0.07886341
52	0x3d173e18	0.03692445
53	0xbd933155	-0.07187144
54	0xbda142f8	-0.078741014
55	0x3c8a9568	0.016916946
56	0x3d5ba35b	0.053622585
57	0x3c9c84e4	0.019106336
58	0xbe05416a	-0.13013235
59	0x3bdabebe	0.0066755703
60	0x3cbf14ec	0.023325406
61	0x3d905e90	0.07049286
62	0x3ddf4bf6	0.1090316
63	0xbd7a02a6	-0.061037682
64	0xbe35af9d	-0.17742772
65	0xbd9cfc96	-0.076653644
66	0xbd3382ea	-0.04382602
67	0x3e160c94	0.14653236
68	0x3d77f4ca	0.060536183
69	0xbdb7591e	-0.08952545
70	0xbd50b7e4	-0.05095662
71	0xbe1b2df0	-0.15154243
72	0xbd3d6f16	-0.046248518
73	0xbd2f5fd1	-0.042815987
74	0xbcd82047	-0.026382579
75	0x3d49daec	0.049281046
76	0xbd4103da	-0.047122814
77	0x3e1fc07c	0.1560077
78	0x3d46d885	0.048546333
79	0xbdf896a6	-0.12138109
80	0xbdcaa019	-0.098938175
81	0x3d9f2035	0.07769815
82	0xbe1d4585	-0.15358551
83	0xbb788f35	-0.0037927155
84	0x3d966308	0.073431075
85	0xbda206d3	-0.07911458
86	0x3d6cccf8	0.05781266
87	0xbd1d1d46	-0.038357995
88	0x3d36beff	0.04461574
89	0x3d111c22	0.03542722
90	0xbcee074a	-0.02905621
91	0x3d8bb373	0.068213366
92	0xbe2e785b	-0.170381
93	0xbd194d77	-0.03742739
94	0x3d03476b	0.03205053
95	0xbd0624e2	-0.032750018
96	0xbd4dd667	-0.050253298
97	0xbdbe83aa	-0.09302457
98	0xbd8da06d	-0.069153644
99	0xbbe234ea	-0.0069032805
100	0xbd0f9f28	-0.035063893
101	0xbd483c00	-0.048885345
102	0xbe302458	-0.17201364
103	0xbe2a9042	-0.16656592
104	0xbdefd83e	-0.11711167
105	0xbdfead10	-0.12435353
106	0xbd44d144	-0.048051134
107	0xbd1797e8	-0.037010103
108	0xbc5521fe	-0.013008593
109	0xbdc6866f	-0.0969361
110	0x3d09581b	0.03353129
111	0xbc4b4400	-0.012406349
112	0xbdf208c5	-0.11818079
113	0x3c21c954	0.0098746605
114	0x3ca33041	0.01992047
115	0xbd6fd8c3	-0.05855633
116	0xbddb6867	-0.107132725
117	0xbe11f127	-0.14252149
118	0x3ab1535a	0.0013528869
119	0xbb4e5495	-0.003148352
120	0xbd67dcca	-0.056607045
121	0x3d1f5730	0.038901508
122	0x3d8de505	0.06928448
123	0x3cd4a0f1	0.02595565
124	0xbe07d32d	-0.13264151
125	0xbd72679f	-0.059180852
126	0xbd53d8a7	-0.051720288
127	0xbe167e2b	-0.14696567
128	0xbca6cea8	-0.020362213
129	0x3d42fc90	0.047604144
130	0xbdab1971	-0.08354462
131	0xbd856fde	-0.065154776
132	0xbcf2f2a7	-0.029656721
133	0x3d122c54	0.035686806
134	0xbd7a4fa8	-0.061111122
135	0xbd83a4c1	-0.06427909
136	0xbd9da2fc	-0.076971024
137	0xbdede774	-0.11616412
138	0xbd35e5ed	-0.044408727
139	0x3d66d999	0.05635986
140	0xbdc69155	-0.09695689
141	0x3d0834c3	0.033253442
142	0xbbfb7aa7	-0.0076745334
143	0x3d88bce3	0.06676652
144	0x3c4631c3	0.012096825
145	0x3d3a2dfb	0.045454007
146	0xbd844ea8	-0.06460315
147	0x3d8c9bbd	0.06865642
148	0x3d13b46e	0.036060743
149	0xbdbbe128	-0.091738045
150	0x3d2baca7	0.0419127
151	0xbe57d72d	-0.21078177
152	0x3d32c712	0.04364688
153	0x3d083178	0.033250302
154	0x3d6ad006	0.057327293
155	0x3d9557d5	0.07292143
156	0xbe3035df	-0.1720805
157	0xbdc0233b	-0.0938172
158	0x3ca6a4ef	0.020342318
159	0xbdaebca0	-0.08532071
160	0xbd422f22	-0.04740823
161	0xbb42c025	-0.0029716578
162	0xbc4646a4	-0.012101803
163	0xbd7273ad	-0.05919235
164	0x3cc421f3	0.02394197
165	0x3d487dd7	0.048948135
166	0xbd3fc52e	-0.046818905
167	0x3c370de2	0.0111727435
168	0xbd741b16	-0.059596144
169	0x3d1d1708	0.038352042
170	0xbd84279c	-0.064528674
171	0xbc75def9	-0.015006774
172	0xbdcffe02	-0.1015587
173	0xbc9e547a	-0.019327391
174	0xbc32ac12	-0.010905283
175	0x3c79092e	0.0151999425
176	0x3d768521	0.060185555
177	0x3d7bd6d4	0.061484173
178	0x3c70b059	0.014690482
179	0xbe124e1e	-0.14287612
180	0xbe3c0693	-0.18361883
181	0xbd2a5e8e	-0.04159408
182	0x3bd80aa1	0.006593064
183	0xbdb3e304	-0.08783534
184	0x3d1eb6fe	0.038748734
185	0xbce55779	-0.027995812
186	0xbce553aa	-0.027993996
187	0xbd50a8b4	-0.050942138
188	0x3dbeb593	0.09311976
189	0xbcad8327	-0.021180702
190	0xbd5ba2f5	-0.053622205
191	0x3b9e1abb	0.004824964
192	0xbe0db6a0	-0.13839197
193	0x3dc0f91b	0.09422513
194	0xbc5ada75	-0.013357748
195	0xbe1ac7b9	-0.1511525
196	0x3d24c044	0.04022242
197	0x3d76f290	0.06028992
198	0xbcbff772	-0.02343342
199	0x3bd8a273	0.0066111623
200	0x3dea3eca	0.11437757
201	0xbd0c056a	-0.03418485
202	0xbd6f37a6	-0.05840268
203	0xbdb07297	-0.08615606
204	0xbdfc8268	-0.123295605
205	0xbd29a4c2	-0.04141689
206	0xbd94fd3d	-0.07274864
207	0xbd55473b	-0.052069884
208	0x3c3b51a6	0.011433041
209	0x3dc46a64	0.09590605
210	0x3da097e2	0.07841469
211	0x3d843d1d	0.06456969
212	0xbd804f12	-0.062650815
213	0x3cf0f59c	0.02941399
214	0xbd82d040	-0.06387377
215	0xbe2804c5	-0.1640807
216	0xbbd55bd3	-0.0065111904
217	0x3cc1dc8f	0.02366474
218	0xbce5ae38	-0.028037176
219	0xbc928a13	-0.017888105
220	0xbdf016c6	-0.11723094
221	0xbca2a1cd	-0.019852543
222	0xbd52a403	-0.051425945
223	0xbd70bd3b	-0.058774214
224	0xbd32f968	-0.043694884
225	0x3ca6c542	0.020357732
226	0xbd262291	-0.04056031
227	0xbd530417	-0.051517572
228	0xbe0a91ed	-0.13532229
229	0xbb43d4fd	-0.002988159
230	0xbd5dcd5d	-0.054150928
231	0x3da58428	0.080818474
232	0xbe5d7e30	-0.21630168
233	0x3cef7cec	0.029234372
234	0xbbcfefa7	-0.0063457075
235	0x3c0fdba1	0.008780391
236	0xbc60b26f	-0.013714417
237	0xbccafe8d	-0.024779582
238	0xbd339ba6	-0.04384961
239	0xbd33c317	-0.043887224
240	0xbd11170c	-0.03542237
241	0x3bae7bf6	0.005324836
242	0xbd871e4e	-0.06597577
243	0xbdface3c	-0.12246367
244	0xbe057fbf	-0.13037013
245	0xbde72d56	-0.11287944
246	0xbd3916c9	-0.045187745
247	0x3d7a1a91	0.061060492
248	0xb992160a	-0.0002786371
249	0xbcfabd0c	-0.030607723
250	0x3be25e63	0.0069082244
251	0x3d3f5e31	0.046720687
252	0x3d5187ab	0.051154774
253	0xbde37ec3	-0.11108162
254	0x3b77f7ad	0.0037836835
255	0xbcd4aa2c	-0.02596005

model.model.model.4.bias f4 [128]
0	0x3c423077	0.011852375
1	0x3cce9304	0.025216587
2	0x3e3b8dcb	0.18315808
3	0x3d98752c	0.07444224
4	0xbd948771	-0.07252396
5	0x3dc38437	0.09546702
6	0x3da08b08	0.07839018
7	0xbdfb3212	-0.122654095
8	0x3e0aebca	0.13566509
9	0x3e24d41b	0.16096537
10	0xbd0c9514	-0.03432186
11	0xbd48adb2	-0.048993774
12	0x3debc4e4	0.11512163
13	0x3db360af	0.08758675
14	0xbd8c68a7	-0.06855898
15	0x3c88a396	0.016679566
16	0x3d9260cd	0.071473695
17	0xbd92863e	-0.07154511
18	0x3de45487	0.11148935
19	0x3d9ae346	0.0756288
20	0x3c85f826	0.016353678
21	0x3dd43577	0.1036176
22	0x3da3fb06	0.08006863
23	0x3d4f257b	0.050572854
24	0xbe8b6d1c	-0.2723168
25	0xbc7b3c1e	-0.015334157
26	0xbd9edcaa	-0.07756932
27	0x39ea88e9	0.00044733964
28	0xbdd9d0d8	-0.10635537
29	0x3cd360bd	0.025802964
30	0x3e1acfef	0.15118383
31	0xbd6d5a76	-0.0579476
32	0xbb8995a3	-0.0041987463
33	0x3d096be7	0.03355017
34	0xbb57a0f1	-0.0032902325
35	0x3d3b03e2	0.045658
36	0xbc49bdd9	-0.01231333
37	0xbe397314	-0.18110305
38	0x3dcba064	0.099427015
39	0xbd8aa54f	-0.06769811
40	0x3e4b75a8	0.19869101
41	0x3c0108ac	0.007875603
42	0x3b67afe9	0.0035352653
43	0xba2adc3b	-0.0006517802
44	0xbe16e4b3	-0.1473568
45	0xbe012f8b	-0.12615792
46	0x3c683f05	0.014175181
47	0xbc0566c0	-0.008142173
48	0x3daacd44	0.083399326
49	0xbc95f71a	-0.018306304
50	0x3e0636a3	0.1310678
51	0xbd4560dd	-0.04818808
52	0x3c7c06ea	0.015382508
53	0x3d6f97a2	0.058494218
54	0x3dbccbd5	0.092185654
55	0xbe073a29	-0.1320578
56	0x3db8c813	0.09022536
57	0xbded6e81	-0.115933426
58	0xbd614f8e	-0.05500751
59	0x3dfbc7fa	0.12294002
60	0xbe6a1098	-0.22857893
61	0x3da14502	0.0787449
62	0x3d6f7196	0.058457933
63	0xbc016319	-0.007897162
64	0xbe216ae1	-0.15763427
65	0xbebbb7e9	-0.3666375
66	0x3d57e14a	0.052705087
67	0xbc14eeb2	-0.0090901125
68	0xbd88c260	-0.06677699
69	0x3da14f9e	0.07876514
70	0x3e551106	0.20807275
71	0x3de2f04c	0.11080989
72	0x3c295a80	0.010336518
73	0x3dbd31a4	0.09237984
74	0x3ba9a1ad	0.005176744
75	0xbe36ccba	-0.17851534
76	0xbe1ee4d1	-0.15516974
77	0x3d61339f	0.05498087
78	0xbe1d296c	-0.15347832
79	0xbd441c96	-0.047878824
80	0xbdb36493	-0.087594174
81	0xbddb549e	-0.10709499
82	0xbdf55114	-0.11978355
83	0xbe070945	-0.1318713
84	0xbdcc670a	-0.09980591
85	0xbdd3cb2d	-0.10341487
86	0xbdee8b2b	-0.11647638
87	0x3d0fe158	0.035127014
88	0xbcf6abdb	-0.030111244
89	0xbd9d4dbd	-0.07680843
90	0x3d2e12c6	0.042498372
91	0xbe6cd16d	-0.23126765
92	0x3d492f96	0.049117647
93	0x3dab7580	0.08372021
94	0x3de2afce	0.11068688
95	0xbdabf937	-0.08397143
96	0x3d9e9c79	0.077446885
97	0x3e3e6b52	0.18595627
98	0xbd2a93c9	-0.041644845
99	0x3dea269e	0.11433147
100	0x3cf413b0	0.029794544
101	0xbe03ae1b	-0.12859385
102	0xbd93811d	-0.07202361
103	0x3e5a3ca0	0.21312189
104	0xbd30c4d3	-0.043156456
105	0xbe50c755	-0.20388539
106	0xbdd70eb0	-0.10500848
107	0xbd0a6f2b	-0.033797424
108	0xbe838281	-0.25685504
109	0x3d2a39bb	0.041558962
110	0xbd1bc1e0	-0.03802669
111	0x3de3ffcd	0.111327745
112	0xbe1162e6	-0.14197883
113	0xbee5e3c7	-0.44900343
114	0x3d1e80ab	0.038696926
115	0xbe3f6b8f	-0.18693374
116	0x3df1b457	0.11801975
117	0xbd0b2123	-0.03396715
118	0x3e13303a	0.14373866
119	0xbd0cbb90	-0.03435856
120	0x3da87f08	0.08227354
121	0x3d5d49bc	0.054025397
122	0xbd1ff49e	-0.039051645
123	0xbc66d429	-0.014088669
124	0x3c816e5a	0.01579969
125	0x3e3a8cae	0.18217728
126	0x3dd64e51	0.104641564
127	0xbd570bc3	-0.05250145

model.model.model.6.weight f4 [128, 128]
0	0xbc28882b	-0.010286371
1	0xbd8cd2b2	-0.068761244
2	0xbcb44b1b	-0.02200847
3	0x3ddbd0ba	0.10733171
4	0xbbf25c73	-0.0073962747
5	0x3da58f26	0.08083944
6	0xbd18915b	-0.037247997
7	0x3d80e6be	0.062940106
8	0x3ce7ed56	0.028311413
9	0x3b555365	0.0032550928
10	0x3ceb95b8	0.028757915
11	0x3db33f2e	0.08752285
12	0xbd562136	-0.052277766
13	0xbd016989	-0.031594787
14	0x3e1f7eb6	0.1557568
15	0xbde2b8f3	-0.110704325
16	0xbcf761a5	-0.030197928
17	0x3d3a7415	0.04552086
18	0x3d98b007	0.074554496
19	0xbbb4b6e8	-0.005514968
20	0xbc702292	-0.01465668
21	0xbc847589	-0.016169326
22	0x3cb44fd3	0.02201072
23	0xbd1da1c4	-0.03848435
24	0xbce17229	-0.027520256
25	0xbd45a376	-0.04825159
26	0x3d9ae625	0.07563428
27	0xbd5cfcb9	-0.053951953
28	0x3d4d4f47	0.050124433
29	0xbc10e6f8	-0.00884413
30	0xbcbf7765	-0.023372361
31	0x3da20a63	0.07912137
32	0x3d8fe831	0.07026709
33	0xbaf507ec	-0.0018694378
34	0xbd9389ab	-0.072039925
35	0x3d368323	0.044558655
36	0x3db299f4	0.087207705
37	0x3cf970f8	0.030449376
38	0x3b4e9e87	0.0031527595
39	0x3d8fb247	0.070164256
40	0x3d1666ba	0.03671906
41	0x3d9c3072	0.07626428
42	0xbdcc124a	-0.09964426
43	0xbdb54201	-0.0885048
44	0xbdcf6201	-0.10126115
45	0x3dcd5072	0.10025109
46	0x3df2d5d0	0.11857188
47	0x3e097ec7	0.13427268
48	0x3cd788ef	0.026310412
49	0xbc5bb4ab	-0.013409774
50	0x3c3d1227	0.011539972
51	0x3cf88a67	0.030339433
52	0xbd851755	-0.06498591
53	0x3d76d946	0.0602658
54	0x3cdd1cc8	0.026991263
55	0x3d415e61	0.047209147
56	0x3dd3bde5	0.10338954
57	0xbd4a176c	-0.049338743
58	0x3d551871	0.052025262
59	0x3d8f79a6	0.070056245
60	0x3d24cafc	0.040232643
61	0x3d4053da	0.046954967
62	0xbd41c6fb	-0.047308903
63	0x3d646895	0.0557638
64	0x3dad53f2	0.08463277
65	0xbd537c19	-0.05163202
66	0xbc3cd7da	-0.011526072
67	0xbd908a50	-0.07057631
68	0x3d59f931	0.053216163
69	0xbd338a10	-0.04383284
70	0x3a08b6f5	0.0005215251
71	0xbca5d4ec	-0.02024313
72	0x3d2ef112	0.04271037
73	0x3c735f8e	0.014854325
74	0x3b903fd6	0.004402141
75	0x3da6a311	0.08136571
76	0xbd33a575	-0.043858964
77	0x3cdb5fdd	0.02677911
78	0x3d6cc87b	0.05780838
79	0xb9f216e2	-0.00046174886
80	0xbc2d0320	-0.010559827
81	0x3dae2a22	0.0850413
82	0xbcc3732b	-0.023858627
83	0xbcde2572	-0.027117465
84	0x3d3d768c	0.046255633
85	0x3d0aa584	0.033849254
86	0xbd37e2f7	-0.044894185
87	0xbc5a9666	-0.013341522
88	0xbbd6ca77	-0.0065548974
89	0xbd0f0b3e	-0.03492283
90	0xbcef475b	-0.02920883
91	0xbdac2463	-0.08405378
92	0x3d411475	0.04713865
93	0xbcd16a87	-0.025563492
94	0x3d0dcb76	0.034617864
95	0x3cfc2b04	0.03078223
96	0x3dc27968	0.09495813
97	0xbdd0af69	-0.10189707
98	0xbd503246	-0.050829194
99	0xbc8e2865	-0.017353246
100	0xbd49805d	-0.049194682
101	0x3c5efbc6	0.013609832
102	0x3d60bde3	0.05486859
103	0xbd5a5c5e	-0.053310744
104	0x3dc68145	0.09692625
105	0xbc904bb4	-0.017614223
106	0xbd63fcec	-0.055661127
107	0xbd8db900	-0.069200516
108	0x3c3e02a9	0.011597314
109	0xbd885fef	-0.06658923
110	0xbd4208f4	-0.04737182
111	0xbd187333	-0.037219238
112	0xbd1f5839	-0.038902495
113	0xbdc232b4	-0.09482327
114	0xbcc1d299	-0.023659991
115	0xbca9391b	-0.020657113
116	0xbd1acca9	-0.037792835
117	0xbd29cf05	-0.041457195
118	0x3c93c0af	0.018036215
119	0x3d557aae	0.05211895
120	0xbd33ae40	-0.04386735
121	0x3c9eaade	0.019368585
122	0x3d62fb71	0.055415574
123	0xbe0a4c01	-0.13505556
124	0xbc580b3c	-0.013186272
125	0x3d311e00	0.0432415
126	0x3ccb75e7	0.024836494
127	0xbcaed639	-0.021342384
128	0xbe1ab28e	-0.15107176
129	0x3d59f584	0.053212658
130	0xbd9dc5c6	-0.07703738
131	0xbcf86474	-0.030321337
132	0xbd293ead	-0.041319538
133	0xbcc01dd4	-0.023451723
134	0x3b8a2c36	0.004216696
135	0xbd024553	-0.031804394
136	0x3d2f3508	0.042775184
137	0xbd9f15b0	-0.077678084
138	0x3d0cce38	0.034376353
139	0xbca1a5d5	-0.019732395
140	0xbae7b14d	-0.0017676741
141	0xbc185858	-0.009298407
142	0xbd62f303	-0.055407535
143	0x3d50f91e	0.051018827
144	0xbbc6acec	-0.0060630944
145	0x3d7ef722	0.062247403
146	0x3d8f3ff7	0.06994622
147	0x3d9d864b	0.0769163
148	0x3ce4deb6	0.027938228
149	0xbd4896d1	-0.048971955
150	0xbd860781	-0.065444
151	0xbda861a3	-0.08221748
152	0xbb12255c	-0.00223001
153	0xbd5d63b6	-0.05405017
154	0xbdcc630b	-0.099798284
155	0x3ce61559	0.028086351
156	0xbd78a2dc	-0.06070219
157	0x3d3241da	0.043519832
158	0xbc84ea5a	-0.016225029
159	0x3a2b4d7e	0.00065346796
160	0x3db12ec9	0.08651502
161	0x3c9f0e96	0.019416135
162	0xbd2d809d	-0.042358983
163	0xbc6198da	-0.013769353
164	0xbccb5a34	-0.024823286
165	0xbdedad7c	-0.11605355
166	0x3d3b9e06	0.045805
167	0xbb8ffd68	-0.004394222
168	0x3c920122	0.017822806
169	0xbd30df33	-0.04318161
170	0xbd1f1b37	-0.038844313
171	0xbd59513d	-0.05305599
172	0xbcf75c84	-0.030195482
173	0x3c6d403a	0.014480645
174	0xbde01d81	-0.109431274
175	0xbd86d07d	-0.06582735
176	0xbcc91d4f	-0.024550108
177	0xbc15569f	-0.00911489
178	0xbd77e963	-0.06052531
179	0xbdf8df9e	-0.121520266
180	0x3c14bcd4	0.009078223
181	0xbccd27d2	-0.025043402
182	0x3db29e75	0.087216295
183	0x3d1be403	0.038059246
184	0xbd069833	-0.032859992
185	0xbdc02c39	-0.09383435
186	0x3d117518	0.03551206
187	0x3d29c6b2	0.041449256
188	0x3d455ddd	0.048185218
189	0x3d2c9ade	0.04213988
190	0xbdd067b1	-0.101760276
191	0xbe20aa29	-0.15689911
192	0xbdd9660c	-0.10615167
193	0x3e5449bc	0.20731252
194	0x3d886704	0.06660274
195	0x3dceca50	0.10097182
196	0xbe31b719	-0.17355002
197	0x3d0831bc	0.033250555
198	0xbc86ecd2	-0.016470347
199	0xbd759c36	-0.059963427
200	0xbbdec5bd	-0.0067984746
201	0xbd889916	-0.06669824
202	0x3d83af75	0.0642995
203	0xbd2355e6	-0.03987684
204	0x3d29f8b3	0.041496944
205	0xbd9e75d4	-0.07737318
206	0x3d9089ed	0.07057557
207	0xbd371d79	-0.04470584
208	0x3d9cfdc5	0.0766559
209	0xbd706a59	-0.05869517
210	0x3d96f6e7	0.07371312
211	0x3dbb6828	0.091507256
212	0xbd0bce9c	-0.034132585
213	0xbd186d76	-0.037213765
214	0xbdace0b3	-0.084412955
215	0xbdc902dc	-0.098149985
216	0xbcc26547	-0.023729933
217	0xbce02bbe	-0.027364608
218	0xbdad8534	-0.08472672
219	0xbe045176	-0.129217
220	0x3c92cf3c	0.017921083
221	0xbdaddc07	-0.084892325
222	0xbdaac822	-0.083389536
223	0xbdc690cf	-0.09695589
224	0x3d637241	0.055528883
225	0xbc9a2bf4	-0.018819787
226	0xbd37e264	-0.044893637
227	0xbb22958e	-0.002480838
228	0xbb127cff	-0.0022352336
229	0xbd879e69	-0.06622011
230	0x3d7b43a8	0.06134382
231	0x3c256784	0.010095481
232	0x3db524cb	0.08844908
233	0xbda3d4e1	-0.07999588
234	0xbd55557a	-0.05208347
235	0xbbadb049	-0.005300556
236	0xbda565c2	-0.080760494
237	0xb8c2f0f6	-9.295523e-05
238	0x3c5cf504	0.013486151
239	0x3c017639	0.007901722
240	0x3c33ac0e	0.010966314
241	0x3b12e127	0.0022412033
242	0xbd934b8e	-0.07192145
243	0xbd58e129	-0.052949104
244	0xbc8a229e	-0.01686221
245	0x3c0d1d72	0.008612977
246	0x3d15f612	0.036611624
247	0x3c1ee6d0	0.009698585
248	0x3d2ce83d	0.042213667
249	0x3d07dfeb	0.03317253
250	0x3d438c1a	0.047741033
251	0xbd8e4a15	-0.06947724
252	0xbbbdcc69	-0.00579219
253	0x3d7c730e	0.061633162
254	0x3d5da271	0.054109994
255	0x3d81d7bd	0.06339977

model.model.model.6.bias f4 [128]
0	0xbca33a0a	-0.019925136
1	0x3ba60683	0.005066694
2	0xbd30dcc0	-0.043179274
3	0x3d51492e	0.05109518
4	0xbcc9ed11	-0.024649175
5	0x3e117b24	0.1420713
6	0xbd936db8	-0.071986616
7	0xbdc4c01a	-0.09606953
8	0xbda7b249	-0.08188302
9	0xbd9e607b	-0.07733246
10	0x3dc70d7e	0.0971937
11	0xbc8ef79f	-0.01745206
12	0xbd7213e4	-0.059101
13	0xbdc46ca7	-0.09591036
14	0x3d034be4	0.032054797
15	0xbd121c2c	-0.035671398
16	0xbca5af48	-0.020225182
17	0xbd2f4e24	-0.04279913
18	0x3dfdce00	0.12392807
19	0x3cc9bc4d	0.024625922
20	0xbb19a758	-0.0023445692
21	0x3d2be159	0.041962955
22	0x3dde0513	0.108408116
23	0x3e4d2018	0.20031774
24	0xbe155f39	-0.14587106
25	0x3c4708f7	0.0121481335
26	0x3dfd04ed	0.12354455
27	0x3e3e5f51	0.18591048
28	0xbd85dcb6	-0.06536238
29	0x3d6f2f04	0.058394447
30	0x3ce9e9de	0.0285539
31	0xbd5218e8	-0.051293284
32	0xbde795e2	-0.11307885
33	0x3d1f68c1	0.03891826
34	0xbc9a058a	-0.01880147
35	0x3d3036fd	0.04302119
36	0xbd001b6c	-0.03127615
37	0xbc2c8a7b	-0.010531063
38	0xbdc96eb5	-0.09835569
39	0xbc19f9d1	-0.00939794
40	0xbdc22266	-0.09479217
41	0xbdd6cb18	-0.10487956
42	0xbc4c0be9	-0.0124540115
43	0x3d6e47bb	0.058173876
44	0xbd443088	-0.047897846
45	0xbd86dcdb	-0.065850936
46	0xbcc07543	-0.023493415
47	0xbde06301	-0.109563835
48	0xbd739061	-0.059463862
49	0xbdd2c6d4	-0.1029183
50	0xbd0c0078	-0.034180135
51	0x3df906e5	0.12159518
52	0xbd40493c	-0.04694484
53	0x3cc7d33b	0.024392715
54	0x3e1c433d	0.15260024
55	0x3dbc48db	0.091935836
56	0xbba3f41d	-0.005003466
57	0x3d126b5d	0.03574692
58	0xbde75510	-0.11295521
59	0xbd336942	-0.043801554
60	0x3ccf3a5a	0.025296379
61	0xbdd0f666	-0.10203247
62	0xbd529a73	-0.051416826
63	0xb929bae0	-0.00016186712
64	0x3e4f1506	0.20222864
65	0x3d7dfbd6	0.062007748
66	0x3d81ab05	0.063314475
67	0x3bd3cf8f	0.006463952
68	0xbde61c62	-0.11235882
69	0xbcaf9e5b	-0.021437814
70	0xbd09e00b	-0.03366093
71	0x3db43108	0.087984145
72	0x3d631cb5	0.0554473
73	0xbd014e45	-0.031568784
74	0xbdf53968	-0.1197384
75	0x3c16a531	0.009194658
76	0x3da0d16c	0.07852444
77	0x3c425aaa	0.011862436
78	0x3e4432e1	0.19160034
79	0xbd973c66	-0.07384567
80	0xbc92c313	-0.017915284
81	0x3d9039ab	0.07042249
82	0x3de1089b	0.109879695
83	0x3dca526a	0.098790005
84	0x3e166b3b	0.14689343
85	0xbd337fb5	-0.043822963
86	0x3e165325	0.14680155
87	0xbd985c72	-0.074395075
88	0xbdbfd87e	-0.093674645
89	0x3cfa7f67	0.030578328
90	0xbdc8c1b2	-0.098025694
91	0x3d999803	0.07499697
92	0x3cae1e87	0.021254791
93	0xbda462c1	-0.08026648
94	0xbc39b740	-0.011335194
95	0x3aaca7b7	0.0013172542
96	0xbe1ec0b8	-0.15503204
97	0x3dd77d44	0.105219394
98	0xbd8c7cc2	-0.06859733
99	0x3e3bad3e	0.18327805
100	0x3d414cfc	0.04719256
101	0xbe0487ab	-0.12942378
102	0xbd6e8026	-0.05822768
103	0x3bca23cd	0.0061688186
104	0xbcfaa54b	-0.030596396
105	0x3d393aea	0.0452222
106	0xbd2f42fa	-0.042788483
107	0xbdbca0c3	-0.0921035
108	0x3c8f4813	0.017490422
109	0xbd080a85	-0.033213157
110	0xbcf19f6b	-0.029494962
111	0xbb6b33cc	-0.0035889028
112	0xbd0a1e65	-0.033720393
113	0x3db32d9c	0.08748934
114	0xbd74ab90	-0.059733927
115	0x3d8a3664	0.067486554
116	0xbd942e31	-0.07235373
117	0xbd80e964	-0.06294516
118	0x3d98f681	0.07468892
119	0x3e130e99	0.14361037
120	0x3db515b1	0.08842028
121	0xbc936377	-0.017991764
122	0xbde43ca2	-0.11144377
123	0xbd48cfff	-0.049026486
124	0x3d075fa4	0.033050194
125	0xbd154d71	-0.036450807
126	0x3dc3fe32	0.09569968
127	0x3d70cf1f	0.058791276

model.model.model.8.weight f4 [5, 128]
0	0xbb6bddf0	-0.003599044
1	0x3cad383b	0.021144977
2	0x3d786b55	0.060649235
3	0xbe0e6fbd	-0.13909812
4	0x3d19b5a4	0.03752674
5	0xbb759719	-0.0037474094
6	0x3d838014	0.06420913
7	0xbc73a457	-0.014870725
8	0x3e39b3a9	0.18134941
9	0xbc1b6dbd	-0.009486613
10	0xbcdf3070	-0.027244776
11	0x3e0bb994	0.13645011
12	0x3b7d0820	0.003860958
13	0x3cd2e6bd	0.02574479
14	0xbc2acb79	-0.010424488
15	0xbc2efb0e	-0.010679973
16	0xbd30beb0	-0.043150604
17	0x3d82b454	0.06382051
18	0xbd9b04fe	-0.075693116
19	0x3d2eb4fa	0.04265306
20	0x3d7f41ec	0.062318727
21	0x3d2a0bbd	0.0415151
22	0xbcab97a0	-0.020946324
23	0xbc31a281	-0.010841967
24	0x3d9c4b9f	0.07631611
25	0x3d532703	0.051550876
26	0xbdcefaf8	-0.10106462
27	0xbd3232ee	-0.0435056
28	0xbd8aeef6	-0.067838594
29	0x3e120798	0.1426071
30	0x3cd9886c	0.026554309
31	0xb7b6c6f9	-2.1788745e-05
32	0x3c395e33	0.011313963
33	0xbd2ff592	-0.042958803
34	0xbc05173b	-0.008123214
35	0x3de421eb	0.11139282
36	0xbc60ceae	-0.013721151
37	0x3d5d4ec8	0.05403021
38	0x3ced2dcb	0.0289525
39	0xbcd0c2b2	-0.025483463
40	0x3c0f5078	0.008747213
41	0xbd44ce84	-0.04804851
42	0x3dc74c5a	0.0973136
43	0x3df35263	0.118809484
44	0x3b57fec1	0.0032958242
45	0x3de7d982	0.11320783
46	0xbc9e6040	-0.019333005
47	0x3c9dc10d	0.019257093
48	0x3d6a2179	0.05716083
49	0xbd2acda1	-0.04170001
50	0x3d32dbb4	0.043666556
51	0xbe15bf23	-0.14623694
52	0x3d152861	0.03641546
53	0x3d1aed81	0.037824158
54	0xbcf2545e	-0.029581245
55	0x3d81b21d	0.063328005
56	0x3d32ec28	0.043682247
57	0xbdd7f0a7	-0.10543948
58	0xbc7dcb63	-0.015490386
59	0xbc16c932	-0.009203242
60	0x3d535150	0.051591218
61	0x3dfeaa5f	0.124348395
62	0xbc7dfa47	-0.015501565
63	0x3ddada60	0.10686183
64	0xbcf16449	-0.029466765
65	0xbd8aabe2	-0.06771065
66	0x3dc6ee30	0.097133994
67	0xbd397c76	-0.04528471
68	0x3c7626cb	0.015023897
69	0x3d67de17	0.056608286
70	0xbd06f201	-0.032945637
71	0x3d304de6	0.04304304
72	0xbe033fdd	-0.1281733
73	0xbcbb21ec	-0.022843324
74	0xbc87d744	-0.016582139
75	0x3d2e4979	0.042550538
76	0xbc91a210	-0.017777473
77	0x3d2d9d5f	0.04238641
78	0xbda8be3f	-0.082394116
79	0x3d4518b0	0.048119247
80	0xbc9badcc	-0.019003771
81	0x3b3d7893	0.002891098
82	0x3b33a199	0.0027409552
83	0x3c6475f4	0.013944138
84	0xbdbef74e	-0.093245134
85	0x3d331d45	0.043729085
86	0xbcc6929e	-0.024239834
87	0xbc88a349	-0.016679423
88	0x3d4bf670	0.049795568
89	0xbc442780	-0.011972308
90	0x3aeea337	0.0018206601
91	0xbd43f6b1	-0.047842685
92	0xbcae5be6	-0.021284055
93	0x3dcb7584	0.09934524
94	0x3d81f957	0.06346386
95	0x3c8fc01c	0.01754766
96	0xbd443a5f	-0.04790723
97	0x3a739d6d	0.00092931726
98	0x3d22a54a	0.039708413
99	0x3d3c45c1	0.04596496
100	0xbcac28c2	-0.021015529
101	0x3cb73cf1	0.022367926
102	0xbcba7938	-0.02276288
103	0xbc87280d	-0.01649859
104	0x3d7fa678	0.062414616
105	0x3e67d4cc	0.2263977
106	0x3b0ee728	0.002180526
107	0xbb2ffe95	-0.0026854624
108	0x3db39cfc	0.08770177
109	0xbcab5f38	-0.020919427
110	0x3d4918d6	0.04909595
111	0x3e01c5cb	0.12673108
112	0x3c81bea2	0.015837971
113	0xba894f80	-0.0010475963
114	0xbda8d856	-0.08244388
115	0x3dbeca58	0.09315938
116	0xbdf91e82	-0.12164022
117	0x3d81c692	0.063367024
118	0xbbe62b9a	-0.0070242407
119	0x3c20d1b0	0.009815618
120	0xbdff198d	-0.12456045
121	0x3d4180d7	0.047242012
122	0x3db0f855	0.086411156
123	0x3d9b8503	0.07593729
124	0x3d3e00e4	0.046387568
125	0xbc1087e7	-0.008821464
126	0x3dd143c4	0.102180034
127	0xbd1e2792	-0.038611956
128	0xbc21ee0e	-0.009883417
129	0x3cc7ac10	0.024374038
130	0x3daf63f6	0.08563988
131	0xbdff6c6e	-0.12471853
132	0xbb456dcc	-0.0030125258
133	0xbdbbf7c7	-0.09178119
134	0x3cafdeec	0.021468602
135	0xbd9fa8e0	-0.07795882
136	0xbd85e8b4	-0.06538525
137	0x3d595bc6	0.053066038
138	0xbd8cced8	-0.0687539
139	0x3d87a229	0.066227265
140	0x3d41940e	0.047260337
141	0xbc6bf509	-0.014401683
142	0xbdc5b4de	-0.09653638
143	0xbe3ce847	-0.18447982
144	0x3b9b22b3	0.004734361
145	0x3d5717a9	0.0525128
146	0xbd5d1630	-0.053976238
147	0x3e01dca2	0.12681821
148	0x3d38ea7d	0.0451455
149	0x3dcf29d1	0.10115398
150	0x3d9da65a	0.07697745
151	0xbe58d074	-0.21173269
152	0x3d8a4cf7	0.06752961
153	0x3c9827c5	0.018573651
154	0xbd74832d	-0.05969541
155	0xbe07ff99	-0.13281097
156	0xbd1560e0	-0.03646934
157	0x3dd0d0f3	0.10196104
158	0x3daa3a4b	0.083119
159	0x3d9a88a8	0.07545596
160	0x3cb8599f	0.022503672
161	0xbd7dd579	-0.06197116
162	0xbdf13126	-0.117769524
163	0x3d6434bb	0.05571435
164	0xbd3e091f	-0.046395417
165	0x3d29874a	0.041388787
166	0xbd7f42a0	-0.062319398
167	0x3a849759	0.0010115906
168	0x3d90e847	0.070755534
169	0xbd869e0d	-0.065731145
170	0xbd96f7fe	-0.073715195
171	0x3d565905	0.05233099
172	0x3d960366	0.07324867
173	0x3dd946cc	0.106092066
174	0x3dcec23e	0.100956425
175	0x3c64b491	0.013959066
176	0xbd28a58d	-0.041173507
177	0x3da7d41b	0.08194753
178	0x3d3dbe95	0.04632433
179	0xbe0ff34f	-0.14057659
180	0x3d482b08	0.048869163
181	0x3e041cdf	0.12901638
182	0xbd2806cd	-0.04102211
183	0x3d83b4f2	0.06430997
184	0x3c63eec5	0.013911908
185	0xbdc55803	-0.096359275
186	0xbd563a85	-0.052301902
187	0x3dae423b	0.08508726
188	0x3dbca153	0.09210458
189	0x3db2e888	0.08735758
190	0x3d6c162b	0.05763833
191	0x3dc9739d	0.098365046
192	0xbdc39d12	-0.09551443
193	0xbda168d5	-0.07881323
194	0x3d83ed2e	0.06441723
195	0xbdb81172	-0.089877024
196	0xbd4358a5	-0.04769196
197	0x3dd3c91b	0.10341092
198	0x3dbec857	0.093155555
199	0x3dad241d	0.08454154
200	0xbe0be5c3	-0.13661866
201	0xbe10b4da	-0.1413149
202	0x3e1cf8b5	0.15329249
203	0x3d9b52df	0.07584166
204	0xbd8a7d60	-0.06762195
205	0x3d21bb24	0.03948511
206	0xbd85304a	-0.06503351
207	0xbd035c4c	-0.032070443
208	0x3ddf38c2	0.108994976
209	0x3cd4aae5	0.025960395
210	0x3cbb1997	0.02283935
211	0xbd1ff04c	-0.039047524
212	0xbe1b59a6	-0.15170917
213	0x3d8474fd	0.06467626
214	0xbd394b83	-0.04523803
215	0xbd474d3c	-0.04865764
216	0xbdd27ed3	-0.10278096
217	0xbdcd1c9d	-0.10015223
218	0xbc97a7f3	-0.018512702
219	0xbdfa0bcc	-0.12209281
220	0x3d444648	0.047918588
221	0x3d5e6746	0.054297708
222	0xbcc9be43	-0.024626857
223	0x3d695fc8	0.05697611
224	0xbd6bfd24	-0.05761446
225	0x3d6ab2bb	0.057299357
226	0x3af8437d	0.0018941012
227	0x3d148260	0.036257148
228	0xbd8fecea	-0.0702761
229	0xbdc41203	-0.09573748
230	0x3d198cce	0.037487797
231	0x3d0dc37f	0.034610268
232	0x3d78f04f	0.06077605
233	0x3da2a96c	0.07942471
234	0x3d766200	0.060152054
235	0xbb6ed8a4	-0.0036445046
236	0x3daa5554	0.08317056
237	0xbd64c8fe	-0.055855744
238	0x3d855fe9	0.06512434
239	0x3d8372e2	0.064183965
240	0x3d7c2acb	0.061564248
241	0xbd1e9e17	-0.038724985
242	0xbccb00bc	-0.024780624
243	0x3d842b74	0.064536005
244	0xbd3b65fd	-0.04575156
245	0x3d1f1ed7	0.03884777
246	0xbe5e5a98	-0.21714246
247	0xbe08ebec	-0.13371247
248	0xbda42a2a	-0.08015855
249	0xbcffbac1	-0.03121698
250	0x3cdd9113	0.027046716
251	0x3dbb2799	0.09138412
252	0x3c2600de	0.010132043
253	0x3d534718	0.051581472
254	0x3dd13f16	0.10217111
255	0xbd23d07a	-0.03999374

model.model.model.8.bias f4 [5]
0	0xbd1ae3d4	-0.03781493
1	0x3c76abe1	0.015055628
2	0xbb5f913f	-0.0034113673
3	0x3c105cfd	0.008811233
4	0x3c3d5dcb	0.0115580065
