VRCP_Regression/data/push/policies/agent_0_final.pth (torch, 418282 bytes, 20 tensors)

model.model.model.0.weight f4 [128, 8]
0.008030953 0.063167304 -0.19618653 -0.2668932 -0.003250267 0.21990763 0.22803998 -0.12596194
-0.20366332 0.18475372 -0.055260614 0.17666316 0.051911358 -0.14731477 -0.048536398 0.44247642
-0.15245044 0.1877884 0.009121779 -0.21106772 -0.2255105 -0.31179604 0.23118986 0.5500551
0.049011588 -0.22797777 -0.023592602 0.39848134 0.014471427 -0.3275952 0.16700454 -0.028453283
-0.08612878 0.13402344 -0.120887086 0.4682748 0.22306204 -0.16869298 -0.34857276 0.2756493
-0.037156776 0.32856005 -0.21395643 -0.15558888 0.21698622 0.25273055 -0.21712103 0.3473366
0.013018678 -0.1739553 -0.2328134 -0.016427297 0.038698938 -0.04428463 0.3972238 -0.12211905
0.26663765 -0.18813986 -0.38013157 0.16594952 -0.19709693 0.13162863 0.35258707 -0.21124148
-0.05446192 -0.00062232226 -0.20052055 -0.3555742 -0.34035894 0.08362518 0.2678004 0.16107666
-0.06642242 0.052052516 -0.057015654 0.0026535827 -0.06092383 0.003975863 0.04962336 -0.3209964
-0.06222376 0.096256495 -0.012963397 0.0006111067 0.03769765 0.3017612 0.20007181 -0.03327486
0.20422308 -0.14392787 0.08608804 0.082339235 0.07318234 -0.248117 0.2546324 -0.32374796
0.039821226 -0.07491274 -0.013462993 0.1115793 -0.17234726 -0.018726675 -0.34364906 -0.100816235
0.32917798 0.11846055 0.010884764 -0.03893129 0.07139862 0.0937436 0.30564034 0.13446325
0.09477357 0.105827026 0.08414048 0.069424115 0.05134885 0.05740257 -0.266297 0.11179753
-0.16425627 -0.11473484 0.09698015 -0.15625411 -0.07456966 0.27932805 0.2997633 0.08936676
0.0004377321 -0.17582323 0.18330115 0.07450503 -0.11208298 0.019552428 0.32339907 -0.3689151
-0.172265 -0.15149036 0.08740969 -0.68327594 -0.10452883 0.13192587 -0.08493697 -0.21537225
-0.32747933 0.3060474 0.04813141 0.0092604775 0.00712094 0.07943091 -0.2436149 0.19405185
-0.28228128 -0.27809873 -0.15832579 -0.03448313 -0.2901442 -0.23708549 -0.34935927 0.31286913
-0.012193697 -0.22791761 -0.0042526503 -0.0448586 0.07764577 -0.08585557 -0.07447058 0.29080015
-0.17669827 -0.3446213 0.03664447 -0.2316717 0.2592779 0.0072386465 -0.28703308 -0.124511465
-0.36676103 -0.024422184 -0.21622206 0.13820618 -0.32961634 -0.32755744 -0.2914851 0.26219237
0.15843958 0.2544346 -0.046224173 -0.0052610133 -0.09386041 0.36000547 0.018691732 -0.4943982
0.20478196 0.01349573 -0.3719198 0.085691996 -0.1485422 0.02268075 0.12047565 -0.15790677
0.12591048 0.17959711 -0.17291787 0.059740975 -0.08783913 -0.25368994 0.34958977 0.1935999
0.079281986 -0.13884078 -0.06315432 -0.18215892 -0.010137462 0.17904687 0.11907682 -0.20460333
0.055528544 0.14814039 0.5322893 -0.27697906 0.1329643 -0.11164396 -0.22739992 0.098545276
0.10455826 0.012013956 0.06634668 0.06793138 -0.17255412 0.15625587 0.35707107 0.05288218
-0.13937072 0.11186798 0.014617829 0.13787296 0.05937328 0.01705011 -0.5004683 -0.10713904
-0.16203977 -0.03879343 0.19175164 -0.2730279 0.24805087 -0.28774646 -0.24114336 0.12456537
0.09302411 -0.25710368 -0.43632212 0.27816522 -0.0014851989 0.2546032 -0.19404829 -0.31449074
00000000: 4294 033c dc5d 813d 1fe5 48be 3aa6 88be
00000010: 6e02 55bb 772f 613e 5083 693e 2bfc 00be
00000020: 1e8d 50be 1430 3d3e f458 62bd 30e7 343e
00000030: 01a1 543d afd9 16be 1ace 46bd 458c e23e
00000040: f81b 1cbe 9a4b 403e 8473 153c 2322 58be
00000050: 39ec 66be bba3 9fbe 09bd 6c3e 69d0 0c3f
00000060: 60c0 483d 0173 69be 4645 c1bc bf05 cc3e
00000070: 9019 6d3c 8fba a7be 3d03 2b3e dc16 e9bc
00000080: 4964 b0bd 713d 093e a693 f7bd b7c1 ef3e
00000090: 606a 643e dabd 2cbe 2178 b2be e821 8d3e
000000a0: b431 18bd 0639 a83e 6517 5bbe b152 1fbe
000000b0: a331 5e3e e665 813e fa54 5ebe 1ad6 b13e
000000c0: 4b4c 553c 5721 32be a366 6ebe 8a92 86bc
000000d0: c782 1e3d cd63 35bd eb60 cb3e 8d19 fabd
000000e0: bb84 883e bca7 40be 9ba0 c2be acee 293e
000000f0: c7d3 49be a8c9 063e 4b86 b43e b04f 58be
00000100: 7613 5fbd 5723 23ba 4255 4dbe d20d b6be
00000110: 8743 aebe ae43 ab3d 221d 893e 48f1 243e
00000120: 7a08 88bd 0535 553d 3f89 69bd bbe7 2d3b
00000130: 448b 79bd f547 823b dd41 4b3d a459 a4be
00000140: 57de 7ebd 2022 c53d 6e64 54bc ad32 203a
00000150: da68 1a3d 7280 9a3e a0df 4c3e 384b 08bd
00000160: db1f 513e d461 13be ed4e b03d 79a1 a83d
00000170: 9fe0 953d 6212 7ebe 2e5f 823e 4bc2 a5be
00000180: 951b 233d da6b 99bd e393 5cbc b083 e43d
00000190: cd7b 30be af68 99bc c5f2 afbe be78 cebd
000001a0: 048a a83e 729b f23d 0256 323c 6b76 1fbd
000001b0: 7139 923d a5fc bf3d e47c 9c3e bcb0 093e
000001c0: a518 c23d d7bb d83d d851 ac3d 3b2e 8e3d
000001d0: 2c53 523d f51e 6b3d 1558 88be 1af6 e43d
000001e0: cc32 28be 1afa eabd 879d c63d 1401 20be
000001f0: fab7 98bd 1604 8f3e 937a 993e eb05 b73d
00000200: 687f e539 010b 34be 4cb3 3b3e 1896 983d
00000210: c38b e5bd 6a2c a03c 9094 a53e 71e2 bcbe
00000220: 3c66 30be 4a20 1bbe da03 b33d 2ceb 2ebf
00000230: 3613 d6bd 9317 073e 6ff3 adbd 8b8a 5cbe
00000240: 5fab a7be 3fb2 9c3e 7125 453d 42b9 173c
00000250: c656 e93b acac a23d 2f76 79be 87b5 463e
00000260: 2c87 90be f562 8ebe 2820 22be 2f3e 0dbd
00000270: c88d 94be 8ac6 72be 38df b2be 6230 a03e
00000280: 12c8 47bc 3c63 69be d159 8bbb a7bd 37bd
00000290: bf04 9f3d 0cd5 afbd 0884 98bd c2e3 943e
000002a0: 64f0 34be 3472 b0be 8318 163d 593b 6dbe
000002b0: 13c0 843e 2b32 ed3b 00f6 92be deff febd
000002c0: 1ac8 bbbe 0811 c8bc 5169 5dbe ec85 0d3e
000002d0: 79c3 a8be 9cb5 a7be 893d 95be 143e 863e
000002e0: fc3d 223e 4045 823e 8f55 3dbd 9464 acbb
000002f0: e339 c0bd a352 b83e 671f 993c c321 fdbe
00000300: 5db2 513e 321d 5d3c 466c bebe 497f af3d
00000310: 721b 18be fbcc b93c f0bb f63d 50b2 21be
00000320: adee 003e 4ee8 373e 6211 31be f4b2 743d
00000330: 00e5 b3bd a6e3 81be 6efd b23e 0d3f 463e
00000340: 985e a23d 472c 0ebe 0d57 81bd de87 3abe
00000350: 9917 26bc 1058 373e 8cde f33d 8983 51be
00000360: e671 633d 1db2 173e 1d44 083f 33d0 8dbe
00000370: cb27 083e 97a5 e4bd 86db 68be 1bd2 c93d
00000380: a422 d63d 2fd6 443c c5e0 873d 9b1f 8b3d
00000390: 07b2 30be 8a01 203e 05d2 b63e fc9a 583d
000003a0: 33b7 0ebe 0a1b e53d 9e7f 6f3c 922e 0d3e
000003b0: 6531 733d acac 8b3c b11e 00bf b76b dbbd
000003c0: c1ed 25be dce5 1ebd 8b5a 443e 50ca 8bbe
000003d0: 0c01 7e3e 8153 93be 49ee 76be 211c ff3d
000003e0: 6d83 be3d 18a3 83be 9d65 dfbe ac6b 8e3e
000003f0: 01ab c2ba 5a5b 823e 98b4 46be ee04 a1be

model.model.model.0.bias f4 [128]
-0.22550176 0.10120044 0.22272801 -0.018817322 -0.27107888 0.0990534 -0.112970926 0.26809385
-0.34677312 -0.08094164 -0.4067977 0.1890569 -0.46233746 0.17612468 -0.26528987 -0.11714392
0.04304111 -0.11599261 0.006290142 -0.005965672 -0.21210839 -0.13880642 0.0055990634 -0.042581722
0.029717056 -0.33747834 0.21196333 -0.2740539 -0.1201362 -0.039069124 -0.3000441 -0.13531746
0.08109373 -0.1463255 -0.13862607 -0.1427671 0.18556398 -0.12318443 -0.18014719 0.11515471
0.0047557373 0.25503677 -0.45587936 -0.27291736 -0.34753314 -0.4971786 0.07808661 0.1295692
-0.01967876 0.014233036 -0.3503612 -0.341402 -0.45702246 0.025307365 0.29593918 -0.038577348
-0.35935473 0.19336958 -0.33483562 -0.18096723 -0.09231764 0.015987668 0.059754513 0.0010750078
-0.03672756 -0.18317999 -0.29609036 -0.10435145 -0.2551725 -0.29425275 -0.14827749 -0.0129822
-0.04922911 -0.26230043 -0.30542508 -0.18012787 -0.38127843 -0.091847464 0.03750247 -0.42166728
-0.35405976 -0.28505173 0.14102781 0.11957743 -0.42959085 -0.043535616 -0.04219725 0.22549374
0.118490376 -0.0642445 -0.080996744 -0.42134055 -0.061435398 -0.08428941 -0.06476844 -0.34703222
-0.40139586 -0.03894261 -0.5155078 -0.056242704 -0.18871754 -0.12954071 0.14437886 -0.33530077
-0.23813576 -0.05213164 -0.21731932 0.24920209 0.21726267 -0.33418867 0.2692408 -0.14814557
-0.14197238 -0.03968535 -0.06101851 -0.1708275 0.10768476 -0.38579798 -0.2443739 0.06417578
0.07054514 -0.041862484 -0.23414348 0.023544652 -0.175643 -0.3302702 -0.27035683 -0.415371
00000000: efe9 66be 2d42 cf3d d012 643e c926 9abc
00000010: daca 8abe 82dc ca3d 4d5d e7bd 9943 893e
00000020: 3f8c b1be bbc4 a5bd ca47 d0be 2298 413e
00000030: 7fb7 ecbe 075a 343e 13d4 87be 27e9 efbd
00000040: e04b 303d 898d edbd 891d ce3b af7b c3bb
00000050: f132 59be 4523 0ebe 5978 b73b 2c6a 2ebd
00000060: 2f71 f33c f6c9 acbe ea0c 593e cb50 8cbe
00000070: f809 f6bd f206 20bd 619f 99be a990 0abe
00000080: 7814 a63d 5ad6 15be fef3 0dbe 8a31 12be
00000090: 7c04 3e3e 1e48 fcbd 8178 38be 3cd6 eb3d
000000a0: 04d6 9b3b 2e94 823e 0569 e9be d3bb 8bbe
000000b0: ddef b1be 328e febe dfeb 9f3d caad 043e
000000c0: 5a35 a1bc ae31 693c 8b62 b3be 3ecc aebe
000000d0: d9fe e9be 6451 cf3c 5785 973e 4803 1ebd
000000e0: 58fd b7be ad02 463e 936f abbe 794f 39be
000000f0: 0811 bdbd 92f8 823c 26c1 743d 47e7 8c3a
00000100: a36f 16bd 8993 3bbe 2899 97be 37b6 d5bd
00000110: f8a5 82be 4ca8 96be 0ed6 17be 4bb3 54bc
00000120: 77a4 49bd 3e4c 86be ad60 9cbe 7173 38be
00000130: ed36 c3be 861a bcbd 319c 193d c6e4 d7be
00000140: 5247 b5be 4df2 91be 9869 103e 03e5 f43d
00000150: 55f3 dbbe 6752 32bd 06d7 2cbd d5e7 663e
00000160: 15ab f23d 9f92 83bd 9fe1 a5bd f3b9 d7be
00000170: afa3 7bbd ed9f acbd 51a5 84bd 35ae b1be
00000180: c283 cdbe 4982 1fbd 52f8 03bf c05e 66bd
00000190: 2c3f 41be 52a6 04be 0dd8 133e 8bac abbe
000001a0: dcd9 73be fd87 55bd f588 5ebe d52e 7f3e
000001b0: 1b7a 5e3e c71a abbe eed9 893e 79b3 17be
000001c0: 3561 11be 1b8d 22bd 8cee 79bd 67ed 2ebe
000001d0: d489 dc3d 5087 c5be 273d 7abe 976e 833d
000001e0: f879 903d ff77 2bbd 4fc3 6fbe b7e0 c03c
000001f0: c2db 33be 2d19 a9be 366c 8abe 82ab d4be

model.model.model.2.weight f4 [128, 128]
0.020380784 0.0663022 0.02439151 -0.0075388975 -0.044975765 -0.067096844 0.05242323 -0.032000594
-0.031047616 0.028064813 0.11718409 -0.051123973 0.02524302 -0.07739977 0.005207616 -0.033749804
0.07064101 -0.02938423 0.054821633 -0.12968075 0.007835081 0.10897812 -0.03435006 0.047452662
0.0015993847 -0.04249026 -0.06806736 -0.13325025 0.043004423 0.08860842 -0.046947747 -0.10882064
-0.054787412 0.01486679 0.07579744 0.014594268 -0.038317554 -0.028681546 -0.04439978 0.0442684
-0.0031509106 -0.06401255 0.027204746 0.053531375 0.10472235 0.15846187 -0.044062957 0.04863268
-0.08046208 0.06343361 -0.0075761564 0.047412697 0.053527318 0.10375443 -0.051432513 0.13032407
-0.06164107 -0.0011036103 0.04617123 0.012201607 0.008123965 0.06368929 -0.05223862 -0.15863062
0.070658185 0.17827405 0.09867448 0.06215136 0.122360714 0.057946775 -0.011161502 0.118570186
0.08829589 0.031876776 0.028928775 0.09621351 -0.054374024 0.10137037 -0.07699126 -0.040888652
-0.046708126 0.016718144 0.038275275 0.018242862 -0.05248646 0.005003861 -0.013081973 -0.05281219
0.093730144 -0.12278811 -0.020695899 0.018015513 0.074201316 0.030045636 0.07396266 0.036817763
0.07529856 -0.051052097 0.045033284 0.00093620364 0.103575334 0.119121015 0.03199441 -0.041471668
0.043985695 -0.024696616 0.03136081 -0.056246314 0.015373208 0.052187134 0.08229712 0.05313051
-0.017649634 0.14477794 -0.05813388 0.053147472 0.10869683 -0.06969303 -0.038216583 0.07607216
0.07227521 0.14800464 0.026774624 -0.016792355 0.01048232 0.021205872 -0.018498592 -0.010679398
-0.037272807 -0.05125803 0.122935556 0.078129224 0.105145246 -0.034716208 0.0108473385 0.025593763
-0.06189506 0.09399082 -0.24408467 -0.019930879 0.02811836 -0.02241571 0.07595989 -0.12034287
0.07075054 0.04415989 -0.03849883 -0.091714606 0.10554719 -0.086420774 0.053131316 0.078089446
0.0774931 0.07042134 -0.04587119 -0.024626061 -0.0051237685 0.14420919 -0.033635996 0.023022199
0.0045733615 0.14142299 0.030623596 0.13063298 -0.0733844 -0.046298213 -0.05532199 0.054146595
-0.04421964 0.055114392 -0.20492911 -0.03151716 0.12078329 -0.021967532 0.026433608 0.038565595
0.008851798 0.049828846 0.12288319 0.017070916 0.076900214 0.09270597 -0.11914131 0.15959145
0.09255598 -0.02393208 0.06502954 0.060284454 0.12740485 0.028048322 0.14616393 0.09815769
0.13371325 0.058195703 -0.07923217 0.011342348 -0.12908447 -0.06083235 0.21414942 0.10776569
-0.07220584 0.011458637 -0.050747123 0.019170037 0.01904403 0.11054766 -0.14210431 -0.0675887
0.03173285 0.10321541 -0.02208808 0.059470758 0.07372706 0.10539482 0.044010818 0.006015595
-0.0097966185 -0.04879797 0.039769348 -0.09038356 0.14940271 0.06652443 0.09683158 -0.07355592
0.031082321 -0.030860022 0.09620777 -0.008904474 0.038026422 -0.083459295 0.036339328 0.039156582
0.1478788 0.06353176 0.04732626 -0.06943674 0.033269394 0.053340796 -0.024956053 0.037634484
-0.040948886 0.075963736 -0.018080521 -0.05640824 0.024305476 0.06891152 -0.03363318 0.01641048
-0.091106914 0.05008208 -0.051259615 0.11486303 -0.10758407 -0.014244355 0.119819775 -0.028250435
00000000: 9af5 a63c 73c9 873d b4d0 c73c db08 f7bb
00000010: 8238 38bd 126a 89bd beb9 563d 0e13 03bd
00000020: 9257 febc 2ee8 e53c 36fe ef3d 5f67 51bd
00000030: 73ca ce3c c583 9ebd a6a4 aa3b 3c3d 0abd
00000040: 3cac 903d 32b7 f0bc a68c 603d 08cb 04be
00000050: b65e 003c ec2f df3d a6b2 0cbd b95d 423d
00000060: 72a2 d13a 440a 2ebd e666 8bbd c172 08be
00000070: 6825 303d 5578 b53d 484c 40bd 5bdd debd
00000080: c468 60bd d693 733c b03b 9b3d cc1c 6f3c
00000090: def2 1cbd 90f5 eabc 8bdc 35bd c852 353d
000000a0: 827f 4ebb 0319 83bd 7ddc de3c b743 5b3d
000000b0: ac78 d63d d443 223e 5c7b 34bd 1033 473d
000000c0: 4ec9 a4bd 7be9 813d 6841 f8bb d133 423d
000000d0: 763f 5b3d 347d d43d e6aa 52bd ac73 053e
000000e0: 597b 7cbd 04a7 90ba 0b1e 3d3d 40e9 473c
000000f0: 611a 053c 886f 823d 2af8 55bd 1170 22be
00000100: 3db5 903d 798d 363e d915 ca3d 6d92 7e3d
00000110: 4198 fa3d 9959 6d3d bcde 36bc edd4 f23d
00000120: 7ad4 b43d 3991 023d 0afc ec3c 970b c53d
00000130: 4cb7 5ebd 459b cf3d 98ad 9dbd dc7a 27bd
00000140: 0551 3fbd 7df4 883c 89c6 1c3d 0e72 953c
00000150: 0bfc 56bd 6ef7 a33b c655 56bc 9851 58bd
00000160: 97f5 bf3d 5578 fbbd 728a a9bc 4595 933c
00000170: dcf6 973d 4422 f63c bc79 973d 39ce 163d
00000180: 2236 9a3d 011c 51bd d274 383d 906b 753a
00000190: 4e1f d43d b8f5 f33d 920c 033d 32de 29bd
000001a0: 582a 343d 8f50 cabc 3174 003d 8962 66bd
000001b0: e8df 7b3c 2dc2 553d 648b a83d 619f 593d
000001c0: f795 90bc ab40 143e cb1d 6ebd 2ab1 593d
000001d0: 729c de3d 38bb 8ebd fe88 1cbd b8cb 9b3d
000001e0: 0605 943d 878e 173e 7556 db3c 1f90 89bc
000001f0: 09be 2b3c f0b7 ad3c 5c8a 97bc a4f8 2ebc
00000200: 5fab 18bd f1f3 51bd a3c5 fb3d 3702 a03d
00000210: 6456 d73d 9532 0ebd 09b9 313c 03aa d13c
00000220: ad85 7dbd 427e c03d 55f1 79be 1546 a3bc
00000230: 7a58 e63c 27a1 b7bc dc90 9b3d 5376 f6bd
00000240: a9e5 903d 00e1 343d f3b0 1dbd ded4 bbbd
00000250: 2029 d83d 60fd b0bd 39a0 593d 5ced 9f3d
00000260: b4b4 9e3d 1039 903d 6ee3 3bbd 98bc c9bc
00000270: 49e5 a7bb 93ab 133e e6c5 09bd 0d99 bc3c
00000280: 23dc 953b 30d1 103e 56de fa3c a7c4 053e
00000290: 8f4a 96bd 32a3 3dbd 5099 62bd d2c8 5d3d
000002a0: a71f 35bd a1bf 613d f0d8 51be 2318 01bd
000002b0: 3b5d f73d 41f5 b3bc 4b8b d83c f5f6 1d3d
000002c0: 2207 113c 5519 4c3d 2faa fb3d 4ed8 8b3c
000002d0: dc7d 9d3d a1dc bd3d 5c00 f4bd f16b 233e
000002e0: fd8d bd3d 360d c4bc 352e 853d d5ec 763d
000002f0: 6b76 023e 98c5 e53c ffab 153e e606 c93d
00000300: 20ec 083e 9e5e 6e3d 7a44 a2bd 41d5 393c
00000310: b82e 04be 582b 79bd fc49 5b3e 42b4 dc3d
00000320: a8e0 93bd 02bd 3b3c 37dc 4fbd 7b0a 9d3c
00000330: 3a02 9c3c d066 e23d cb83 11be f26b 8abd
00000340: 4efa 013d 9a62 d33d 10f2 b4bc 9c97 733d
00000350: 36fe 963d 3dd9 d73d b044 343d 781e c53b
00000360: ff81 20bc 61e0 47bd 2fe5 223d 041b b9bd
00000370: 06fd 183e f63d 883d a34f c63d 7ca4 96bd
00000380: 5aa0 fe3c 28ce fcbc 9408 c53d 12e4 11bc
00000390: 98c1 1b3d b5ec aabd 8cd8 143d a762 203d
000003a0: 8a6d 173e f01c 823d 2ed9 413d d934 8ebd
000003b0: 7d45 083d e17b 5a3d a370 ccbc 9e26 1a3d
000003c0: 05ba 27bd e092 9b3d 9a1d 94bc 540c 67bd
000003d0: 471c c73c 7c21 8d3d f2c2 09bd 456f 863c
000003e0: 4396 babd de22 4d3d 9af5 51bd 4f3d eb3d
000003f0: 0955 dcbd 2861 69bc 1264 f53d 756d e7bc

model.model.model.2.bias f4 [128]
-0.058667388 -0.022068992 -0.06254721 -0.13509044 -0.12754945 -0.009134435 -0.08632184 -0.06131456
-0.0773267 -0.042668965 0.054975335 0.094437405 -0.015601849 0.026221333 -0.0543503 -0.0015046285
-0.14298108 0.027643247 -0.04661602 -0.08178899 0.015519996 -0.01280063 -0.048602376 -0.008296673
0.055850185 -0.066156074 -0.037283722 -0.014994679 -0.20080628 -0.10700708 -0.025382906 -0.03995587
-0.033186488 -0.056667488 0.05488989 -0.1388257 0.005347176 -0.12769653 -0.09696771 -0.09559793
-0.01613157 0.034797486 -0.0014603524 0.04093457 -0.079812095 0.020691192 0.018651793 0.0050344137
-0.103562556 -0.016403854 -0.15597726 -0.10667243 -0.11116951 -0.09284883 0.044285025 -0.12645653
-0.228717 -0.059048414 -0.09616417 -0.101647325 -0.15194389 0.05765925 -0.022802472 -0.04770086
-0.1033316 -0.15377484 -0.050376114 -0.06251234 0.118039735 -0.10730693 0.077554226 -0.0842061
-0.006838454 -0.018553019 -0.08863264 -0.017751958 0.056369793 -0.06443467 -0.118312545 -0.0150271375
-0.13747755 -0.07935843 0.18547176 -0.06812013 -0.091825336 -0.14571911 -0.028048422 -0.042468786
-0.0628256 -0.042723738 -0.079815686 -0.081154756 -0.13045189 -0.039087627 -0.1770685 0.024808805
-0.1400538 -0.16229092 -0.028856676 -0.050088424 0.00508241 -0.071198575 0.009081516 -0.07065665
0.036383033 0.030283542 -0.06882963 -0.07551825 -0.13502093 -0.1476791 -0.09998047 -0.06144201
-0.03195154 -0.13362609 -0.06752795 0.06491086 -0.12568477 0.01784378 -0.0006182286 -0.17528056
-0.10387338 0.0020903228 0.023445174 -0.041027024 -0.041861914 -0.028133359 -0.083585575 -0.14700483
00000000: 374d 70bd 08ca b4bc c018 80bd 2655 0abe
00000010: 539c 02be 99a8 15bc 81c9 b0bd fa24 7bbd
00000020: 765d 9ebd a7c5 2ebd d12d 613d 6668 c13d
00000030: e69e 7fbc 1fce d63c 6c9e 5ebd f436 c5ba
00000040: a269 12be 1774 e23c 71f0 3ebd fc80 a7bd
00000050: 9547 7e3c bcb9 51bc 4913 47bd c5ee 07bc
00000060: 2ac3 643d d67c 87bd d1b6 18bd 3eac 75bc
00000070: 29a0 4dbe 8726 dbbd d0ef cfbc c4a8 23bd
00000080: 8eee 07bd 2b1c 68bd 39d4 603d 5328 0ebe
00000090: 5d37 af3b e1c2 02be 0297 c6bd d9c8 c3bd
000000a0: 5b26 84bc cf87 0e3d 4c69 bfba 02ab 273d
000000b0: 8674 a3bd 9380 a93c a5cb 983c b9f7 a43b
000000c0: 9b18 d4bd 6061 86bc 81b8 1fbe 1377 dabd
000000d0: d7ac e3bd 8727 bebd 3764 353d d27d 01be
000000e0: ca34 6abe c0dc 71bd b8f1 c4bd 792c d0bd
000000f0: 2e97 1bbe 1b2c 6c3d 40cc babc fa61 43bd
00000100: 859f d3bd 2777 1dbe 2f57 4ebd 7806 80bd
00000110: d1be f13d bcc3 dbbd c0d4 9e3d 3f74 acbd
00000120: 1c15 e0bb 80fc 97bc 0885 b5bd 8e6c 91bc
00000130: 03e4 663d 53f6 83bd d94d f2bd 6234 76bc
00000140: eac6 0cbe ac86 a2bd 4fec 3d3e 9182 8bbd
00000150: ec0e bcbd 6437 15be cec5 e5bc c0f3 2dbd
00000160: b5aa 80bd 16ff 2ebd 6876 a3bd 7734 a6bd
00000170: 2e95 05be 591a 20bd 7251 35be d63b cb3c
00000180: 436a 0fbe 972f 26be d664 ecbc 8529 4dbd
00000190: 588a a63b 8fd0 91bd a4ca 143c 6fb4 90bd
000001a0: 6006 153d 3115 f83c 8df6 8cbd 50a9 9abd
000001b0: ed42 0abe 3139 17be 90c2 ccbd 9eaa 7bbd
000001c0: 9edf 02bd 47d5 08be 184c 8abd fcef 843d
000001d0: 82b3 00be 1e2d 923c 9e10 22ba bf7c 33be
000001e0: 91bb d4bd ccfd 083b 1810 c03c f40b 28bd
000001f0: 6677 2bbd ee77 e6bc ea2e abbd 6f88 16be

model.model.model.4.weight f4 [128, 128]
0.085338816 0.036958925 0.10598645 0.12632793 -0.012287993 -0.077848636 -0.05117 0.08584515
-0.017977457 0.014216795 0.08149471 0.07238076 0.024499133 0.013624914 -0.010716751 0.0019414787
0.03596075 -0.017320225 0.10664248 0.15913245 0.06745807 0.1459596 0.073875815 -0.043145012
0.037767135 0.063015416 0.07245845 0.07481061 -0.014696273 0.03866028 -0.041263614 -0.045205027
-0.028602041 0.06796845 -0.046899028 0.13393222 -0.057420235 0.032727633 -0.055554472 0.04186945
-0.020845268 0.13186209 0.14175044 0.026508544 -0.03509167 -0.035240456 0.087398976 -0.055539686
-0.0015023997 0.037795156 -0.054319173 0.034138184 0.086426534 -0.027773136 -0.19959705 -0.0034386322
0.08649059 0.0442282 0.0067540347 -0.041091386 0.04571842 -0.19909756 0.078858495 0.042264238
-0.0510406 0.06904762 0.055581734 0.03023132 0.12748908 0.005357646 0.057568014 -0.06664315
0.06997834 0.06401191 0.043368742 0.0075875847 -0.010482696 0.14937486 0.031489853 -0.0153492475
0.067675784 0.111984536 0.06871604 0.027624354 -0.0073646316 0.0013769228 0.08242921 -0.035445873
-0.051218484 0.03972625 -0.04861372 -0.016789671 0.10927134 0.041620307 -0.114837684 0.039491635
0.034778986 0.015240113 0.06104413 -0.016002897 0.116612375 0.066034235 -0.037362825 0.05602093
-0.12166821 -0.16172457 0.024911301 0.067581266 0.091224246 -0.036728732 0.018415589 0.09495854
0.032998733 -0.0023364834 0.103593454 0.10916018 0.016339738 0.003918026 0.03756544 0.018599486
0.034897916 0.1836053 -0.022542465 -0.10124444 0.03699177 0.020276258 0.061333466 0.046568297
0.039285786 -0.017170012 0.024664836 -0.07569897 -0.01811657 -0.08466198 -0.012804033 -0.076066405
-0.03194713 -0.10075431 -0.020298954 -0.038994525 0.05914065 0.057392698 -0.0739697 0.0115782805
-0.060326405 -0.024276633 -0.06772059 0.057604197 0.06543019 -0.019930655 -0.055927772 -0.07621749
0.01843251 -0.025351629 0.006230343 0.02783362 -0.0018533041 -0.07330352 0.0025770671 -0.036667675
-0.039528064 0.000101046724 -0.08772662 0.024691071 0.044974953 -0.035032943 0.059035365 0.06599471
-0.044086456 -0.10719021 0.0517236 -0.045007855 0.080365084 -0.048876595 -0.0852031 -0.06029074
0.05751362 0.011319306 -0.066292405 -0.04471725 -0.10629518 0.057243444 0.009711548 -0.01626215
-0.0060953298 0.052937876 -0.031429373 -0.043855052 -0.09059612 -0.07468269 0.05274028 0.06331984
-0.091925815 -0.05413293 0.043893587 0.022966111 -0.016370233 -0.078581505 0.030123925 -0.01878102
0.015690846 -0.069937706 0.013496918 -0.08524955 -0.038334705 0.055283923 -0.0395845 0.027625533
-0.020582752 0.08082052 -0.06536615 0.041340206 -0.077324174 0.07846603 0.040990926 0.008313516
-0.102422275 -0.05140511 0.05707159 0.051549673 0.04056749 0.0015977933 0.07017917 0.03859107
-0.055441074 -0.038249034 -0.08490557 0.010979649 0.050745044 -0.08080576 -0.10450479 -0.029663289
-0.0364053 0.035615444 0.06522761 0.0154741835 -0.014685969 0.0010655604 -0.06276576 -0.049811717
0.020935992 -0.030823598 -0.080775656 -0.10205989 -0.055022564 -0.055304494 0.05173461 -0.025850274
0.06565487 0.061498027 -0.050204318 0.042742215 0.06813067 0.019514002 0.027288008 0.042931065
00000000: 1ec6 ae3d 3e62 173d 6d0f d93d 1c5c 013e
00000010: 9453 49bc 1b6f 9fbd a297 51bd 95cf af3d
00000020: 7645 93bc 8fed 683c b3e6 a63d 5d3c 943d
00000030: 68b2 c83c 083b 5f3c 5095 2fbc 3779 fe3a
00000040: 944b 133d 25e3 8dbc 5f67 da3d 9ef3 223e
00000050: 7527 8a3d 6f76 153e 344c 973d d3b8 30bd
00000060: b6b1 1a3d 3a0e 813d 1965 943d 4e36 993d
00000070: a3c8 70bc 3e5a 1e3d 0904 29bd e828 39bd
00000080: d44e eabc 0b33 8b3d 3219 40bd 8725 093e
00000090: 7b31 6bbd 690d 063d 168d 63bd 4d7f 2b3d
000000a0: b2c3 aabc db06 073e 0727 113e 7228 d93c
000000b0: 48bc 0fbd 4c58 10bd 3cfe b23d 957d 63bd
000000c0: 2bec c4ba 18cf 1a3d c87d 5ebd 7bd4 0b3d
000000d0: 6500 b13d 7d84 e3bc 2b63 4cbe ad5a 61bb
000000e0: fa21 b13d a128 353d f350 dd3b 714f 28bd
000000f0: 3d43 3b3d 3be0 4bbe 9080 a13d 441d 2d3d
00000100: f30f 51bd d768 8d3d aca9 633d aca7 f73c
00000110: 7f8c 023e 318f af3b 70cc 6b3d 347c 88bd
00000120: ce50 8f3d ad18 833d 6ca3 313d 46a1 f83b
00000130: 9dbf 2bbc b9f5 183e 81fb 003d 697b 7bbc
00000140: 9a99 8a3d 2658 e53d ffba 8c3d 784c e23c
00000150: 0253 f1bb dd79 b43a a5d0 a83d b12f 11bd
00000160: 79ca 51bd feb7 223d 2e1f 47bd 7e8a 89bc
00000170: a7c9 df3d 0e7a 2a3d 0530 ebbd fbc1 213d
00000180: 6974 0e3d abb1 793c 6909 7a3d 8218 83bc
00000190: 78d2 ee3d f53c 873d c309 19bd 3476 653d
000001a0: 2f2d f9bd 209b 25be c912 cc3c 0c68 8a3d
000001b0: c7d3 ba3d de70 16bd 4adc 963c 9f79 c23d
000001c0: ae29 073d b01f 19bb ce28 d43d 5f8f df3d
000001d0: eada 853c c962 803b 38de 193d f35d 983c
000001e0: 1ef1 0e3d 0703 3c3e faaa b8bc 3f59 cfbd
000001f0: af84 173d 651a a63c cd38 7b3d 66be 3e3d
00000200: 22ea 203d 20a8 8cbc e90d ca3c 1008 9bbd
00000210: 3369 94bc 4363 adbd 02c8 51bc b4c8 9bbd
00000220: feda 02bd 4758 cebd fe49 a6bc b9b8 1fbd
00000230: 773d 723d 9b14 6b3d 6d7d 97bd d4b2 3d3c
00000240: d218 77bd cadf c6bc 18b1 8abd 61f2 6b3d
00000250: 4300 863d 9d45 a3bc 8514 65bd ea17 9cbd
00000260: c6ff 963c 38ae cfbc e827 cc3b 5503 e43c
00000270: 91ea f2ba 2820 96bd 03e4 283b d830 16bd
00000280: 2ee8 21bd 0ce9 d338 04aa b3bd ee44 ca3c
00000290: a837 383d b47e 0fbd 11cf 713d 3c28 873d
000002a0: 0094 34bd 8a86 dbbd 20dc 533d 285a 38bd
000002b0: 7396 a43d d332 48bd f77e aebd 6cf3 76bd
000002c0: 6793 6b3d 9c74 393c 50c4 87bd 6f29 37bd
000002d0: 4ab1 d9bd 1a78 6a3d 2f1d 1f3c 3338 85bc
000002e0: 55bb c7bb 63d5 583d 16bc 00bd 5ba1 33bd
000002f0: 758a b9bd 3df3 98bd 3106 583d d5ad 813d
00000300: 9a43 bcbd 7eba 5dbd c3c9 333d 6d23 bc3c
00000310: de1a 86bc 57ef a0bd 73c6 f63c a7da 99bc
00000320: 178a 803c 803b 8fbd 2d22 5d3c 5197 aebd
00000330: da04 1dbd 6571 623d 5b23 22bd f14e e23c
00000340: 299d a8bc 3b85 a53d b0de 85bd 5954 293d
00000350: 235c 9ebd ccb2 a03d 1ae6 273d 6a35 083c
00000360: c5c2 d1bd 2a8e 52bd e6c3 693d c025 533d
00000370: 192a 263d 0c6d d13a 19ba 8f3d ab11 1e3d
00000380: 2e16 63bd 05ab 1cbd f9e2 adbd fce3 333c
00000390: 09da 4f3d 7e7d a5bd 9b06 d6bd 6d00 f3bc
000003a0: b91d 15bd 80e1 113d 0e96 853d 6e87 7d3c
000003b0: 6b9d 70bc 46aa 8b3a 568b 80bd 5f07 4cbd
000003c0: f581 ab3c c581 fcbc b56d a5bd c704 d1bd
000003d0: 575f 61bd f786 62bd ace7 533d f4c3 d3bc
000003e0: 0f76 863d 5be5 7b3d 0ba3 4dbd 7612 2f3d
000003f0: 1888 8b3d d4db 9f3c 1a8b df3c 7cd8 2f3d

model.model.model.4.bias f4 [128]
0.11013624 -0.047734696 0.10479204 -0.099938735 0.081303716 0.043503102 -0.07383402 0.01870789
0.07460196 0.103405 0.12299488 -0.04719678 0.06581671 0.0028307491 -0.015845828 -0.024309818
-0.12171749 -0.006430922 0.042597022 -0.030480923 -0.018606026 0.04892191 0.08001859 -0.039965093
0.077902496 0.09665062 0.02114591 0.002170311 -0.08593043 0.09350057 0.12650228 0.023008935
-0.0795395 0.035577536 0.08398142 -0.034778256 0.10662419 -0.010991999 0.054716557 0.000983222
0.078835174 0.017465295 0.035420578 0.08521049 0.017290253 0.011522564 0.026933959 -0.03066888
0.16853845 -0.011717728 0.18622261 -0.015498237 -0.047991633 -0.047340017 0.045371372 0.10385589
-0.01684816 0.1333108 0.109492764 0.027435718 -0.046034195 -0.0018197504 0.060030043 0.05498702
-0.06470287 0.036338497 -0.023870017 -0.044461336 -0.019363584 0.025242455 0.09968044 0.036847945
0.1260762 -0.09886942 0.32141656 -0.033436388 0.40405792 0.021641225 -0.02080779 0.021606013
-0.020471958 0.09974211 0.028589914 -0.04790088 0.045243353 0.21804793 0.12386789 -0.046080574
0.00598677 0.069594756 -0.000774647 0.10425721 -0.03774823 0.12707093 0.025610168 0.08471649
0.022581726 -0.08910277 -0.04207086 0.091057315 -0.0841069 -0.016697122 0.06346731 0.01957394
0.11245902 0.10254236 0.036620356 0.034600362 0.06793599 -0.02593749 0.045806278 0.42227617
-0.057666972 0.10820104 -0.027208889 -0.044313814 -0.023714228 0.012163667 0.016212692 -0.04400522
-0.05776423 0.0737495 -0.04688564 0.030922305 -0.0085224155 2.1978956e-05 0.0629794 0.022691635
00000000: 1c8f e13d 7585 43bd 369d d63d aeac ccbd
00000010: 9082 a63d 4f30 323d 4a36 97bd 4a41 993c
00000020: eac8 983d 00c6 d33d bde4 fb3d 6951 41bd
00000030: e9ca 863d 1784 393b 1ccf 81bc 6225 c7bc
00000040: 0547 f9bd 7cba d2bb 377a 2e3d 21b3 f9bc
00000050: aa6b 98bc 5762 483d c9e0 a33d 70b2 23bd
00000060: 588b 9f3d c3f0 c53d 303a ad3c c73b 0e3b
00000070: 4bfc afbd 3a7d bf3d d089 013e 3c7d bc3c
00000080: 9be5 a2bd c0b9 113d 73fe ab3d a573 0ebd
00000090: c95d da3d c917 34bc 781e 603d 75df 803a
000000a0: 5674 a13d 6113 8f3c 2b15 113d d682 ae3d
000000b0: 4aa4 8d3c 23c9 3c3c 9ba4 dc3c 4e3d fbbc
000000c0: 5895 2c3e b7fb 3fbc 24b1 3e3e 51ec 7dbc
000000d0: e092 44bd 9be7 41bd 55d7 393d 66b2 d43d
000000e0: 2705 8abc a082 083e be3d e03d dfc0 e03c
000000f0: 5a8e 3cbd b184 eeba 10e2 753d 123a 613d
00000100: f082 84bd add7 143d 0e8b c3bc 171d 36bd
00000110: 61a0 9ebc 44c9 ce3c 4225 cc3d dfed 163d
00000120: 1f1a 013e 0d7c cabd b690 a43e 98f4 08bd
00000130: aee0 ce3e f048 b13c 1975 aabc 18ff b03c
00000140: cfb4 a7bc 9745 cc3d 6535 ea3c b733 44bd
00000150: 1851 393d f547 5f3e 73ae fd3d fcbe 3cbd
00000160: ab2c c43b b287 8e3d ae11 4bba ce84 d53d
00000170: e39d 1abd e21e 023e 6acc d13c d77f ad3d
00000180: 50fd b83c 837b b6bd 7e52 2cbd 427c ba3d
00000190: 3d40 acbd 67c8 88bc 26fb 813d 8759 a03c
000001a0: ea50 e63d bb01 d23d 3aff 153d 1cb9 0d3d
000001b0: 0622 8b3d dc7a d4bc 5d9f 3b3d 9534 d83e
000001c0: 3434 6cbd 8298 dd3d 2de5 debc 6782 35bd
000001d0: 5744 c2bc 1e4a 473c 7bd0 843c d13e 34bd
000001e0: 2f9a 6cbd fa09 973d 280b 40bd c650 fd3c
000001f0: 9aa1 0bbc 735f b837 58fb 803d cfe3 b93c

model.model.model.6.weight f4 [128, 128]
-0.101569705 -0.08014234 -0.06306986 0.044309255 -0.08113769 -0.080534324 0.028817896 -0.062378306
-0.09039106 0.0293159 0.010485758 0.0038969903 -0.114805825 0.068895504 0.049684472 0.054349914
0.044839684 0.05702129 -0.09511885 -0.05387217 0.04255352 -0.011034455 0.047821023 0.00857773
0.018357836 -0.06442529 0.00058999116 0.06225711 -0.0070299325 0.078025796 0.012325921 -0.041884337
0.034784466 -0.09846313 -0.00038681502 0.029137488 0.07567549 -0.0001933927 0.04488874 0.019703768
0.051732708 -0.050606307 -0.020837024 -0.04361023 -0.016257264 -0.02199522 0.04746686 -0.0650947
0.03480324 -0.015043214 0.07694902 0.03292075 -0.0013934606 0.0428617 0.027400102 0.0448888
0.05751539 -0.07931305 0.0090234885 0.06463721 0.0028693941 -0.035570294 0.04346632 -0.079455964
0.074547075 -0.04020662 -0.096769825 0.026812395 -0.0002097612 -0.055085544 -0.018398698 0.052827213
-0.04961621 -0.014271605 -0.07312551 -0.06805826 -0.054161746 0.010948824 0.028239708 0.021558821
0.025061477 0.029142493 0.0041328026 0.029970862 -0.09398915 0.0013552064 -0.0029099039 0.013367979
-0.04867522 0.067189254 0.060053315 0.05612702 0.025579115 0.08176037 0.0161006 0.06696597
0.026349723 -0.03095627 -0.07526155 -0.0600478 -0.06673847 0.029445177 0.06329901 -0.071856454
0.015761048 0.043940343 -0.02472595 -0.06220942 0.06991006 -0.048352044 -0.07809945 0.0014621178
-0.072334394 -0.099710226 0.07565804 0.07426008 -0.055518292 0.044872414 -0.0804235 -0.07336859
-0.040320266 -0.0622115 0.03802208 -0.04389579 -0.054710817 -0.019872358 -0.087026976 -0.04093773
0.009381947 0.03976751 0.0026978538 0.0012693043 -0.078673914 0.01817403 -0.05515343 -0.05221194
-0.037985887 -0.078852884 -0.023623073 0.03828486 -0.034003433 -0.019094516 0.04853122 -0.023076897
0.05154559 0.03600839 -0.044824094 0.0057431026 -0.0845643 0.0061963876 -0.0058561456 -0.0067839595
-0.06911383 0.005852491 0.061026476 0.01275901 0.067776136 -0.059407163 0.071914494 -0.012996448
-0.073141575 -0.02839156 0.01484143 0.039372742 0.028977424 0.008066474 -0.054776173 0.0619965
-0.008618688 0.071168184 -0.042162605 0.076140784 0.011873736 0.071697354 -0.08943226 0.024984248
0.0003671201 0.029227711 -0.041417435 -0.008784072 -0.06393046 -0.024301082 -0.06962423 0.010046181
-0.027982194 0.07931734 0.022652453 -0.07595464 0.06003908 0.049745735 -0.05479618 0.0016656952
-0.086583585 0.008825725 0.034783103 -0.051650707 0.015259688 0.05618123 -0.017087493 -0.057580464
-0.05523249 -0.036336463 -0.00453186 0.08122786 0.025299866 0.032709084 0.07090597 -0.074475676
0.0688376 -0.024531959 -0.07702227 -0.06153052 0.033868942 -0.08443998 -0.021610044 0.048119914
-0.08038137 -0.080918066 0.06598262 0.036244273 -0.0095629115 0.03779779 0.064482264 0.012087477
-0.08531171 0.078484766 -0.015857419 -0.064073734 -0.09397234 -0.075603545 -0.025264109 0.038273204
-0.07399944 -0.044514745 -0.099190876 -0.07795481 -0.025746226 0.03207767 0.01800464 -0.09338241
-0.088301174 -0.09158908 0.035089508 0.053581636 -0.039616834 0.032591082 -0.006028778 0.043133643
-0.02733837 0.017393732 0.033948753 -0.02243121 0.028676968 -0.043787066 -0.044176597 -0.053380642
00000000: c703 d0bd ab21 a4bd c52a 81bd 9f7d 353d
00000010: 842b a6bd 2eef a4bd 8213 ec3c 6580 7fbd
00000020: f31e b9bd e627 f03c 75cc 2b3c a664 7f3b
00000030: 511f ebbd 1619 8d3d f281 4b3d 049e 5e3d
00000040: d1a9 373d 288f 693d accd c2bd 11a9 5cbd
00000050: 9a4c 2e3d dcc9 34bc fadf 433d 9b89 0c3c
00000060: 2c63 963c 68f1 83bd a3a9 1a3a 5001 7f3d
00000070: 595b e6bb fdcb 9f3d a9f2 493c e98e 2bbd
00000080: 287a 0e3d 0aa7 c9bd 6fcd cab9 beb1 ee3c
00000090: c0fb 9a3d 75c9 4ab9 41dd 373d cc69 a13c
000000a0: ade5 533d 8f48 4fbd 68b2 aabc a4a0 32bd
000000b0: f42d 85bc 522f b4bc 9c6c 423d 5f50 85bd
000000c0: d88d 0e3d d077 76bc 7397 9d3d e9d7 063d
000000d0: c7a4 b6ba c08f 2f3d 2e76 e03c 51dd 373d
000000e0: 4295 6b3d e16e a2bd 41d7 133c 8360 843d
000000f0: 720c 3c3b 28b2 11bd bd09 323d cfb9 a2bd
00000100: 23ac 983d b2af 24bd 422f c6bd aba5 db3c
00000110: 58f3 5bb9 61a1 61bd deb8 96bc 5961 583d
00000120: 5e3a 4bbd 73d3 69bc d4c2 95bd 2162 8bbd
00000130: b5d8 5dbd b262 333c f656 e73c 209c b03c
00000140: ba4d cd3c 3dbc ee3c 766c 873b 7485 f53c
00000150: 627d c0bd 2ea1 b13a 16b4 3ebb 5e05 5b3c
00000160: ab5f 47bd 859a 893d 77fa 753d 72e5 653d
00000170: 4b8b d13c fb71 a73d 68e5 833c 7425 893d
00000180: 60db d73c 0198 fdbc ba22 9abd aff4 75bd
00000190: 2eae 88bd 0337 f13c e9a2 813d 7a29 93bd
000001a0: 501d 813c cafa 333d 138e cabc 4ecf 7ebd
000001b0: 012d 8f3d cb0c 46bd 9bf2 9fbd 88a4 bf3a
000001c0: 0e24 94bd e034 ccbd 9af2 9a3d ab15 983d
000001d0: 2667 63bd 23cc 373d 13b5 a4bd 4542 96bd
000001e0: dd26 25bd 7cd1 7ebd 0abd 1b3d 12cc 33bd
000001f0: 7318 60bd 5bcb a2bc 333b b2bd 52ae 27bd
00000200: bdb6 193c 42e3 223d 7ace 303b c95e a63a
00000210: ca1f a1bd b4e1 943c 90e8 61bd 30dc 55bd
00000220: 1797 1bbd 9f7d a1bd 2d85 c1bc 96d0 1c3d
00000230: 2f47 0bbd 1a6c 9cbc acc8 463d c30b bdbc
00000240: 7821 533d 897d 133d 7899 37bd a330 bc3b
00000250: 0c30 adbd 110b cb3b e9e4 bfbb fa4b debb
00000260: 8d8b 8dbd 41c6 bf3b e6f6 793d 2b0b 513c
00000270: 37ce 8a3d ed54 73bd e847 933d 0eef 54bc
00000280: 40cb 95bd 6b95 e8bc 7829 733c 5045 213d
00000290: 1062 ed3c 3f29 043c fb5c 60bd 0bf0 7d3d
000002a0: 6635 0dbc a0c0 913d b2b2 2cbd b3ef 9b3d
000002b0: 0f8a 423c 10d6 923d 4328 b7bd c4ab cc3c
000002c0: 077a c039 f46e ef3c 54a5 29bd 11eb 0fbc
000002d0: f9ed 82bd 1013 c7bc 2697 8ebd bd98 243c
000002e0: ea3a e5bc 2171 a23d a391 b93c 1b8e 9bbd
000002f0: 8aeb 753d 2fc2 4b3d f671 60bd 7553 da3a
00000300: bc52 b1bd c699 103c ba78 0e3d b18f 53bd
00000310: c503 7a3c 4a1e 663d 12fb 8bbc 7ed9 6bbd
00000320: 773b 62bd 8bd5 14bd ff7f 94bb cb5a a63d
00000330: aa41 cf3c f6f9 053d 2637 913d b486 98bd
00000340: bafa 8c3d 3ff7 c8bc dabd 9dbd 6d07 7cbd
00000350: 29ba 0a3d deee acbd 8c07 b1bc 6319 453d
00000360: fd9e a4bd 5fb8 a5bd e521 873d e074 143d
00000370: c2ad 1cbc dbd1 1a3d 470f 843d 8e0a 463c
00000380: e8b7 aebd 9fbc a03d 6be7 81bc 1739 83bd
00000390: 9274 c0bd 08d6 9abd adf6 cebc 5dc4 1c3d
000003a0: 058d 97bd 1855 36bd 9624 cbbd c5a6 9fbd
000003b0: c0e9 d2bc e063 033d 777e 933c 473f bfbd
000003c0: 3fd7 b4bd 0e93 bbbd 04ba 0f3d 6b78 5b3d
000003d0: 4345 22bd 3a7e 053d 0e8d c5bb e7ac 303d
000003e0: b8f4 dfbc 4d7d 8e3c d90d 0b3d a8c1 b7bc
000003f0: f6eb ea3c 115a 33bd 85f2 34bd a9a5 5abd

model.model.model.6.bias f4 [128]
-0.08502133 -0.051519215 -0.030913021 0.043790415 0.03502224 0.14331649 0.05819905 -0.085144095
0.13106576 0.07466973 0.17917114 -0.059126657 0.0073346132 0.029250283 -0.051904947 -0.025683355
0.053187028 0.0070236246 -0.06930264 -0.01635279 0.027977284 -0.016373027 -0.045155417 0.08956781
0.057326093 -0.056763783 -0.017723838 -0.029047351 0.07079522 0.048075486 -0.024135634 -0.0587938
-0.0028471102 0.06770791 0.0359056 0.07945434 -0.024707481 0.0395081 -0.032037754 0.03577354
-0.046173852 0.18285134 0.07615659 0.12216694 -0.06240303 0.088830225 0.055212315 0.014769891
-0.08767944 0.06781539 -0.08180063 -0.01496949 -0.057443973 0.03302479 0.061616637 0.022108372
-0.012362812 0.009422289 -0.031879257 -0.013547482 0.03336275 0.07570849 0.15780942 -0.040824246
0.037795857 0.05444206 0.13312191 -0.045599774 -0.06849282 0.12017061 -0.038412858 0.011787075
0.031014735 0.14186667 -0.048980437 0.16380887 0.028630344 0.052030172 -0.013008344 0.011818728
-0.023436712 0.12703323 0.02381085 0.0652993 0.13680533 -0.00023816984 0.03883984 0.09783227
0.09135183 0.15068832 -0.08663129 -0.012113198 -0.08263199 -0.05735396 0.09086614 0.03863064
0.05882036 0.09307718 0.14265707 0.047875125 0.098820895 0.017912574 0.102500275 0.045247022
0.039776 0.083557725 0.05702377 -0.054503817 0.10363797 -0.014203487 -0.0033537422 -0.078396834
0.00966052 -0.04406865 -0.08178042 -0.03703046 -0.009263738 -0.048187207 -0.05784413 0.14070031
0.02151125 -0.0015344687 -0.015093787 -0.03050747 -0.036856417 0.031571504 -0.071995966 0.018858815
00000000: aa1f aebd d005 53bd 4e3d fdbc 945d 333d
00000010: 7b73 0f3d 8fc1 123e 2162 6e3d 0760 aebd
00000020: 1a36 063e 72ec 983d a478 373e cb2e 72bd
00000030: 3257 f03b 4a9e ef3c 489a 54bd e665 d2bc
00000040: a4da 593d 6f26 e63b 8bee 8dbd 49f6 85bc
00000050: 9e30 e53c ba20 86bc e3f4 38bd 546f b73d
00000060: c4ce 6a3d 2481 68bd 9531 91bc b6f4 edbc
00000070: 16fd 903d cdea 443d 18b8 c5bc c5d1 70bd
00000080: 9596 3abb 72aa 8a3d c011 133d f5b8 a23d
00000090: 5867 cabc 3fd3 213d 053a 03bd 4787 123d
000000a0: cb20 3dbd 623d 3b3e fcf7 9b3d a932 fa3d
000000b0: 529a 7fbd 9fec b53d 4f26 623d 6afd 713c
000000c0: 4791 b3bd cce2 8a3d 1787 a7bd 9742 75bc
000000d0: 5f4a 6bbd 0145 073d ba61 7c3d 9e1c b53c
000000e0: 648d 4abc f25f 1a3c d393 02bd 42f6 5dbc
000000f0: 61a7 083d 0e0d 9b3d cb98 213e 5337 27bd
00000100: d4cf 1a3d a3fe 5e3d 1c51 083e d4c6 3abd
00000110: f745 8cbd 021c f63d cd56 1dbd 931e 413c
00000120: 9d12 fe3c 7f45 113e b69f 48bd 83bd 273e
00000130: 2f8a ea3c 971d 553d f320 55bc 57a3 413c
00000140: 59fe bfbc 0015 023e f90e c33c a4bb 853d
00000150: b216 0c3e 3bbd 79b9 8616 1f3d 495c c83d
00000160: ab16 bb3d 0a4e 1a3e bf6b b1bd 6f76 46bc
00000170: f63a a9bd fceb 6abd 0718 ba3d 293b 1e3d
00000180: 9eed 703d 409f be3d b214 123e b518 443d
00000190: 9c62 ca3d 64bd 923c aaeb d13d f154 393d
000001a0: 29ec 223d 5020 ab3d c291 693d 653f 5fbd
000001b0: 2540 d43d beb5 68bc 75ca 5bbb 858e a0bd
000001c0: 2847 1e3c 5481 34bd 7e7c a7bd 40ad 17bd
000001d0: efc6 17bc f35f 45bd f7ed 6cbd be13 103e
000001e0: 5c38 b03c 3a20 c9ba ee4b 77bc cdea f9bc
000001f0: c1f6 16bd 1f51 013d 9f72 93bd cd7d 9a3c

model.model.model.8.weight f4 [5, 128]
-0.07316601 -0.076685935 -0.03936384 -0.05221321 -0.10438088 -0.016744424 0.033900984 -0.026357636
0.03756663 -0.01892573 -0.029290412 -0.006740577 0.029560033 0.036032125 -0.0062023774 -0.06419432
-0.04481019 -0.021250222 -0.034328673 -0.039245807 -0.06834737 0.032347117 -0.08215436 -0.027769942
-0.018536985 -0.06270565 0.06752596 0.051484283 -0.035794653 -0.0597233 -0.023559736 0.031043166
0.07363989 0.02138124 -0.009584925 -0.016684832 -0.03242491 -0.09615563 0.0014662897 0.026589356
0.039942004 -0.09783714 -0.07021632 -0.10876763 -0.04273857 -0.0055166525 -0.027167443 -0.07719881
-0.078254856 -0.09194226 -0.020519435 -0.057024084 -0.074392326 -0.06799108 0.04339748 0.07026203
-0.09018528 0.088389814 -0.05922902 -0.026395487 -0.0318617 -0.029678829 -0.103744335 -0.004078782
-0.05391878 0.010575828 0.004080616 -0.0599013 -0.08034118 -0.12866987 0.02714795 0.05938411
-0.019233452 -0.012846496 0.008694958 -0.12898666 -0.099692926 0.00021804671 0.05802679 -0.013962842
0.0042380886 -0.09043173 0.030502856 -0.033882245 -0.11880419 0.076903455 0.042857066 -0.032397404
-0.015246978 -0.037014306 -0.011402433 -0.0050712153 0.07344921 -0.038157858 -0.06468785 -0.07471217
0.010676871 -0.04892164 -0.061244432 -0.0032968475 -0.07348262 -0.024132326 -0.0049423617 -0.103724055
-0.0037144052 -0.12037395 0.06076019 -0.03680859 -0.010073501 -0.022043137 -0.030391816 0.0119329
-0.03233343 -0.04243572 -0.01101923 0.0762699 0.08363142 -0.045678984 0.06266455 -0.09994458
0.036200132 -0.04226578 -0.039778654 -0.058256842 -0.058241066 -0.03870443 0.08340847 0.04989865
0.050663307 0.07449963 -0.06138269 -0.00018284313 -0.06628739 -0.09588204 0.0006946887 0.06568487
-0.068243824 -0.06742126 -0.01949131 0.07409389 -0.040297586 -0.050019473 0.041401282 -0.06351186
-0.029006211 0.001970712 0.008736746 0.022426318 0.060609747 0.011395814 0.016741244 0.02283908
-0.040892635 -0.009425015 0.04763319 -0.026739297 0.05892071 -0.12714948 0.005918808 0.053979784
-0.00882271 0.06888323 -0.06502783 -0.0099616675 0.039786898 0.02765139 0.05545493 -0.02499761
-0.053916972 -0.10916531 -0.10412835 -0.046962462 -0.07960213 -0.00052207697 -0.038622797 -0.012306792
0.04659372 0.037811693 -0.08798365 0.07901029 -0.059104968 -0.024210943 0.06980702 0.047975276
0.07398256 -0.03588762 -0.057817344 0.022079691 -0.008334538 -0.00019907767 -0.08678951 0.05465672
-0.06365435 -0.032230716 -0.053115204 -0.055387847 -0.014737352 -0.05413169 -0.07906318 0.05138568
-0.08973559 -0.054592635 -0.017459955 -0.10631458 0.003555518 -0.028860174 0.078027405 0.0650969
-0.13126796 -0.11933049 0.05755051 0.061623476 -0.099232174 0.0746407 -0.085012496 -0.07858188
-0.070590526 -0.02381348 -0.017465664 -0.06643374 0.004862935 0.067906134 -0.07083857 0.019211838
0.06314038 0.013957935 -0.0093087945 0.02199898 -0.08104678 0.04381975 0.0007773927 0.06847326
-0.015161092 0.0029854598 0.06367094 0.070097476 -0.054431338 0.011343318 -0.052327503 0.041440066
0.05668905 -0.026257472 -0.02805133 0.02801121 0.068552196 -0.006965188 0.008752026 -0.08524325
-0.056760643 -0.00365519 -0.03706212 -0.0441878 0.0180879 -0.077424094 0.030865218 -0.06485338
00000000: 10d8 95bd 840d 9dbd fa3b 21bd 85dd 55bd
00000010: a5c5 d5bd 9a2b 89bc c2db 0a3d f8eb d7bc
00000020: 77df 193d 220a 9bbc 72f2 efbc 0fe0 dcbb
00000030: e227 f23c 6c96 133d 503d cbbb 5078 83bd
00000040: e48a 37bd f214 aebc 399c 0cbd 36c0 20bd
00000050: b5f9 8bbd 697e 043d 8c40 a8bd ca7d e3bc
00000060: e0da 97bc d26b 80bd 0d4b 8a3d 2fe1 523d
00000070: 6a9d 12bd 6ba0 74bd 5900 c1bc 3d4e fe3c
00000080: 83d0 963d b627 af3c 170a 1dbc a1ae 88bc
00000090: fccf 04bd 3eed c4bd 8530 c03a ecd1 d93c
000000a0: 3a9a 233d d75e c8bd 93cd 8fbd 90c1 debd
000000b0: a40e 2fbd 09c5 b4bb 428e debc 691a 9ebd
000000c0: 1544 a0bd 394c bcbd 6018 a8bc 1692 69bd
000000d0: 015b 98bd e83e 8bbd 8ec1 313d 8ae5 8f3d
000000e0: 0fb3 b8bd b805 b53d 219a 72bd 593b d8bc
000000f0: 6a81 02bd 0421 f3bc e977 d4bd 4ea7 85bb
00000100: f0d9 5cbd 3d46 2d3c b0b6 853b 115b 75bd
00000110: eb89 a4bd 09c2 03be 6165 de3c c13c 733d
00000120: 798f 9dbc 1c7a 52bc 4c75 0e3c 1415 04be
00000130: ce2b ccbd 78a3 6439 80ad 6d3d 67c4 64bc
00000140: aadf 8a3b 4534 b9bd 20e1 f93c 1cc8 0abd
00000150: 9c4f f3bd 8f7f 9d3d e48a 2f3d 24b3 04bd
00000160: 76ce 79bc 509c 17bd 45d1 3abc 702c a6bb
00000170: 8a6c 963d 6a4b 1cbd 107b 84bd b202 99bd
00000180: 0bee 2e3c 0f62 48bd 71db 7abd ec0f 58bb
00000190: 0e7e 96bd 28b1 c5bc 89f3 a1bb 476d d4bd
000001a0: 616d 73bb 9e86 f6bd addf 783d 9bc4 16bd
000001b0: 530b 25bc cf93 b4bc 42f8 f8bc 3682 433c
000001c0: 0f70 04bd 14d1 2dbd 008a 34bc 6533 9c3d
000001d0: f346 ab3d e319 3bbd 4656 803d beaf ccbd
000001e0: 9746 143d e21e 2dbd f1ee 22bd ba9e 6ebd
000001f0: 2f8e 6ebd 8988 1ebd 0fd2 aa3d 8762 4c3d
00000200: 5484 4f3d 4393 983d 6a6c 7bbd 94b9 3fb9
00000210: afc1 87bd ce5d c4bd c51b 363a ca85 863d
00000220: 6bc3 8bbd 2814 8abd 3dac 9fbc 8abe 973d
00000230: 150f 25bd 38e1 4cbd 6494 293d 8212 82bd
00000240: 6f9e edbc 1027 013b 9224 0f3c 66b7 b73c
00000250: ed41 783d 82b5 3a3c ef24 893c 0619 bb3c
00000260: 097f 27bd 616b 1abc 051b 433d 5f0c dbbc
00000270: d856 713d 7933 02be 8ff2 c13b e819 5d3d
00000280: 218d 10bc a712 8d3d 502d 85bd 4336 23bc
00000290: 96f7 223d 2b85 e23c b524 633d cac7 ccbc
000002a0: 0bd8 5cbd 1092 dfbd 3f41 d5bd b65b 40bd
000002b0: 7106 a3bd fedb 08ba f032 1ebd 6da2 49bc
000002c0: 0ed9 3e3d 6fe0 1a3d c630 b4bd 26d0 a13d
000002d0: 0d18 72bd 0756 c6bc fcf6 8e3d b981 443d
000002e0: 2b84 973d e6fe 12bd e1d1 6cbd 78e0 b43c
000002f0: 968d 08bc 81bf 50b9 b3be b1bd badf 5f3d
00000300: 365d 82bd 5b04 04bd 548f 59bd 5ede 62bd
00000310: ef74 71bc 31b9 5dbd e0eb a1bd ca79 523d
00000320: 4bc7 b7bd 879c 5fbd 2e08 8fbc 75bb d9bd
00000330: b203 693b 2c6c ecbc d5cc 9f3d 8651 853d
00000340: 1c6b 06be 8b63 f4bd 15ba 6b3d e668 7c3d
00000350: 3d3a cbbd 39dd 983d 081b aebd 89ef a0bd
00000360: c491 90bd 7d14 c3bc 2714 8fbc 6a0e 88bd
00000370: 4159 9f3b 5f12 8b3d d013 91bd 2562 9d3c
00000380: be4f 813d d3af 643c ea83 18bc 3437 b43c
00000390: dbfb a5bd 577c 333d f1c9 4b3a b53b 8c3d
000003a0: 3b66 78bc b4a7 433b e965 823d 448f 8f3d
000003b0: 65f3 5ebd 53d9 393c 5d55 56bd 0fbd 293d
000003c0: c732 683d e919 d7bc e7cb e5bc c477 e53c
000003d0: 1865 8c3d 3b3c e4bb a864 0f3c 0394 aebd
000003e0: d97d 68bd ea8b 6fbb 73ce 17bd 44fe 34bd
000003f0: 132d 943c 8690 9ebd 0ed9 fc3c d9d1 84bd

model.model.model.8.bias f4 [5]
-0.08532028 -0.0358802 -0.07418695 -0.020912664 -0.07529599
00000000: 66bc aebd 1ef7 12bd 54ef 97bd 0951 abbc
00000010: c934 9abd
